data/actor_target.pth (torch_old, 91820 bytes, 14 tensors)

fc1.weight f4 [128, 33]
0	0x3d8a975f	0.06767153
1	0x3de1e7a7	0.11030512
2	0xbdd2f9a2	-0.1030152
3	0xbce04b79	-0.027379738
4	0x3db0e067	0.08636551
5	0xbe8324fb	-0.2561415
6	0xbd6a57a5	-0.05721249
7	0xbd2d4dd7	-0.042310562
8	0x3da25407	0.07926183
9	0xbda1e769	-0.07905466
10	0xbd31d485	-0.043415565
11	0xbcb8b8fd	-0.022549147
12	0xbd8f0afc	-0.06984517
13	0xbdd40d8a	-0.10354145
14	0x38b51cbc	8.636105e-05
15	0x3db38dc5	0.08767275
16	0x3db2ca17	0.08729952
17	0xbbcb285e	-0.0061998805
18	0x3c1ed076	0.009693256
19	0xbccb8b44	-0.02484668
20	0xbda9ed9f	-0.08297276
21	0x3d11aa80	0.035562992
22	0x3d07e6ec	0.03317921
23	0xbe429172	-0.19000795
24	0xbd6b4348	-0.05743721
25	0x3e5fd9e6	0.21860465
26	0xbda178c2	-0.07884361
27	0x3db80aa9	0.08986408
28	0x3da3b93d	0.07994316
29	0x3c5d4f07	0.013507611
30	0xbdc534bf	-0.09629201
31	0x3d862a26	0.06551008
32	0x3f038b27	0.51384205
33	0xbe3ba8d8	-0.18326128
34	0x3d2e6d04	0.042584434
35	0x3d9a4d72	0.07534303
36	0x3d3c3ca9	0.045956288
37	0xbb85f09a	-0.00408752
38	0x3b8183fc	0.0039525013
39	0x3d33bec6	0.043883108
40	0x3dc5f5c3	0.09666016
41	0xbe6222f2	-0.22083643
42	0x3d3bb05b	0.045822483
43	0xbad7d3d1	-0.0016466324
44	0xbd09e9c7	-0.033670213
45	0xbd47d863	-0.048790347
46	0xbc026250	-0.00795801
47	0xbe296ea3	-0.16546111
48	0xbe4f4986	-0.2024289
49	0x3d352879	0.04422805
50	0x3d6f6436	0.058445178
51	0xbe056fa1	-0.13030864
52	0x3c15223e	0.009102402
53	0x3cb185cc	0.021670245
54	0x3e0af59c	0.13570255
55	0xbe19464b	-0.14968221
56	0xbcf888ee	-0.03033873
57	0x3ccaed8d	0.024771476
58	0xbe603fc7	-0.21899329
59	0xbd69c5e8	-0.057073504
60	0xbdbdeeb1	-0.092740424
61	0x3da37cfc	0.07982823
62	0x3d338f64	0.04383792
63	0xbc6f40c1	-0.014602841
64	0x3cbf7e1e	0.023375567
65	0x3ec5d029	0.38635376
66	0xbc4a4a30	-0.012346789
67	0xbc2fe184	-0.010734919
68	0x3e12e248	0.14344132
69	0x3def98ee	0.11699091
70	0x3ccf797f	0.025326489
71	0xbdd2a967	-0.10286217
72	0x3d974940	0.07387018
73	0xbd020946	-0.031747125
74	0x3dee611c	0.11639616
75	0x3d80d49a	0.062905505
76	0xbdd5ff48	-0.10449082
77	0x3e3c0675	0.18361838
78	0xbbfc8592	-0.0077063525
79	0x3db121df	0.086490385
80	0xbd83269c	-0.064038485
81	0x3d9cd6de	0.0765817
82	0x3c89de36	0.016829591
83	0xbd7b50cd	-0.061356355
84	0x3d3446aa	0.044012703
85	0x3ce84757	0.02835433
86	0xbe4a08b6	-0.19729885
87	0xbd8dd49c	-0.06925318
88	0xbd0597eb	-0.032615583
89	0x3d9d5343	0.076818965
90	0xbdaa535f	-0.08316683
91	0x3cc85376	0.02445386
92	0xbe206926	-0.15665111
93	0xbd51c0e1	-0.051209334
94	0x3c2996d0	0.010350898
95	0x3d9247c0	0.071425915
96	0x3e40def7	0.18835054
97	0xbda9ac1c	-0.082847804
98	0xbeb9281c	-0.36163414
99	0xbe67533c	-0.22590345
100	0x3dba1c51	0.09087432
101	0x3c782a1f	0.015146761
102	0xbc65d53e	-0.014027892
103	0xbecea70d	-0.40361825
104	0xbe19ffdd	-0.1503901
105	0x3d8658ed	0.0655993
106	0x3cc4b9f1	0.024014445
107	0x3d6bb168	0.057542235
108	0x3d27ac2f	0.04093569
109	0x3daef42a	0.08542664
110	0x3b963ee2	0.004585133
111	0xbe3c8a0d	-0.18412037
112	0xbe48ed72	-0.19621828
113	0xbdd07f5b	-0.10180541
114	0x3d6514f7	0.055928197
115	0x3c8879f8	0.016659722
116	0xbd6dbe59	-0.058042858
117	0xbccc5254	-0.0249416
118	0xbd7f76d5	-0.062369186
119	0x3e2cf6a0	0.16890955
120	0xbd15b4a1	-0.036549214
121	0xbe5bb625	-0.21456201
122	0xbc645bf5	-0.01393794
123	0xbde9b18e	-0.11410819
124	0x3baa34e2	0.0051942924
125	0x3d869913	0.06572165
126	0x3df6158b	0.12015828
127	0xbded04a3	-0.1157315
128	0xbd992d65	-0.074793614
129	0xbc03adba	-0.008037025
130	0x3d904fd6	0.070464775
131	0xbe489615	-0.19588502
132	0xbe0bc915	-0.13650925
133	0xbc28a653	-0.010293561
134	0xbc59bb2c	-0.013289254
135	0x3ba59619	0.0050532934
136	0x3d0fa6d3	0.035071205
137	0xbc25041f	-0.010071783
138	0xbb962c57	-0.0045829224
139	0x3d7f8f0a	0.062392272
140	0xbd9749a7	-0.07387095
141	0x3db750e9	0.08950979
142	0xbd5ee701	-0.05441952
143	0x3d4f27b1	0.050574962
144	0xbde7b74d	-0.11314259
145	0x3d91804e	0.0710455
146	0x3e2b6f57	0.16741692
147	0x3c192e62	0.009349437
148	0xbcbbd3ec	-0.0229282
149	0xbd901a2e	-0.070362434
150	0x3de261be	0.11053799
151	0xbd3d6c1d	-0.046245683
152	0xbe0b492a	-0.13602129
153	0xbc00b7fe	-0.007856367
154	0xbd80b5f5	-0.062847055
155	0x3d7f5b7a	0.0623431
156	0x3e12b3cf	0.14326404
157	0x3c41376e	0.011793001
158	0x3c0e09e4	0.00866935
159	0x3c613265	0.013744925
160	0xbe69539f	-0.22785805
161	0x3c3fb8b6	0.011701753
162	0xbce324c5	-0.027727494
163	0x3dafc2b9	0.08582062
164	0x3e292914	0.16519576
165	0xbdd8c2a9	-0.105840035
166	0xbe29155a	-0.16512051
167	0x3e4db951	0.20090224
168	0x3cf6ebbf	0.03014171
169	0xbe170f67	-0.1475197
170	0xbb99b689	-0.0046909493
171	0xbc2eeabc	-0.010676082
172	0xbdaf1058	-0.08548039
173	0xbde064d2	-0.1095673
174	0xbd2e7d80	-0.042600155
175	0xbd377b09	-0.04479507
176	0xbd9f9e3d	-0.077938534
177	0x3c13044d	0.008973193
178	0x3d8ceb66	0.06880836
179	0xbe679639	-0.22615899
180	0x3be6f5c0	0.0070483387
181	0xbd375f5c	-0.044768676
182	0xbd71e043	-0.059051763
183	0xbca336b4	-0.019923545
184	0x3d1628d0	0.036660016
185	0x3c66ae44	0.014079634
186	0xbddce672	-0.107861415
187	0xbc4890ff	-0.012241601
188	0xba02709d	-0.0004975887
189	0xbdc39300	-0.095495224
190	0x3bcf3663	0.006323622
191	0x3d8ff56b	0.07029232
192	0xbd677ed7	-0.05651745
193	0xbe1ff1ec	-0.1561963
194	0x3daa5414	0.08316818
195	0xbbabde24	-0.005244987
196	0xbc20bb04	-0.009810213
197	0x3e3cb5ec	0.18428773
198	0xbd0bc869	-0.034126673
199	0x3c677a2c	0.014128249
200	0xbc6ac66c	-0.014329534
201	0x3dc1f892	0.09471239
202	0x3cacd737	0.021098716
203	0x3d20d1bc	0.03926252
204	0x3d50af99	0.050948713
205	0x3b9ccda7	0.004785258
206	0xbd98ef9f	-0.07467579
207	0x3e73d9f5	0.23813613
208	0x3dfe14ef	0.124063365
209	0x3b1341bb	0.0022469598
210	0x3d8960d3	0.06707921
211	0x3e054ee3	0.13018374
212	0xbd84720a	-0.06467064
213	0x3d108e70	0.03529209
214	0x3d8bf2a8	0.068333924
215	0x3d49f35a	0.049304344
216	0x3db971df	0.09054922
217	0x3d6d37af	0.057914432
218	0xbc9b5abb	-0.018964162
219	0x3d867cdf	0.06566786
220	0x3cc590b3	0.02411685
221	0x3daf6e43	0.08565953
222	0x3ceffc98	0.02929525
223	0x3dd7271a	0.10505505
224	0x3e3dd69c	0.18538898
225	0x3e20a7a6	0.15688953
226	0x3d8e05e7	0.069347195
227	0x3d416e38	0.047224253
228	0xbe0a484e	-0.13504145
229	0x3cc6b9b4	0.024258472
230	0x3f0d6ee7	0.5524735
231	0xbe31f71b	-0.1737942
232	0xbc4ea3d3	-0.012612301
233	0x3cc512e2	0.024056856
234	0x3dca6c7d	0.09883974
235	0xbe028240	-0.12744999
236	0xbba64ad0	-0.0050748363
237	0x3b3162c2	0.002706692
238	0x3e1e5ad7	0.1546434
239	0xbad9ef6b	-0.0016627138
240	0xbcbc5110	-0.022987872
241	0xbd69c0c2	-0.057068594
242	0xbe0fcab0	-0.14042163
243	0xbd917855	-0.0710303
244	0x3d7cb234	0.061693385
245	0xbe43a33f	-0.19105242
246	0x3bdcb544	0.0067354757
247	0x3cbeddba	0.023299087
248	0xbcd96e31	-0.026541801
249	0x3d4cb316	0.049975477
250	0x3b68da1b	0.0035530392
251	0xbdda2d74	-0.10653201
252	0xbce5f328	-0.028070047
253	0x3da39c58	0.079888046
254	0xbc80e01e	-0.015731867
255	0xbd48065e	-0.048834197

fc1.bias f4 [128]
0	0xbd9d4fb9	-0.076812215
1	0xbd8a99ea	-0.06767638
2	0x3e09d3d6	0.13459715
3	0xbde86a5a	-0.1134841
4	0xbc15ca1f	-0.009142428
5	0xbe12b472	-0.14326647
6	0xbe75df1b	-0.24010889
7	0xbe1a8cbe	-0.15092751
8	0xbe4d7ef8	-0.20067966
9	0xbde3617e	-0.111025795
10	0x3b351930	0.002763342
11	0xbd06588e	-0.032799296
12	0xbc08051f	-0.008302002
13	0x3e2605d9	0.16213168
14	0xbc912f30	-0.017722696
15	0x3d837c43	0.064201854
16	0x3df2664d	0.118359186
17	0x3df25482	0.11832525
18	0x3d923ceb	0.071405254
19	0x3c0d5db2	0.008628296
20	0xbd872c9f	-0.06600308
21	0x3e005590	0.1253264
22	0x3e806673	0.25078163
23	0x3d90fbe1	0.07079292
24	0x3d2c4d9b	0.042066198
25	0xbdbb1b04	-0.09136012
26	0xbd76e906	-0.060280822
27	0x3dff2037	0.12457316
28	0x3e8ea616	0.2786109
29	0x3e12a265	0.14319761
30	0x3d8b86ad	0.06812797
31	0x3cc93ef3	0.02456615
32	0xbd252d42	-0.040326364
33	0xbd9f2f83	-0.07772734
34	0xbdc4bde4	-0.09606531
35	0xbd63541f	-0.055500146
36	0xbc5d0987	-0.013491041
37	0x3d89ce50	0.06728804
38	0xbd91a143	-0.07110836
39	0x3d6b133c	0.05739139
40	0x3e01493f	0.12625597
41	0xbe2a6a69	-0.16642155
42	0xbe0d12ad	-0.13776655
43	0x3e624c0c	0.22099322
44	0x3e0eb16a	0.13934866
45	0xbda25c57	-0.07927769
46	0xbdf1ea46	-0.11812262
47	0x3ba24666	0.00495224
48	0xbe2023a5	-0.15638597
49	0x3b18cc22	0.0023315032
50	0x3dedf544	0.11619046
51	0x3e7fb358	0.24970758
52	0xbdbe2562	-0.09284474
53	0x3e3b61ba	0.18298998
54	0xbe177388	-0.14790165
55	0x3dd43908	0.1036244
56	0x3cb63aa4	0.022244759
57	0x3e8350a0	0.2564745
58	0xbde85464	-0.11344221
59	0xbe2dff87	-0.16992007
60	0x3e453838	0.19259727
61	0x3d17ad78	0.037030667
62	0x3bb9701c	0.0056591164
63	0x3e00657f	0.12538718
64	0x3e8bde88	0.27318215
65	0xbe02abc1	-0.12760831
66	0xbd3e996e	-0.04653304
67	0xbd597e3a	-0.053098895
68	0x3e9a692b	0.30158362
69	0x3e3536ec	0.17696732
70	0x3dba9e49	0.09112222
71	0xbd9759a9	-0.07390148
72	0x3e340a95	0.17582162
73	0xbc24b5de	-0.010053126
74	0xbd278cca	-0.04090575
75	0xbdd649e8	-0.10463315
76	0xbe1b00bc	-0.15136999
77	0xbe4ce57b	-0.20009415
78	0x3e2c5c08	0.16831982
79	0x3e391413	0.18074064
80	0x3dc465ee	0.09589754
81	0xbc19d1f1	-0.009388433
82	0x3e074b0a	0.13212219
83	0xbe35d6c3	-0.17757706
84	0x3e33d599	0.1756195
85	0xbc8b988d	-0.017040515
86	0xbd5f6ce6	-0.054547213
87	0xbd2b5a32	-0.041834064
88	0x3d4722e1	0.048617247
89	0xbdf2081f	-0.11817955
90	0x3b8a5f00	0.0042227507
91	0x3e39e82b	0.18154971
92	0x3e409a0c	0.18808764
93	0x3e3ad44b	0.18245046
94	0x3bdfacc1	0.006826014
95	0x3dbb5aa0	0.09148145
96	0xbbc0cb27	-0.0058835926
97	0x3e53c5e3	0.20680957
98	0x3d7e8827	0.062141564
99	0xbb91b7f9	-0.00444698
100	0x3d93dc5f	0.07219767
101	0x3d9a0c0b	0.07521828
102	0x3eacdd72	0.337627
103	0x3dc720b7	0.09723037
104	0x3d36acdf	0.044598456
105	0xbc4e6e6a	-0.012599567
106	0x3e65e446	0.2245036
107	0x3e77861e	0.24172255
108	0xbd6080cc	-0.05481033
109	0x3e400e70	0.18755507
110	0x3d9afdbd	0.07567928
111	0x3c2419ed	0.010015947
112	0x3dd8a6a8	0.10578662
113	0xbd088512	-0.03333003
114	0x3e455ce1	0.19273712
115	0xbe1cff08	-0.15331662
116	0x3d15acc8	0.03654173
117	0xbe49474b	-0.19656102
118	0x3ddf8dd2	0.10915722
119	0x3e2f5cc8	0.17125237
120	0x3d37459f	0.04474413
121	0xbe158ea2	-0.14605191
122	0x3ce42ce9	0.027853446
123	0xbd8a47d4	-0.067519814
124	0x3cf814cd	0.030283356
125	0x3e328f64	0.17437512
126	0xbc80cd73	-0.015722966
127	0x3d835dd8	0.06414384

bn1.weight f4 [128]
0	0x3f800000	1.0
1	0x3f800000	1.0
2	0x3f800000	1.0
3	0x3f800000	1.0
4	0x3f800000	1.0
5	0x3f800000	1.0
6	0x3f800000	1.0
7	0x3f800000	1.0
8	0x3f800000	1.0
9	0x3f800000	1.0
10	0x3f800000	1.0
11	0x3f800000	1.0
12	0x3f800000	1.0
13	0x3f800000	1.0
14	0x3f800000	1.0
15	0x3f800000	1.0
16	0x3f800000	1.0
17	0x3f800000	1.0
18	0x3f800000	1.0
19	0x3f800000	1.0
20	0x3f800000	1.0
21	0x3f800000	1.0
22	0x3f800000	1.0
23	0x3f800000	1.0
24	0x3f800000	1.0
25	0x3f800000	1.0
26	0x3f800000	1.0
27	0x3f800000	1.0
28	0x3f800000	1.0
29	0x3f800000	1.0
30	0x3f800000	1.0
31	0x3f800000	1.0
32	0x3f800000	1.0
33	0x3f800000	1.0
34	0x3f800000	1.0
35	0x3f800000	1.0
36	0x3f800000	1.0
37	0x3f800000	1.0
38	0x3f800000	1.0
39	0x3f800000	1.0
40	0x3f800000	1.0
41	0x3f800000	1.0
42	0x3f800000	1.0
43	0x3f800000	1.0
44	0x3f800000	1.0
45	0x3f800000	1.0
46	0x3f800000	1.0
47	0x3f800000	1.0
48	0x3f800000	1.0
49	0x3f800000	1.0
50	0x3f800000	1.0
51	0x3f800000	1.0
52	0x3f800000	1.0
53	0x3f800000	1.0
54	0x3f800000	1.0
55	0x3f800000	1.0
56	0x3f800000	1.0
57	0x3f800000	1.0
58	0x3f800000	1.0
59	0x3f800000	1.0
60	0x3f800000	1.0
61	0x3f800000	1.0
62	0x3f800000	1.0
63	0x3f800000	1.0
64	0x3f800000	1.0
65	0x3f800000	1.0
66	0x3f800000	1.0
67	0x3f800000	1.0
68	0x3f800000	1.0
69	0x3f800000	1.0
70	0x3f800000	1.0
71	0x3f800000	1.0
72	0x3f800000	1.0
73	0x3f800000	1.0
74	0x3f800000	1.0
75	0x3f800000	1.0
76	0x3f800000	1.0
77	0x3f800000	1.0
78	0x3f800000	1.0
79	0x3f800000	1.0
80	0x3f800000	1.0
81	0x3f800000	1.0
82	0x3f800000	1.0
83	0x3f800000	1.0
84	0x3f800000	1.0
85	0x3f800000	1.0
86	0x3f800000	1.0
87	0x3f800000	1.0
88	0x3f800000	1.0
89	0x3f800000	1.0
90	0x3f800000	1.0
91	0x3f800000	1.0
92	0x3f800000	1.0
93	0x3f800000	1.0
94	0x3f800000	1.0
95	0x3f800000	1.0
96	0x3f800000	1.0
97	0x3f800000	1.0
98	0x3f800000	1.0
99	0x3f800000	1.0
100	0x3f800000	1.0
101	0x3f800000	1.0
102	0x3f800000	1.0
103	0x3f800000	1.0
104	0x3f800000	1.0
105	0x3f800000	1.0
106	0x3f800000	1.0
107	0x3f800000	1.0
108	0x3f800000	1.0
109	0x3f800000	1.0
110	0x3f800000	1.0
111	0x3f800000	1.0
112	0x3f800000	1.0
113	0x3f800000	1.0
114	0x3f800000	1.0
115	0x3f800000	1.0
116	0x3f800000	1.0
117	0x3f800000	1.0
118	0x3f800000	1.0
119	0x3f800000	1.0
120	0x3f800000	1.0
121	0x3f800000	1.0
122	0x3f800000	1.0
123	0x3f800000	1.0
124	0x3f800000	1.0
125	0x3f800000	1.0
126	0x3f800000	1.0
127	0x3f800000	1.0

bn1.bias f4 [128]
0	0x00000000	0.0
1	0x00000000	0.0
2	0x00000000	0.0
3	0x00000000	0.0
4	0x00000000	0.0
5	0x00000000	0.0
6	0x00000000	0.0
7	0x00000000	0.0
8	0x00000000	0.0
9	0x00000000	0.0
10	0x00000000	0.0
11	0x00000000	0.0
12	0x00000000	0.0
13	0x00000000	0.0
14	0x00000000	0.0
15	0x00000000	0.0
16	0x00000000	0.0
17	0x00000000	0.0
18	0x00000000	0.0
19	0x00000000	0.0
20	0x00000000	0.0
21	0x00000000	0.0
22	0x00000000	0.0
23	0x00000000	0.0
24	0x00000000	0.0
25	0x00000000	0.0
26	0x00000000	0.0
27	0x00000000	0.0
28	0x00000000	0.0
29	0x00000000	0.0
30	0x00000000	0.0
31	0x00000000	0.0
32	0x00000000	0.0
33	0x00000000	0.0
34	0x00000000	0.0
35	0x00000000	0.0
36	0x00000000	0.0
37	0x00000000	0.0
38	0x00000000	0.0
39	0x00000000	0.0
40	0x00000000	0.0
41	0x00000000	0.0
42	0x00000000	0.0
43	0x00000000	0.0
44	0x00000000	0.0
45	0x00000000	0.0
46	0x00000000	0.0
47	0x00000000	0.0
48	0x00000000	0.0
49	0x00000000	0.0
50	0x00000000	0.0
51	0x00000000	0.0
52	0x00000000	0.0
53	0x00000000	0.0
54	0x00000000	0.0
55	0x00000000	0.0
56	0x00000000	0.0
57	0x00000000	0.0
58	0x00000000	0.0
59	0x00000000	0.0
60	0x00000000	0.0
61	0x00000000	0.0
62	0x00000000	0.0
63	0x00000000	0.0
64	0x00000000	0.0
65	0x00000000	0.0
66	0x00000000	0.0
67	0x00000000	0.0
68	0x00000000	0.0
69	0x00000000	0.0
70	0x00000000	0.0
71	0x00000000	0.0
72	0x00000000	0.0
73	0x00000000	0.0
74	0x00000000	0.0
75	0x00000000	0.0
76	0x00000000	0.0
77	0x00000000	0.0
78	0x00000000	0.0
79	0x00000000	0.0
80	0x00000000	0.0
81	0x00000000	0.0
82	0x00000000	0.0
83	0x00000000	0.0
84	0x00000000	0.0
85	0x00000000	0.0
86	0x00000000	0.0
87	0x00000000	0.0
88	0x00000000	0.0
89	0x00000000	0.0
90	0x00000000	0.0
91	0x00000000	0.0
92	0x00000000	0.0
93	0x00000000	0.0
94	0x00000000	0.0
95	0x00000000	0.0
96	0x00000000	0.0
97	0x00000000	0.0
98	0x00000000	0.0
99	0x00000000	0.0
100	0x00000000	0.0
101	0x00000000	0.0
102	0x00000000	0.0
103	0x00000000	0.0
104	0x00000000	0.0
105	0x00000000	0.0
106	0x00000000	0.0
107	0x00000000	0.0
108	0x00000000	0.0
109	0x00000000	0.0
110	0x00000000	0.0
111	0x00000000	0.0
112	0x00000000	0.0
113	0x00000000	0.0
114	0x00000000	0.0
115	0x00000000	0.0
116	0x00000000	0.0
117	0x00000000	0.0
118	0x00000000	0.0
119	0x00000000	0.0
120	0x00000000	0.0
121	0x00000000	0.0
122	0x00000000	0.0
123	0x00000000	0.0
124	0x00000000	0.0
125	0x00000000	0.0
126	0x00000000	0.0
127	0x00000000	0.0

bn1.running_mean f4 [128]
0	0x00000000	0.0
1	0x00000000	0.0
2	0x00000000	0.0
3	0x00000000	0.0
4	0x00000000	0.0
5	0x00000000	0.0
6	0x00000000	0.0
7	0x00000000	0.0
8	0x00000000	0.0
9	0x00000000	0.0
10	0x00000000	0.0
11	0x00000000	0.0
12	0x00000000	0.0
13	0x00000000	0.0
14	0x00000000	0.0
15	0x00000000	0.0
16	0x00000000	0.0
17	0x00000000	0.0
18	0x00000000	0.0
19	0x00000000	0.0
20	0x00000000	0.0
21	0x00000000	0.0
22	0x00000000	0.0
23	0x00000000	0.0
24	0x00000000	0.0
25	0x00000000	0.0
26	0x00000000	0.0
27	0x00000000	0.0
28	0x00000000	0.0
29	0x00000000	0.0
30	0x00000000	0.0
31	0x00000000	0.0
32	0x00000000	0.0
33	0x00000000	0.0
34	0x00000000	0.0
35	0x00000000	0.0
36	0x00000000	0.0
37	0x00000000	0.0
38	0x00000000	0.0
39	0x00000000	0.0
40	0x00000000	0.0
41	0x00000000	0.0
42	0x00000000	0.0
43	0x00000000	0.0
44	0x00000000	0.0
45	0x00000000	0.0
46	0x00000000	0.0
47	0x00000000	0.0
48	0x00000000	0.0
49	0x00000000	0.0
50	0x00000000	0.0
51	0x00000000	0.0
52	0x00000000	0.0
53	0x00000000	0.0
54	0x00000000	0.0
55	0x00000000	0.0
56	0x00000000	0.0
57	0x00000000	0.0
58	0x00000000	0.0
59	0x00000000	0.0
60	0x00000000	0.0
61	0x00000000	0.0
62	0x00000000	0.0
63	0x00000000	0.0
64	0x00000000	0.0
65	0x00000000	0.0
66	0x00000000	0.0
67	0x00000000	0.0
68	0x00000000	0.0
69	0x00000000	0.0
70	0x00000000	0.0
71	0x00000000	0.0
72	0x00000000	0.0
73	0x00000000	0.0
74	0x00000000	0.0
75	0x00000000	0.0
76	0x00000000	0.0
77	0x00000000	0.0
78	0x00000000	0.0
79	0x00000000	0.0
80	0x00000000	0.0
81	0x00000000	0.0
82	0x00000000	0.0
83	0x00000000	0.0
84	0x00000000	0.0
85	0x00000000	0.0
86	0x00000000	0.0
87	0x00000000	0.0
88	0x00000000	0.0
89	0x00000000	0.0
90	0x00000000	0.0
91	0x00000000	0.0
92	0x00000000	0.0
93	0x00000000	0.0
94	0x00000000	0.0
95	0x00000000	0.0
96	0x00000000	0.0
97	0x00000000	0.0
98	0x00000000	0.0
99	0x00000000	0.0
100	0x00000000	0.0
101	0x00000000	0.0
102	0x00000000	0.0
103	0x00000000	0.0
104	0x00000000	0.0
105	0x00000000	0.0
106	0x00000000	0.0
107	0x00000000	0.0
108	0x00000000	0.0
109	0x00000000	0.0
110	0x00000000	0.0
111	0x00000000	0.0
112	0x00000000	0.0
113	0x00000000	0.0
114	0x00000000	0.0
115	0x00000000	0.0
116	0x00000000	0.0
117	0x00000000	0.0
118	0x00000000	0.0
119	0x00000000	0.0
120	0x00000000	0.0
121	0x00000000	0.0
122	0x00000000	0.0
123	0x00000000	0.0
124	0x00000000	0.0
125	0x00000000	0.0
126	0x00000000	0.0
127	0x00000000	0.0

bn1.running_var f4 [128]
0	0x3f800000	1.0
1	0x3f800000	1.0
2	0x3f800000	1.0
3	0x3f800000	1.0
4	0x3f800000	1.0
5	0x3f800000	1.0
6	0x3f800000	1.0
7	0x3f800000	1.0
8	0x3f800000	1.0
9	0x3f800000	1.0
10	0x3f800000	1.0
11	0x3f800000	1.0
12	0x3f800000	1.0
13	0x3f800000	1.0
14	0x3f800000	1.0
15	0x3f800000	1.0
16	0x3f800000	1.0
17	0x3f800000	1.0
18	0x3f800000	1.0
19	0x3f800000	1.0
20	0x3f800000	1.0
21	0x3f800000	1.0
22	0x3f800000	1.0
23	0x3f800000	1.0
24	0x3f800000	1.0
25	0x3f800000	1.0
26	0x3f800000	1.0
27	0x3f800000	1.0
28	0x3f800000	1.0
29	0x3f800000	1.0
30	0x3f800000	1.0
31	0x3f800000	1.0
32	0x3f800000	1.0
33	0x3f800000	1.0
34	0x3f800000	1.0
35	0x3f800000	1.0
36	0x3f800000	1.0
37	0x3f800000	1.0
38	0x3f800000	1.0
39	0x3f800000	1.0
40	0x3f800000	1.0
41	0x3f800000	1.0
42	0x3f800000	1.0
43	0x3f800000	1.0
44	0x3f800000	1.0
45	0x3f800000	1.0
46	0x3f800000	1.0
47	0x3f800000	1.0
48	0x3f800000	1.0
49	0x3f800000	1.0
50	0x3f800000	1.0
51	0x3f800000	1.0
52	0x3f800000	1.0
53	0x3f800000	1.0
54	0x3f800000	1.0
55	0x3f800000	1.0
56	0x3f800000	1.0
57	0x3f800000	1.0
58	0x3f800000	1.0
59	0x3f800000	1.0
60	0x3f800000	1.0
61	0x3f800000	1.0
62	0x3f800000	1.0
63	0x3f800000	1.0
64	0x3f800000	1.0
65	0x3f800000	1.0
66	0x3f800000	1.0
67	0x3f800000	1.0
68	0x3f800000	1.0
69	0x3f800000	1.0
70	0x3f800000	1.0
71	0x3f800000	1.0
72	0x3f800000	1.0
73	0x3f800000	1.0
74	0x3f800000	1.0
75	0x3f800000	1.0
76	0x3f800000	1.0
77	0x3f800000	1.0
78	0x3f800000	1.0
79	0x3f800000	1.0
80	0x3f800000	1.0
81	0x3f800000	1.0
82	0x3f800000	1.0
83	0x3f800000	1.0
84	0x3f800000	1.0
85	0x3f800000	1.0
86	0x3f800000	1.0
87	0x3f800000	1.0
88	0x3f800000	1.0
89	0x3f800000	1.0
90	0x3f800000	1.0
91	0x3f800000	1.0
92	0x3f800000	1.0
93	0x3f800000	1.0
94	0x3f800000	1.0
95	0x3f800000	1.0
96	0x3f800000	1.0
97	0x3f800000	1.0
98	0x3f800000	1.0
99	0x3f800000	1.0
100	0x3f800000	1.0
101	0x3f800000	1.0
102	0x3f800000	1.0
103	0x3f800000	1.0
104	0x3f800000	1.0
105	0x3f800000	1.0
106	0x3f800000	1.0
107	0x3f800000	1.0
108	0x3f800000	1.0
109	0x3f800000	1.0
110	0x3f800000	1.0
111	0x3f800000	1.0
112	0x3f800000	1.0
113	0x3f800000	1.0
114	0x3f800000	1.0
115	0x3f800000	1.0
116	0x3f800000	1.0
117	0x3f800000	1.0
118	0x3f800000	1.0
119	0x3f800000	1.0
120	0x3f800000	1.0
121	0x3f800000	1.0
122	0x3f800000	1.0
123	0x3f800000	1.0
124	0x3f800000	1.0
125	0x3f800000	1.0
126	0x3f800000	1.0
127	0x3f800000	1.0

fc2.weight f4 [128, 128]
0	0xbe584c27	-0.211228
1	0xb9fc149f	-0.0004808055
2	0x3d260332	0.04053039
3	0xbcf022bf	-0.029313443
4	0xb811d592	-3.4769597e-05
5	0x3e27281a	0.16323891
6	0x3e00b92b	0.12570636
7	0x3d613f71	0.054992143
8	0xbdb05c69	-0.08611376
9	0x3d30010e	0.042969756
10	0x3dda9a9c	0.10674021
11	0xbe0d49da	-0.13797703
12	0x3d69dd3e	0.05709576
13	0xbda315b9	-0.07963128
14	0xbe0a3e4a	-0.13500324
15	0x3e024281	0.12720682
16	0x3de9e735	0.11421052
17	0x3de54738	0.111952245
18	0x3df00831	0.117203124
19	0xbc33d8b7	-0.010976962
20	0x3e278453	0.16359071
21	0xbd402524	-0.04691042
22	0xbd91924b	-0.07107981
23	0x3d5455be	0.051839583
24	0xbdf5ceb3	-0.12002315
25	0xbdc20ddd	-0.094753005
26	0x3d9d9aa6	0.076955125
27	0x3e3f6343	0.18690209
28	0x3bba3821	0.0056829606
29	0x3d24dc46	0.04024913
30	0x3e1950fc	0.149723
31	0x3cfc58fc	0.03080415
32	0xbd592746	-0.05301597
33	0xbdf948c5	-0.12172083
34	0xbe26712f	-0.16254114
35	0xbc2ed139	-0.01067
36	0x3dec912c	0.11551127
37	0x3ac12bd0	0.0014737789
38	0xbd6a48eb	-0.057198446
39	0x3d9f02d9	0.07764215
40	0x3cd97bce	0.026548292
41	0x3e1bb70c	0.15206546
42	0x3d586c9b	0.05283795
43	0x3c7b6172	0.015343057
44	0x3e110201	0.1416092
45	0x3c0ec25b	0.00871333
46	0x3cf6f7e4	0.0301475
47	0xbda1fec9	-0.079099245
48	0x3dfb500f	0.12271129
49	0x3dce5fe1	0.10076881
50	0x3e4fe0ef	0.20300649
51	0x3d7cf780	0.061759472
52	0xbc194a16	-0.009356042
53	0xbc3139fc	-0.010817047
54	0xbc1ff8bb	-0.009763892
55	0x3d4fc3de	0.050723903
56	0xbe03bc91	-0.12864901
57	0xbbc9524f	-0.006143845
58	0x3ba06fe0	0.004896149
59	0xbd128a0e	-0.03577619
60	0x3d02b58c	0.031911418
61	0x3c4c6740	0.012475789
62	0x3e174184	0.14771086
63	0xbc1be4ce	-0.0095150005
64	0xbd533af7	-0.051569905
65	0xbd8b8374	-0.06812182
66	0x3d81cbb7	0.06337684
67	0xbda063ea	-0.07831557
68	0x3d46b939	0.048516486
69	0x3d6b5c73	0.057461213
70	0x3c929199	0.017891692
71	0xbdac105a	-0.08401556
72	0x3c754927	0.014971054
73	0xbdba416b	-0.09094509
74	0xbd9901a0	-0.07471013
75	0xbd3da8ea	-0.046303667
76	0x3e1a73a8	0.15083182
77	0x3b3ae244	0.0028516212
78	0x3cdc3ddb	0.026884964
79	0x3cc5a2cf	0.024125485
80	0x3d507cc2	0.05090023
81	0x3d89f18c	0.067355245
82	0x3dc0c80e	0.094131574
83	0xbd76e00d	-0.060272265
84	0xbe1d5e31	-0.15367962
85	0x3e073695	0.13204415
86	0xbe6c953d	-0.23103805
87	0x3de69e0d	0.112606145
88	0x3e33d743	0.17562585
89	0x3d2b9839	0.041893218
90	0xbc0cae5b	-0.008586491
91	0x3d1be1b0	0.03805703
92	0x3cd1cb6e	0.025609698
93	0x3e0e5cca	0.13902584
94	0x3d544437	0.051822867
95	0x3d4eb0cb	0.05046157
96	0xbd0e48ea	-0.034737505
97	0xbe2b239a	-0.167128
98	0x3c883861	0.016628446
99	0xbd47a67e	-0.048742764
100	0x3ce48ad8	0.027898237
101	0xbdf2f32f	-0.1186279
102	0xbe20d071	-0.15704514
103	0x3e0ed223	0.13947348
104	0x3da1d16e	0.07901274
105	0x3c63a775	0.013894905
106	0xbddd7e5a	-0.10815115
107	0x3bc61db7	0.0060460228
108	0x3d52ffc0	0.051513433
109	0xbae5ff1d	-0.0017547343
110	0x3df14246	0.11780219
111	0x3cca3efa	0.024688233
112	0x3d0729aa	0.03299872
113	0xbdb776c0	-0.08958197
114	0xbd8941fa	-0.06702037
115	0xbdb10e7f	-0.08645343
116	0x3d285806	0.04109957
117	0x3e1ebd42	0.15501884
118	0xbc37eb46	-0.011225527
119	0x3da43d0a	0.08019455
120	0xbd416871	-0.047218744
121	0xbe65635b	-0.22401182
122	0x3d17677c	0.036963925
123	0xbd8cbd42	-0.068720356
124	0x3cb97490	0.02263859
125	0x3db871f9	0.090061136
126	0xbce3af89	-0.027793663
127	0xbde26324	-0.11054066
128	0xbba46d5b	-0.005017919
129	0x3d54e261	0.051973704
130	0x3d0944cf	0.033512887
131	0x3db1d05b	0.08682319
132	0xbdb0bfeb	-0.086303554
133	0x3e0c151b	0.13679926
134	0x3e323adb	0.17405264
135	0x3d305950	0.043053925
136	0x3e1d5ff2	0.15368631
137	0xbd658c2a	-0.056041874
138	0x3e58e55a	0.2118124
139	0x3e2d2a1e	0.16910598
140	0xbb638cb9	-0.0034721328
141	0x3daf66d9	0.085645385
142	0xbda56b63	-0.08077123
143	0x3db61b72	0.088919535
144	0x3d96917a	0.07351966
145	0xbda3daed	-0.08000741
146	0x3d4e7470	0.050404012
147	0xbc69f844	-0.014280383
148	0x3dc5e471	0.09662712
149	0xbd8f1507	-0.069864325
150	0x3bb0bdf6	0.005393739
151	0x3d6747f4	0.056465104
152	0x3d0c707e	0.03428697
153	0x3c464098	0.012100361
154	0x3da1c507	0.07898908
155	0xb9e62f42	-0.00043904228
156	0xba3a8a32	-0.00071159296
157	0x3cb0e0fb	0.021591654
158	0xbc4322c0	-0.0119101405
159	0x3d642820	0.05570233
160	0xbb4cadf5	-0.0031231616
161	0xbcd5666f	-0.02604982
162	0xbcfcd250	-0.030862004
163	0xbe0c60ea	-0.13708845
164	0x3d55b42c	0.05217378
165	0x3dd0b130	0.10190046
166	0xbd66bfc8	-0.05633524
167	0x3dc3aacf	0.095540635
168	0xbd2db1aa	-0.04240576
169	0xbdeb5d0e	-0.11492358
170	0xbe29bc1a	-0.16575661
171	0xbb226aef	-0.0024782976
172	0x3b9e08a7	0.004822809
173	0xbd131d9d	-0.035916913
174	0x3e626a26	0.22110805
175	0x3e0a02a8	0.13477576
176	0x3e169331	0.14704587
177	0x3d85df35	0.06536714
178	0xbd700a0c	-0.05860333
179	0x3e8da5f4	0.27665675
180	0xbde8d1f5	-0.11368171
181	0x3dc9448e	0.09827529
182	0x3dc79b83	0.097464584
183	0xbd9fe178	-0.078066766
184	0x3e98be08	0.29832482
185	0xbe0eeaca	-0.13956752
186	0xbe9babea	-0.30404598
187	0xbe4cbc06	-0.199936
188	0x3d691a69	0.056909952
189	0xbe13abef	-0.14421056
190	0x3db17c4e	0.08666287
191	0xbb890ba9	-0.004182298
192	0x3c2aab66	0.010416841
193	0x3d1e941a	0.03871546
194	0xbcf4e518	-0.029894397
195	0x3dc6ebaf	0.09712922
196	0xbe25664a	-0.16152301
197	0xbd45b786	-0.048270725
198	0x3dc84848	0.097794116
199	0xbd972fce	-0.07382165
200	0x3bb2f3fa	0.005461213
201	0x3cb9ce4d	0.02268138
202	0x3d27ee4c	0.040998742
203	0x3e539c61	0.20665123
204	0x3d9eb448	0.0774923
205	0xbde2133f	-0.11038827
206	0xbe052fec	-0.13006562
207	0xbd7d8775	-0.06189676
208	0x3e592c7f	0.2120838
209	0xbe03186d	-0.12802286
210	0x3e25764e	0.16158411
211	0xbc398f97	-0.011325738
212	0xbd561d8c	-0.05227427
213	0x3d7a9f98	0.061187357
214	0xbdcaa7c4	-0.0989528
215	0x3e1bed57	0.15227257
216	0xbad90567	-0.0016557396
217	0x3dc882b6	0.09790556
218	0xbd3a6bda	-0.04551301
219	0x3d887e45	0.06664709
220	0xbc8c65e5	-0.01713843
221	0x3e15d6e6	0.14632758
222	0xbd4b2032	-0.04959125
223	0xbc97cbb3	-0.018529749
224	0xbd969de2	-0.073543325
225	0xbb28d1d0	-0.0025759824
226	0x3d0081bb	0.03137372
227	0xbd2deec0	-0.042464018
228	0xbd880324	-0.06641224
229	0x3b0fb3ed	0.0021927312
230	0x3cd95fdf	0.026534973
231	0x3db38dc9	0.08767278
232	0x3ccb26fc	0.024798863
233	0xbbc6e4f9	-0.006069776
234	0x3e3ea528	0.1861769
235	0xbe5ef89d	-0.21774526
236	0x3de4226c	0.11139378
237	0xbd9da3dc	-0.07697269
238	0xbd08d77b	-0.033408623
239	0xbd6ae537	-0.057347503
240	0x3c80e8a2	0.015735928
241	0xbd6e0235	-0.058107574
242	0xbdc9bf7a	-0.098509744
243	0x3c46e24e	0.012138916
244	0x3da2723b	0.07931944
245	0xbda23cf2	-0.07921781
246	0x3d80b538	0.06284565
247	0xbdde7b7d	-0.10863397
248	0x3c88b851	0.016689451
249	0xbe454a7e	-0.19266698
250	0x3b72cc10	0.00370479
251	0x3d89c980	0.06727886
252	0x3e27236a	0.16322103
253	0x3d9ffe89	0.078122206
254	0x3d961f76	0.073302194
255	0x3cf9156a	0.030405719

fc2.bias f4 [128]
0	0x3ccae280	0.024766207
1	0xbd6929c1	-0.056924585
2	0xbd491b16	-0.049098097
3	0x3cb4cf86	0.022071611
4	0xbd139cb2	-0.03603811
5	0x3c849785	0.016185531
6	0x3de738e1	0.11290146
7	0x3cd7d799	0.026347922
8	0xbc3aed23	-0.011409077
9	0x3dea240c	0.11432657
10	0x3d4338a0	0.047661424
11	0xbd55ee83	-0.052229416
12	0xbd77b160	-0.060471892
13	0x3cc425af	0.02394375
14	0x3d520379	0.051272843
15	0x3c8dae29	0.01729496
16	0xbc93301d	-0.017967278
17	0xbdb9f6d6	-0.09080283
18	0xbbd243d7	-0.0064167785
19	0xbde1b5bf	-0.110209934
20	0x3d69d374	0.057086423
21	0x3d9693ec	0.073524326
22	0xbdcf043a	-0.10108228
23	0xbdbbcb09	-0.09169585
24	0xbbb2c4b6	-0.0054555787
25	0x3c9670ba	0.0183643
26	0xbda5aa68	-0.08089143
27	0x3d77d01d	0.060501207
28	0xbcf631a7	-0.030052973
29	0xbc928d72	-0.017889712
30	0x3df39fb7	0.118956976
31	0xbccb2326	-0.024797034
32	0xbc9ad1e4	-0.018898912
33	0xbd2d979d	-0.042380918
34	0xbd9c557b	-0.076334916
35	0x3d7915da	0.060811855
36	0xbd7e9506	-0.06215384
37	0x3cacd9f9	0.021100031
38	0x3dd3049a	0.10303612
39	0xbdd7fcfb	-0.10546299
40	0x3d92d0b8	0.07168716
41	0xbdb00a06	-0.08595662
42	0xbda67556	-0.08127849
43	0xbddf7b94	-0.109122425
44	0x3dddf44a	0.1083761
45	0x3d8a5da5	0.067561425
46	0x3cd07a70	0.025449008
47	0xbce095fa	-0.027415264
48	0x3cfb0686	0.030642759
49	0xbd330146	-0.043702386
50	0x3da764b3	0.08173504
51	0x3cf5050c	0.029909633
52	0xbd0127fb	-0.03153227
53	0xbda4788f	-0.08030807
54	0xbd917092	-0.07101549
55	0x3d1642c3	0.036684763
56	0x3d91e402	0.07123567
57	0xbd9d06ef	-0.07667338
58	0x3d3d9f7d	0.046294678
59	0x3df13d10	0.11779225
60	0xbcc5c5d3	-0.024142182
61	0x3d01d7f6	0.031700097
62	0x3d90fa20	0.070789576
63	0x3dce714f	0.10080206
64	0xbda439dc	-0.08018848
65	0xbd1c440c	-0.038150832
66	0x3d001125	0.03126635
67	0xbd65ef96	-0.05613669
68	0x3d722aa8	0.05912271
69	0x3de15a3f	0.11003541
70	0x3da050c7	0.07827907
71	0xbc3ae18f	-0.011406316
72	0xbd9029db	-0.07039233
73	0xbdd16dba	-0.10226007
74	0x3d7e11fb	0.062028866
75	0xbd2407aa	-0.04004637
76	0x3b6ae196	0.0035840026
77	0xbd7731e1	-0.060350303
78	0x3c03a33e	0.008034525
79	0x3bd800e0	0.006591901
80	0x3dabfba6	0.083976075
81	0x3d1c65ac	0.0381829
82	0xbd9aab40	-0.075521946
83	0xbd907fcf	-0.070556276
84	0xbd1a9fd1	-0.03775007
85	0x3da49838	0.08036846
86	0xbb7b7fc5	-0.0038375717
87	0x3df422bc	0.119206876
88	0x3dc7a570	0.097483516
89	0xbcf3da11	-0.029767068
90	0xbc48651d	-0.012231139
91	0xbdd823f5	-0.10553733
92	0xbb892541	-0.004185349
93	0xbccbae99	-0.024863528
94	0x3d7ee99b	0.062234502
95	0x3db32b9c	0.08748552
96	0x3c722100	0.014778376
97	0x3d617016	0.055038534
98	0xbd8344d2	-0.06409611
99	0x3dac384f	0.084091775
100	0x3c8b3974	0.01699517
101	0x3cdc4a82	0.026890997
102	0xbcd905c4	-0.026492007
103	0xbdf3f11b	-0.119112216
104	0x3bbcf521	0.0057665263
105	0xbc8904aa	-0.016725857
106	0x3de00b86	0.10939698
107	0x3da9f00c	0.082977384
108	0xbd5638d9	-0.052300308
109	0xbd0afcc1	-0.03393245
110	0xbc7eb0eb	-0.01554511
111	0x3d1f46e4	0.038885966
112	0x3d9d4006	0.07678227
113	0xbbd5b640	-0.00652197
114	0xbd01e301	-0.03171063
115	0x3cdf041d	0.027223641
116	0xbdd2e67a	-0.10297866
117	0xbd89ed92	-0.06734766
118	0x3db324ab	0.08747228
119	0x3c5db76d	0.013532502
120	0x3cfe4d02	0.03104258
121	0xbd4f634f	-0.050631817
122	0x3dff0b8a	0.12453373
123	0x3d0c544e	0.034260087
124	0x3bd15a7c	0.0063889604
125	0x3d3016fb	0.042990666
126	0xbe05bfd3	-0.13061456
127	0xbdaf42ca	-0.08557661

bn2.weight f4 [128]
0	0x3f800000	1.0
1	0x3f800000	1.0
2	0x3f800000	1.0
3	0x3f800000	1.0
4	0x3f800000	1.0
5	0x3f800000	1.0
6	0x3f800000	1.0
7	0x3f800000	1.0
8	0x3f800000	1.0
9	0x3f800000	1.0
10	0x3f800000	1.0
11	0x3f800000	1.0
12	0x3f800000	1.0
13	0x3f800000	1.0
14	0x3f800000	1.0
15	0x3f800000	1.0
16	0x3f800000	1.0
17	0x3f800000	1.0
18	0x3f800000	1.0
19	0x3f800000	1.0
20	0x3f800000	1.0
21	0x3f800000	1.0
22	0x3f800000	1.0
23	0x3f800000	1.0
24	0x3f800000	1.0
25	0x3f800000	1.0
26	0x3f800000	1.0
27	0x3f800000	1.0
28	0x3f800000	1.0
29	0x3f800000	1.0
30	0x3f800000	1.0
31	0x3f800000	1.0
32	0x3f800000	1.0
33	0x3f800000	1.0
34	0x3f800000	1.0
35	0x3f800000	1.0
36	0x3f800000	1.0
37	0x3f800000	1.0
38	0x3f800000	1.0
39	0x3f800000	1.0
40	0x3f800000	1.0
41	0x3f800000	1.0
42	0x3f800000	1.0
43	0x3f800000	1.0
44	0x3f800000	1.0
45	0x3f800000	1.0
46	0x3f800000	1.0
47	0x3f800000	1.0
48	0x3f800000	1.0
49	0x3f800000	1.0
50	0x3f800000	1.0
51	0x3f800000	1.0
52	0x3f800000	1.0
53	0x3f800000	1.0
54	0x3f800000	1.0
55	0x3f800000	1.0
56	0x3f800000	1.0
57	0x3f800000	1.0
58	0x3f800000	1.0
59	0x3f800000	1.0
60	0x3f800000	1.0
61	0x3f800000	1.0
62	0x3f800000	1.0
63	0x3f800000	1.0
64	0x3f800000	1.0
65	0x3f800000	1.0
66	0x3f800000	1.0
67	0x3f800000	1.0
68	0x3f800000	1.0
69	0x3f800000	1.0
70	0x3f800000	1.0
71	0x3f800000	1.0
72	0x3f800000	1.0
73	0x3f800000	1.0
74	0x3f800000	1.0
75	0x3f800000	1.0
76	0x3f800000	1.0
77	0x3f800000	1.0
78	0x3f800000	1.0
79	0x3f800000	1.0
80	0x3f800000	1.0
81	0x3f800000	1.0
82	0x3f800000	1.0
83	0x3f800000	1.0
84	0x3f800000	1.0
85	0x3f800000	1.0
86	0x3f800000	1.0
87	0x3f800000	1.0
88	0x3f800000	1.0
89	0x3f800000	1.0
90	0x3f800000	1.0
91	0x3f800000	1.0
92	0x3f800000	1.0
93	0x3f800000	1.0
94	0x3f800000	1.0
95	0x3f800000	1.0
96	0x3f800000	1.0
97	0x3f800000	1.0
98	0x3f800000	1.0
99	0x3f800000	1.0
100	0x3f800000	1.0
101	0x3f800000	1.0
102	0x3f800000	1.0
103	0x3f800000	1.0
104	0x3f800000	1.0
105	0x3f800000	1.0
106	0x3f800000	1.0
107	0x3f800000	1.0
108	0x3f800000	1.0
109	0x3f800000	1.0
110	0x3f800000	1.0
111	0x3f800000	1.0
112	0x3f800000	1.0
113	0x3f800000	1.0
114	0x3f800000	1.0
115	0x3f800000	1.0
116	0x3f800000	1.0
117	0x3f800000	1.0
118	0x3f800000	1.0
119	0x3f800000	1.0
120	0x3f800000	1.0
121	0x3f800000	1.0
122	0x3f800000	1.0
123	0x3f800000	1.0
124	0x3f800000	1.0
125	0x3f800000	1.0
126	0x3f800000	1.0
127	0x3f800000	1.0

bn2.bias f4 [128]
0	0x00000000	0.0
1	0x00000000	0.0
2	0x00000000	0.0
3	0x00000000	0.0
4	0x00000000	0.0
5	0x00000000	0.0
6	0x00000000	0.0
7	0x00000000	0.0
8	0x00000000	0.0
9	0x00000000	0.0
10	0x00000000	0.0
11	0x00000000	0.0
12	0x00000000	0.0
13	0x00000000	0.0
14	0x00000000	0.0
15	0x00000000	0.0
16	0x00000000	0.0
17	0x00000000	0.0
18	0x00000000	0.0
19	0x00000000	0.0
20	0x00000000	0.0
21	0x00000000	0.0
22	0x00000000	0.0
23	0x00000000	0.0
24	0x00000000	0.0
25	0x00000000	0.0
26	0x00000000	0.0
27	0x00000000	0.0
28	0x00000000	0.0
29	0x00000000	0.0
30	0x00000000	0.0
31	0x00000000	0.0
32	0x00000000	0.0
33	0x00000000	0.0
34	0x00000000	0.0
35	0x00000000	0.0
36	0x00000000	0.0
37	0x00000000	0.0
38	0x00000000	0.0
39	0x00000000	0.0
40	0x00000000	0.0
41	0x00000000	0.0
42	0x00000000	0.0
43	0x00000000	0.0
44	0x00000000	0.0
45	0x00000000	0.0
46	0x00000000	0.0
47	0x00000000	0.0
48	0x00000000	0.0
49	0x00000000	0.0
50	0x00000000	0.0
51	0x00000000	0.0
52	0x00000000	0.0
53	0x00000000	0.0
54	0x00000000	0.0
55	0x00000000	0.0
56	0x00000000	0.0
57	0x00000000	0.0
58	0x00000000	0.0
59	0x00000000	0.0
60	0x00000000	0.0
61	0x00000000	0.0
62	0x00000000	0.0
63	0x00000000	0.0
64	0x00000000	0.0
65	0x00000000	0.0
66	0x00000000	0.0
67	0x00000000	0.0
68	0x00000000	0.0
69	0x00000000	0.0
70	0x00000000	0.0
71	0x00000000	0.0
72	0x00000000	0.0
73	0x00000000	0.0
74	0x00000000	0.0
75	0x00000000	0.0
76	0x00000000	0.0
77	0x00000000	0.0
78	0x00000000	0.0
79	0x00000000	0.0
80	0x00000000	0.0
81	0x00000000	0.0
82	0x00000000	0.0
83	0x00000000	0.0
84	0x00000000	0.0
85	0x00000000	0.0
86	0x00000000	0.0
87	0x00000000	0.0
88	0x00000000	0.0
89	0x00000000	0.0
90	0x00000000	0.0
91	0x00000000	0.0
92	0x00000000	0.0
93	0x00000000	0.0
94	0x00000000	0.0
95	0x00000000	0.0
96	0x00000000	0.0
97	0x00000000	0.0
98	0x00000000	0.0
99	0x00000000	0.0
100	0x00000000	0.0
101	0x00000000	0.0
102	0x00000000	0.0
103	0x00000000	0.0
104	0x00000000	0.0
105	0x00000000	0.0
106	0x00000000	0.0
107	0x00000000	0.0
108	0x00000000	0.0
109	0x00000000	0.0
110	0x00000000	0.0
111	0x00000000	0.0
112	0x00000000	0.0
113	0x00000000	0.0
114	0x00000000	0.0
115	0x00000000	0.0
116	0x00000000	0.0
117	0x00000000	0.0
118	0x00000000	0.0
119	0x00000000	0.0
120	0x00000000	0.0
121	0x00000000	0.0
122	0x00000000	0.0
123	0x00000000	0.0
124	0x00000000	0.0
125	0x00000000	0.0
126	0x00000000	0.0
127	0x00000000	0.0

bn2.running_mean f4 [128]
0	0x00000000	0.0
1	0x00000000	0.0
2	0x00000000	0.0
3	0x00000000	0.0
4	0x00000000	0.0
5	0x00000000	0.0
6	0x00000000	0.0
7	0x00000000	0.0
8	0x00000000	0.0
9	0x00000000	0.0
10	0x00000000	0.0
11	0x00000000	0.0
12	0x00000000	0.0
13	0x00000000	0.0
14	0x00000000	0.0
15	0x00000000	0.0
16	0x00000000	0.0
17	0x00000000	0.0
18	0x00000000	0.0
19	0x00000000	0.0
20	0x00000000	0.0
21	0x00000000	0.0
22	0x00000000	0.0
23	0x00000000	0.0
24	0x00000000	0.0
25	0x00000000	0.0
26	0x00000000	0.0
27	0x00000000	0.0
28	0x00000000	0.0
29	0x00000000	0.0
30	0x00000000	0.0
31	0x00000000	0.0
32	0x00000000	0.0
33	0x00000000	0.0
34	0x00000000	0.0
35	0x00000000	0.0
36	0x00000000	0.0
37	0x00000000	0.0
38	0x00000000	0.0
39	0x00000000	0.0
40	0x00000000	0.0
41	0x00000000	0.0
42	0x00000000	0.0
43	0x00000000	0.0
44	0x00000000	0.0
45	0x00000000	0.0
46	0x00000000	0.0
47	0x00000000	0.0
48	0x00000000	0.0
49	0x00000000	0.0
50	0x00000000	0.0
51	0x00000000	0.0
52	0x00000000	0.0
53	0x00000000	0.0
54	0x00000000	0.0
55	0x00000000	0.0
56	0x00000000	0.0
57	0x00000000	0.0
58	0x00000000	0.0
59	0x00000000	0.0
60	0x00000000	0.0
61	0x00000000	0.0
62	0x00000000	0.0
63	0x00000000	0.0
64	0x00000000	0.0
65	0x00000000	0.0
66	0x00000000	0.0
67	0x00000000	0.0
68	0x00000000	0.0
69	0x00000000	0.0
70	0x00000000	0.0
71	0x00000000	0.0
72	0x00000000	0.0
73	0x00000000	0.0
74	0x00000000	0.0
75	0x00000000	0.0
76	0x00000000	0.0
77	0x00000000	0.0
78	0x00000000	0.0
79	0x00000000	0.0
80	0x00000000	0.0
81	0x00000000	0.0
82	0x00000000	0.0
83	0x00000000	0.0
84	0x00000000	0.0
85	0x00000000	0.0
86	0x00000000	0.0
87	0x00000000	0.0
88	0x00000000	0.0
89	0x00000000	0.0
90	0x00000000	0.0
91	0x00000000	0.0
92	0x00000000	0.0
93	0x00000000	0.0
94	0x00000000	0.0
95	0x00000000	0.0
96	0x00000000	0.0
97	0x00000000	0.0
98	0x00000000	0.0
99	0x00000000	0.0
100	0x00000000	0.0
101	0x00000000	0.0
102	0x00000000	0.0
103	0x00000000	0.0
104	0x00000000	0.0
105	0x00000000	0.0
106	0x00000000	0.0
107	0x00000000	0.0
108	0x00000000	0.0
109	0x00000000	0.0
110	0x00000000	0.0
111	0x00000000	0.0
112	0x00000000	0.0
113	0x00000000	0.0
114	0x00000000	0.0
115	0x00000000	0.0
116	0x00000000	0.0
117	0x00000000	0.0
118	0x00000000	0.0
119	0x00000000	0.0
120	0x00000000	0.0
121	0x00000000	0.0
122	0x00000000	0.0
123	0x00000000	0.0
124	0x00000000	0.0
125	0x00000000	0.0
126	0x00000000	0.0
127	0x00000000	0.0

bn2.running_var f4 [128]
0	0x3f800000	1.0
1	0x3f800000	1.0
2	0x3f800000	1.0
3	0x3f800000	1.0
4	0x3f800000	1.0
5	0x3f800000	1.0
6	0x3f800000	1.0
7	0x3f800000	1.0
8	0x3f800000	1.0
9	0x3f800000	1.0
10	0x3f800000	1.0
11	0x3f800000	1.0
12	0x3f800000	1.0
13	0x3f800000	1.0
14	0x3f800000	1.0
15	0x3f800000	1.0
16	0x3f800000	1.0
17	0x3f800000	1.0
18	0x3f800000	1.0
19	0x3f800000	1.0
20	0x3f800000	1.0
21	0x3f800000	1.0
22	0x3f800000	1.0
23	0x3f800000	1.0
24	0x3f800000	1.0
25	0x3f800000	1.0
26	0x3f800000	1.0
27	0x3f800000	1.0
28	0x3f800000	1.0
29	0x3f800000	1.0
30	0x3f800000	1.0
31	0x3f800000	1.0
32	0x3f800000	1.0
33	0x3f800000	1.0
34	0x3f800000	1.0
35	0x3f800000	1.0
36	0x3f800000	1.0
37	0x3f800000	1.0
38	0x3f800000	1.0
39	0x3f800000	1.0
40	0x3f800000	1.0
41	0x3f800000	1.0
42	0x3f800000	1.0
43	0x3f800000	1.0
44	0x3f800000	1.0
45	0x3f800000	1.0
46	0x3f800000	1.0
47	0x3f800000	1.0
48	0x3f800000	1.0
49	0x3f800000	1.0
50	0x3f800000	1.0
51	0x3f800000	1.0
52	0x3f800000	1.0
53	0x3f800000	1.0
54	0x3f800000	1.0
55	0x3f800000	1.0
56	0x3f800000	1.0
57	0x3f800000	1.0
58	0x3f800000	1.0
59	0x3f800000	1.0
60	0x3f800000	1.0
61	0x3f800000	1.0
62	0x3f800000	1.0
63	0x3f800000	1.0
64	0x3f800000	1.0
65	0x3f800000	1.0
66	0x3f800000	1.0
67	0x3f800000	1.0
68	0x3f800000	1.0
69	0x3f800000	1.0
70	0x3f800000	1.0
71	0x3f800000	1.0
72	0x3f800000	1.0
73	0x3f800000	1.0
74	0x3f800000	1.0
75	0x3f800000	1.0
76	0x3f800000	1.0
77	0x3f800000	1.0
78	0x3f800000	1.0
79	0x3f800000	1.0
80	0x3f800000	1.0
81	0x3f800000	1.0
82	0x3f800000	1.0
83	0x3f800000	1.0
84	0x3f800000	1.0
85	0x3f800000	1.0
86	0x3f800000	1.0
87	0x3f800000	1.0
88	0x3f800000	1.0
89	0x3f800000	1.0
90	0x3f800000	1.0
91	0x3f800000	1.0
92	0x3f800000	1.0
93	0x3f800000	1.0
94	0x3f800000	1.0
95	0x3f800000	1.0
96	0x3f800000	1.0
97	0x3f800000	1.0
98	0x3f800000	1.0
99	0x3f800000	1.0
100	0x3f800000	1.0
101	0x3f800000	1.0
102	0x3f800000	1.0
103	0x3f800000	1.0
104	0x3f800000	1.0
105	0x3f800000	1.0
106	0x3f800000	1.0
107	0x3f800000	1.0
108	0x3f800000	1.0
109	0x3f800000	1.0
110	0x3f800000	1.0
111	0x3f800000	1.0
112	0x3f800000	1.0
113	0x3f800000	1.0
114	0x3f800000	1.0
115	0x3f800000	1.0
116	0x3f800000	1.0
117	0x3f800000	1.0
118	0x3f800000	1.0
119	0x3f800000	1.0
120	0x3f800000	1.0
121	0x3f800000	1.0
122	0x3f800000	1.0
123	0x3f800000	1.0
124	0x3f800000	1.0
125	0x3f800000	1.0
126	0x3f800000	1.0
127	0x3f800000	1.0

fc3.weight f4 [4, 128]
0	0x3e36e6fb	0.1786155
1	0x3c802bcf	0.01564589
2	0x3ea7df29	0.32787445
3	0xbd67de50	-0.056608498
4	0xbe36c936	-0.17850193
5	0x3e9aeed2	0.3026033
6	0x3dd1c5c8	0.10242802
7	0x3daad7e2	0.08341958
8	0xbd20b392	-0.03923375
9	0xbd9f92e2	-0.077916875
10	0x3ef0fe8a	0.47069198
11	0x3f1cebe8	0.61297464
12	0x3e9a619a	0.3015259
13	0xbdc083af	-0.09400117
14	0x3d4a12d5	0.049334366
15	0xbdeab584	-0.114604026
16	0x3e1d2df9	0.15349568
17	0x3b0acce5	0.0021179256
18	0x3ce160ef	0.027512042
19	0xbbd0e05e	-0.006374403
20	0xbd213302	-0.039355285
21	0xbd8ea946	-0.0696588
22	0x3f1416d2	0.5784732
23	0xbdffafb6	-0.12484686
24	0xbc78a14b	-0.015175174
25	0xbdbc00eb	-0.091798626
26	0x3e9907dc	0.2988881
27	0x3d998264	0.07495573
28	0x3ecc1f5a	0.3986767
29	0x3db6ceac	0.08926138
30	0xbdde6b6b	-0.10860332
31	0x3e7bb4ea	0.24580732
32	0xbd79c16a	-0.06097547
33	0x3da67a84	0.08128837
34	0xbe4ae93a	-0.19815531
35	0xbe56a61c	-0.20961803
36	0xbd04cbbe	-0.032420866
37	0x3e465180	0.19367027
38	0xbe12412d	-0.14282675
39	0x3ec404ff	0.38285062
40	0x3e539f46	0.20666227
41	0x3e192a43	0.14957528
42	0x3cced7d9	0.025249409
43	0x3ea170a0	0.3153124
44	0x3c43f892	0.011961119
45	0x3f11f46a	0.5701357
46	0x3e5b42c5	0.2141219
47	0x3af85b73	0.0018948152
48	0x3e9ba879	0.30401972
49	0x3ee52769	0.4475663
50	0x3c1cbd0b	0.009566556
51	0x3c8f5430	0.017496198
52	0xbebfc5a2	-0.3745547
53	0x3e38d8db	0.18051474
54	0xbdc34226	-0.09534101
55	0x3daf4041	0.08557177
56	0xbd9f3a9b	-0.0777485
57	0xbe01b51f	-0.12666748
58	0x3de6eaae	0.1127523
59	0xbe13ad28	-0.14421523
60	0x3e4429d9	0.19156589
61	0xbe05b1aa	-0.13056055
62	0x3dc3eaf8	0.09566301
63	0xbde2fda0	-0.110835314
64	0x3e7b9986	0.24570283
65	0xbda6920c	-0.08133325
66	0xbe45a46a	-0.19301
67	0x3e02b24b	0.12763326
68	0xbeec7940	-0.46186256
69	0x3e83b412	0.2572332
70	0xbe12b39d	-0.1432633
71	0xbd90270f	-0.070387
72	0x3cdb1608	0.026743904
73	0x3ea51324	0.32241166
74	0xbd8e4e95	-0.06948582
75	0x3f09b66c	0.5379398
76	0xbd2826e7	-0.041052725
77	0x3e1a6714	0.15078384
78	0xbba85741	-0.0051373546
79	0xbe927367	-0.2860367
80	0xbbea2551	-0.0071455617
81	0xbe0cdcab	-0.13756053
82	0xbd47919a	-0.04872284
83	0xbe04af14	-0.12957412
84	0x3e462799	0.19351043
85	0x3d26954e	0.04066973
86	0xbd3a5614	-0.045492247
87	0xbd7a4355	-0.06109937
88	0xbde8a691	-0.11359895
89	0xbcd6856b	-0.026186666
90	0x3ddc567a	0.107586816
91	0x3d1dda6c	0.03853838
92	0xbda16a27	-0.07881575
93	0xbe0a6be2	-0.13517717
94	0x3d9e7dc3	0.07738831
95	0xbd766e5b	-0.060163837
96	0x3ebc72da	0.36806375
97	0xbe32bfd5	-0.1745599
98	0x3ac837b6	0.0015275392
99	0xbdb3fa68	-0.087879956
100	0xbddba2d0	-0.107244134
101	0x3e5f08b5	0.21780665
102	0x3e9424c0	0.28934288
103	0x3ebd8271	0.3701358
104	0x3e62940c	0.22126788
105	0xbe3eb87f	-0.18625067
106	0x3f00c743	0.5030405
107	0x3d6ce1c5	0.057832498
108	0x3d47c392	0.048770495
109	0x3f1932a5	0.598429
110	0xbdfc9fa9	-0.1233514
111	0xbc910c87	-0.017706169
112	0x3e9d4dc2	0.30723387
113	0xbd7254ce	-0.059162907
114	0xbdea0327	-0.114263825
115	0xbe140fc8	-0.14459145
116	0x3db7a4f5	0.0896701
117	0xbdf25048	-0.11831719
118	0x3f15b3d5	0.58477527
119	0xbc9bd9c9	-0.019024746
120	0x3e12e9e3	0.14347033
121	0xbc8f6a8f	-0.017506866
122	0xbe8aeca0	-0.27133656
123	0xbcc5a7fa	-0.024127949
124	0x3dd8b8fc	0.10582158
125	0xbe1be36e	-0.15223476
126	0x3d1b6d58	0.037946075
127	0xbe151c67	-0.14561616
128	0xbcee8512	-0.029116187
129	0x3e2eacec	0.17058152
130	0xbe53eca6	-0.20695743
131	0xbd56f9cc	-0.05248432
132	0xbe0d16c1	-0.13778211
133	0xbe8166d1	-0.25273755
134	0xbe26937d	-0.162672
135	0x3ec11eab	0.3771871
136	0x3e30adc2	0.17253783
137	0x3eed2b9c	0.46322334
138	0xbb9a0030	-0.0046997294
139	0xbde998b7	-0.11406081
140	0x3e998ab4	0.29988635
141	0xbda1f5d7	-0.07908218
142	0xbe4de0a4	-0.20105225
143	0xbd318454	-0.04333909
144	0xba0a6124	-0.00052787573
145	0xbe82f639	-0.25578478
146	0x3dca1654	0.0986754
147	0xbe5f8a79	-0.21830167
148	0x3d96260c	0.073314756
149	0x3ef0597e	0.46943277
150	0xbe2662fb	-0.16248696
151	0xbd2f369b	-0.042776685
152	0xbe76a12d	-0.24084921
153	0xbe8e5eba	-0.27806646
154	0x3e8eccbf	0.27890584
155	0x3e22f81c	0.15914959
156	0x3f2dc4df	0.67878526
157	0xbe35d0ae	-0.17755386
158	0x3d639ddb	0.055570465
159	0xbdcc4417	-0.099739246
160	0x3dd1d373	0.10245409
161	0x3ea741c2	0.32667357
162	0x3de80ee7	0.113309674
163	0x3e6d21ad	0.23157378
164	0x3e807a61	0.25093368
165	0xbdc02e4f	-0.09383833
166	0xbc764dbd	-0.015033183
167	0xbe9347e6	-0.28765792
168	0x3e0c4558	0.13698328
169	0xbedc748e	-0.43057674
170	0xbcd0b6cc	-0.02547779
171	0x3e7c0aba	0.24613467
172	0x3ca4f81c	0.020137839
173	0x3e01c579	0.12672986
174	0x3f136d93	0.5758907
175	0x3eaa0252	0.33204895
176	0x3da0badd	0.07848141
177	0x3d4d925d	0.05018841
178	0xbe3d0be3	-0.18461566
179	0xbe29e9e4	-0.16593128
180	0x3ec0ed01	0.3768082
181	0x3da28e60	0.07937312
182	0x3d5ece7a	0.05439613
183	0x3e1050c1	0.14093305
184	0xbdf472f3	-0.11935987
185	0x3c04bf30	0.008102223
186	0xbddb46e1	-0.107068785
187	0xbd966dcd	-0.073451616
188	0xbe8e85e3	-0.27836522
189	0xbb2dab1c	-0.0026499694
190	0xbd56c95b	-0.05243812
191	0xbd5a4067	-0.053284075
192	0x3e025dfb	0.12731163
193	0xbe165b22	-0.14683202
194	0x3f0888e1	0.5333386
195	0x3ebe56bc	0.37175548
196	0xbdc91aa9	-0.09819538
197	0xbdd24007	-0.102661185
198	0xbca7c048	-0.020477429
199	0x3e5ba3d8	0.2144922
200	0x3eb5eb8f	0.3553128
201	0xbdf25b7a	-0.11833854
202	0xbd8cf769	-0.06883127
203	0x3d4c43e9	0.04986945
204	0x3c18a2fc	0.009316202
205	0x3d0893f7	0.033344235
206	0x3bf12e90	0.007360287
207	0xbe2da712	-0.16958264
208	0x3ec1c7a2	0.3784762
209	0xbe2af6d6	-0.16695723
210	0x3f512028	0.8168969
211	0xbd23ebbc	-0.040019736
212	0x3e18968e	0.14901182
213	0xbd5f6339	-0.054537985
214	0xbeca9153	-0.39564
215	0xbddeb920	-0.108751535
216	0x3e11343d	0.14180084
217	0x3dabe038	0.08392376
218	0x3d51314a	0.051072396
219	0x3e2b9a45	0.16758068
220	0xbaae0a09	-0.0013278137
221	0xbce33589	-0.027735488
222	0xbe496fa0	-0.19671488
223	0x3d02aa81	0.031900886
224	0x3e5bbb20	0.21458101
225	0xbd81db95	-0.0634071
226	0x3d6f9e1b	0.05850039
227	0xbd24ec58	-0.040264457
228	0xbe2d84ad	-0.16945143
229	0xbf026448	-0.5093427
230	0x3e4405e8	0.19142878
231	0xbde5d31f	-0.11221909
232	0xbd2ddb1f	-0.0424453
233	0x3e6543f9	0.22389211
234	0xbd2b2317	-0.04178151
235	0xbdf78bc3	-0.12087204
236	0x3e6a8630	0.22902751
237	0xbd2e7a29	-0.04259697
238	0xbd76fd71	-0.060300294
239	0xbd82974f	-0.06376516
240	0xbd9acfad	-0.07559142
241	0x3ea1cdc0	0.31602287
242	0xbd2c7c2a	-0.0421106
243	0xbce0b608	-0.02743055
244	0x3e18b6c5	0.14913471
245	0xbd9756ee	-0.073896274
246	0x3f11ce3b	0.5695531
247	0xbecc00a6	-0.39844245
248	0x3e867944	0.26264393
249	0xbb3956c7	-0.0028280483
250	0xbeb90b10	-0.36141253
251	0xbe0c02bf	-0.13672923
252	0xbde161cc	-0.110049814
253	0xbd5babe9	-0.053630743
254	0x3e8e2dc2	0.27769285
255	0xbe0f6a6b	-0.14005439

fc3.bias f4 [4]
0	0xbde1d64d	-0.11027203
1	0xbdbef9ec	-0.093250126
2	0x3dd133d6	0.10214965
3	0xbce95673	-0.028483605
