data/actor_local.pth (torch_old, 91816 bytes, 14 tensors)

fc1.weight f4 [128, 33]
0.06806627 0.1095709 -0.10702007 -0.025964169 0.08670963 -0.2520518 -0.06124939 -0.046083186
0.09184069 -0.07944834 -0.04302897 -0.021294268 -0.06877831 -0.10486576 0.00097655714 0.087061144
0.08598429 -0.007949623 0.005937304 -0.01912874 -0.082358696 0.03203764 0.034235302 -0.18542872
-0.055892784 0.22089042 -0.07876012 0.088266425 0.07772322 0.013507567 -0.09469436 0.06551216
0.53341913 -0.18467174 0.03809198 0.07795314 0.050552037 -0.005816713 0.009749969 0.045892328
0.0969715 -0.22311114 0.049814235 0.0049256333 -0.035992205 -0.048396297 -0.008547299 -0.16803521
-0.20060281 0.041486103 0.057748254 -0.13163781 0.007912953 0.01828561 0.13518447 -0.14847709
-0.026816778 0.022662932 -0.21898055 -0.05826211 -0.09730806 0.083054245 0.043838657 -0.010033782
0.023376845 0.3842544 -0.013503933 -0.01002195 0.14428781 0.11690877 0.023898065 -0.112431
0.07471624 -0.034725405 0.11628459 0.0650504 -0.10348222 0.18479383 -0.003787619 0.0880075
-0.0635622 0.07422582 0.020894416 -0.06355167 0.04418797 0.023322659 -0.19979581 -0.07075123
-0.035233226 0.07704368 -0.07905681 0.01910817 -0.15902476 -0.051338278 0.010799962 0.0714261
0.18847756 -0.082847185 -0.37671006 -0.22751357 0.088203475 0.015154397 -0.011354313 -0.40524334
-0.14342636 0.066384226 0.027262315 0.05569886 0.041943677 0.0854144 0.0070231603 -0.18776222
-0.19611454 -0.103223845 0.059413485 0.028145313 -0.06868844 -0.021967573 -0.06789174 0.17008658
-0.030956475 -0.216476 -0.014313249 -0.117134534 0.0015116747 0.06693273 0.1174294 -0.11433422
-0.0747874 -0.0053096185 0.070471264 -0.20085458 -0.14163293 -0.006351211 -0.015161456 0.0012451869
0.029666107 -0.015850855 -0.006370785 0.064060226 -0.07506075 0.09073662 -0.053024083 0.054031808
-0.11449994 0.068544276 0.17059897 0.01000749 -0.020331906 -0.072979435 0.115413085 -0.050209973
-0.12957042 -0.008689447 -0.06467711 0.060914114 0.14802209 0.01789693 0.0063021206 0.017465303
-0.22577132 0.0117022395 -0.03144769 0.085820265 0.1710916 -0.11187564 -0.16608158 0.20181651
0.030724583 -0.1536444 -0.0010164327 -0.010750817 -0.088766895 -0.10930074 -0.044866305 -0.047229614
-0.083250046 0.012128338 0.067418545 -0.22845167 0.005095645 -0.03996999 -0.059616048 -0.020019248
0.035031587 0.017624676 -0.102239214 -0.01577763 0.0014120981 -0.09579185 0.0075317146 0.069612674
-0.056995373 -0.15586513 0.08317342 -0.004766305 -0.009810418 0.18283498 -0.03565197 0.017023414
-0.012195259 0.09349562 0.019513862 0.03873228 0.05277966 0.0009714258 -0.07111917 0.2334277
0.118820414 0.0014073446 0.06716081 0.12989165 -0.06245014 0.034524534 0.06488175 0.05045026
0.091022 0.06421632 -0.020369498 0.06724632 0.015674435 0.08100195 0.026679264 0.1038588
0.18603712 0.15764248 0.071557 0.04722614 -0.13579458 0.02425959 0.55135024 -0.17378704
-0.013823205 0.022535793 0.09982175 -0.12721193 -0.005643052 0.0011089187 0.15280266 -0.0006799525
-0.021205038 -0.05586963 -0.14529179 -0.06982475 0.06023197 -0.19494332 0.0044403155 0.028433487
-0.031948064 0.050531827 -0.0021316553 -0.10596801 -0.026978416 0.081048034 -0.016431171 -0.04610881
00000000: 5466 8b3d b566 e03d 572d dbbd cfb2 d4bc
00000010: d294 b13d ef0c 81be a4e0 7abd b9c1 3cbd
00000020: f916 bc3d d0b5 a2bd 253f 30bd 5171 aebc
00000030: a5db 8cbd dcc3 d6bd a4ff 7f3a 1d4d b23d
00000040: 8818 b03d 233f 02bc b78d c23b e0b3 9cbc
00000050: adab a8bd e739 033d 513a 0c3d 07e1 3dbe
00000060: d5ef 64bd 1931 623e fc4c a1bd 07c5 b43d
00000070: 5a2d 9f3d d84e 5d3c 1eef c1bd 3d2b 863d
00000080: 288e 083f 971a 3dbe 5606 1c3d e5a5 9f3d
00000090: a70f 4f3d 209a bebb 55be 1f3c 98f9 3b3d
000000a0: fe98 c63d 3f77 64be 030a 4c3d 3567 a13b
000000b0: 906c 13bd 323b 46bd f809 0cbc 6c11 2cbe
000000c0: d36a 4dbe 55ed 293d 6f89 6c3d 10cc 06be
000000d0: 55a5 013c b4cb 953c cc6d 0a3e 610a 18be
000000e0: dcae dbbc 9da7 b93c 703c 60be 40a4 6ebd
000000f0: 7349 c7bd 5818 aa3d 2a90 333d bb64 24bc
00000100: cc80 bf3c febc c43e 9a3f 5dbc 1b33 24bc
00000110: 2fc0 133e dd6d ef3d e0c5 c33c 3942 e6bd
00000120: d404 993d 3a3c 0ebd 9d26 ee3d 2539 853d
00000130: 7cee d3bd 983a 3d3e b439 78bb 473d b43d
00000140: e62c 82bd b503 983d c42a ab3c 6127 82bd
00000150: 72fe 343d 290f bf3c 4697 4cbe 05e6 90bd
00000160: b750 10bd 14c9 9d3d 89e8 a1bd bd88 9c3c
00000170: 63d7 22be 1648 52bd 53f2 303c d947 923d
00000180: 4300 413e c9ab a9bd 24e0 c0be 51f9 68be
00000190: 06a4 b43d 264a 783c 7107 3abc 0e7c cfbe
000001a0: 5cde 12be 74f4 873d 3855 df3c 7d24 643d
000001b0: 22cd 2b3d bfed ae3d 8a22 e63b bd44 40be
000001c0: 40d2 48be 0667 d3bd 8e5b 733d 0091 e63c
000001d0: 86ac 8cbd 57f5 b3bc d30a 8bbd 2d2b 2e3e
000001e0: 6f98 fdbc e2ab 5dbe 1e82 6abc 3be4 efbd
000001f0: 6323 c63a 0714 893d d37e f03d 0f28 eabd
00000200: 232a 99bd 4ffc adbb 3d53 903d d3ac 4dbe
00000210: 3908 11be d21d d0bb c167 78bc 8a35 a33a
00000220: 5606 f33c a7d9 81bc 05c2 d0bb 0232 833d
00000230: 73b9 99bd 1fd4 b93d c82f 59bd 7550 5d3d
00000240: f27e eabd f160 8c3d 7fb1 2e3e 75f6 233c
00000250: 198f a6bc 3e76 95bd b25d ec3d f9a8 4dbd
00000260: 1cae 04be 2f5e 0ebc 6f75 84bd 1481 793d
00000270: 1a93 173e 959c 923c 0582 ce3b 6513 8f3c
00000280: 9930 67be c0ba 3f3c 4bcf 00bd 89c2 af3d
00000290: a332 2f3e 0e1f e5bd 4a11 2abe fda8 4e3e
000002a0: 1fb2 fb3c f554 1dbe d239 85ba 3224 30bc
000002b0: 6bcb b5bd 11d9 dfbd bbc5 37bd d773 41bd
000002c0: 007f aabd f0b5 463c bc12 8a3d 3cef 69be
000002d0: 5ef9 a63b 92b7 23bd f52f 74bd 68ff a3bc
000002e0: 487d 0f3d a061 903c cb62 d1bd 1740 81bc
000002f0: 2616 b93a 842e c4bd 9acc f63b 1791 8e3d
00000300: fb73 69bd 1c9b 1fbe d356 aa3d aa2e 9cbb
00000310: e0bb 20bc 1839 3b3e cd07 12bd b074 8b3c
00000320: a0ce 47bc a27a bf3d 89db 9f3c bda5 1e3d
00000330: 7c2f 583d 48a7 7e3a eda6 91bd ac07 6f3e
00000340: 1e58 f33d a676 b83a 9b8b 893d 5102 053e
00000350: b8cb 7fbd 9969 0d3d b9e0 843d efa4 4e3d
00000360: be69 ba3d d983 833d efdd a6bc 70b8 893d
00000370: ac67 803c 5ae4 a53d 798e da3c ecb3 d43d
00000380: 8480 3e3e 086d 213e 7a8c 923d 3270 413d
00000390: bc0d 0bbe 0cbc c63c 4a25 0d3f 3bf5 31be
000003a0: b97a 62bc fc9c b83c 586f cc3d d843 02be
000003b0: 5ae9 b8bb 2359 913a 4d78 1c3e d73e 32ba
000003c0: 30b6 adbc 8ed7 64bd 5fc7 14be 4700 8fbd
000003d0: ccb5 763d 399f 47be 1180 913b 58ed e83c
000003e0: f9db 02bd 76fa 4e3d 3eb3 0bbb c205 d9bd
000003f0: d701 ddbc 83fc a53d aa9a 86bc 97dc 3cbd

fc1.bias f4 [128]
-0.07521488 -0.06310664 0.13472499 -0.11075524 -0.012862849 -0.14278622 -0.24086073 -0.14998679
-0.19642808 -0.111207016 0.00040767036 -0.029167028 -0.0060353763 0.16287735 -0.018078877 0.06260313
0.11547084 0.117911115 0.07240845 0.007661562 -0.062316366 0.12635371 0.24831022 0.07378903
0.040605802 -0.09252578 -0.06411611 0.12375163 0.27923843 0.145156 0.06845159 0.027597839
-0.036886755 -0.078816876 -0.09342426 -0.057503566 -0.01315415 0.06764529 -0.07499564 0.05949287
0.12577474 -0.16765487 -0.13710827 0.22015977 0.14064038 -0.07890238 -0.11761171 0.0032239791
-0.15794374 0.0025587948 0.11552391 0.25552613 -0.09394249 0.184556 -0.14930403 0.10383318
0.019088263 0.25473034 -0.114407025 -0.17547598 0.19421758 0.037986048 0.0035826787 0.12369575
0.2697485 -0.1251383 -0.049284507 -0.05182485 0.29934558 0.17626895 0.088411905 -0.07940019
0.17553091 -0.010814657 -0.040703267 -0.101741225 -0.15146092 -0.20075287 0.16666795 0.18134238
0.099023715 -0.013098657 0.13393992 -0.1738357 0.17442316 -0.018748244 -0.05606434 -0.039346404
0.047074303 -0.1169193 0.0025245808 0.18303785 0.1884886 0.18670002 0.0058379113 0.09087962
-0.0082117785 0.20425247 0.062467273 -0.0047993204 0.07332167 0.074928686 0.33684254 0.09661751
0.04284133 -0.00947937 0.22827902 0.2385547 -0.055935718 0.18339309 0.06885069 0.010008286
0.106210314 -0.031825695 0.19598325 -0.15274212 0.037674397 -0.19701241 0.1078248 0.16955552
0.040339902 -0.14831698 0.029508503 -0.06690877 0.028861618 0.17603329 -0.01701723 0.060662698
00000000: 420a 9abd 0e3e 81bd 59f5 093e a5d3 e2bd
00000010: b3be 52bc 8d36 12be 32a4 76be 2396 19be
00000020: 7124 49be 81c0 e3bd 97bc d539 b1ef eebc
00000030: 68c4 c5bb 52c9 263e 271a 94bc 1236 803d
00000040: fa7b ec3d 627b f13d e24a 943d d70d fb3b
00000050: 723f 7fbd de62 013e 0945 7e3e b41e 973d
00000060: 4552 263d 287e bdbd 4f4f 83bd 7f71 fd3d
00000070: 57f8 8e3e c6a3 143e 5930 8c3d dd14 e23c
00000080: 9116 17bd be6a a1bd 3855 bfbd dc88 6bbd
00000090: 8184 57bc 9d89 8a3d 5097 99bd ccae 733d
000000a0: 18cb 003e b8ad 2bbe 1c66 0cbe 9071 613e
000000b0: 0804 103e 9297 a1bd 69de f0bd 6549 533b
000000c0: 01bc 21be 74b1 273b cd97 ec3d 52d4 823e
000000d0: ec64 c0bd 40fc 3c3e 28e3 18be 7ea6 d43d
000000e0: fd5e 9c3c 046c 823e 3b4e eabd faaf 33be
000000f0: f9e0 463e 4297 1b3d 60cb 6a3b 3354 fd3d
00000100: 7a1c 8a3e 4124 00be 8dde 49bd 4b46 54bd
00000110: d343 993e d97f 343e 4d11 b53d 919c a2bd
00000120: 60be 333e f62f 31bc 78b8 26bd b45d d0bd
00000130: 9218 1bbe 2992 4dbe 01ab 2a3e d1b1 393e
00000140: f2cc ca3d c09b 56bc 8c27 093e fc01 32be
00000150: fc9b 323e eb95 99bc b9a3 65bd b229 21bd
00000160: fcd0 403d 6373 efbd 7073 253b 466e 3b3e
00000170: 2803 413e 4a2e 3f3e f34b bf3b 181f ba3d
00000180: b28a 06bc 8f27 513e afdd 7f3d 9e43 9dbb
00000190: ac29 963d 3674 993d a076 ac3e 67df c53d
000001a0: 647a 2f3d 5c4f 1bbc fac1 693e af47 743e
000001b0: da1c 65bd 66cb 3b3e 9701 8d3d cbf9 233c
000001c0: cb84 d93d a95b 02bd d5af 483e 6e68 1cbe
000001d0: 7850 1a3d 9fbd 49be 40d3 dc3d f69f 2d3e
000001e0: 743b 253d 68e0 17be d1bb f13c 7707 89bd
000001f0: 336f ec3c 1242 343e b867 8bbc 7379 783d

bn1.weight f4 [128]
1.0 1.0 1.0 1.0 1.0 1.0 1.0 1.0
1.0 1.0 1.0 1.0 1.0 1.0 1.0 1.0
1.0 1.0 1.0 1.0 1.0 1.0 1.0 1.0
1.0 1.0 1.0 1.0 1.0 1.0 1.0 1.0
1.0 1.0 1.0 1.0 1.0 1.0 1.0 1.0
1.0 1.0 1.0 1.0 1.0 1.0 1.0 1.0
1.0 1.0 1.0 1.0 1.0 1.0 1.0 1.0
1.0 1.0 1.0 1.0 1.0 1.0 1.0 1.0
1.0 1.0 1.0 1.0 1.0 1.0 1.0 1.0
1.0 1.0 1.0 1.0 1.0 1.0 1.0 1.0
1.0 1.0 1.0 1.0 1.0 1.0 1.0 1.0
1.0 1.0 1.0 1.0 1.0 1.0 1.0 1.0
1.0 1.0 1.0 1.0 1.0 1.0 1.0 1.0
1.0 1.0 1.0 1.0 1.0 1.0 1.0 1.0
1.0 1.0 1.0 1.0 1.0 1.0 1.0 1.0
1.0 1.0 1.0 1.0 1.0 1.0 1.0 1.0
00000000: 0000 803f 0000 803f 0000 803f 0000 803f
00000010: 0000 803f 0000 803f 0000 803f 0000 803f
00000020: 0000 803f 0000 803f 0000 803f 0000 803f
00000030: 0000 803f 0000 803f 0000 803f 0000 803f
00000040: 0000 803f 0000 803f 0000 803f 0000 803f
00000050: 0000 803f 0000 803f 0000 803f 0000 803f
00000060: 0000 803f 0000 803f 0000 803f 0000 803f
00000070: 0000 803f 0000 803f 0000 803f 0000 803f
00000080: 0000 803f 0000 803f 0000 803f 0000 803f
00000090: 0000 803f 0000 803f 0000 803f 0000 803f
000000a0: 0000 803f 0000 803f 0000 803f 0000 803f
000000b0: 0000 803f 0000 803f 0000 803f 0000 803f
000000c0: 0000 803f 0000 803f 0000 803f 0000 803f
000000d0: 0000 803f 0000 803f 0000 803f 0000 803f
000000e0: 0000 803f 0000 803f 0000 803f 0000 803f
000000f0: 0000 803f 0000 803f 0000 803f 0000 803f
00000100: 0000 803f 0000 803f 0000 803f 0000 803f
00000110: 0000 803f 0000 803f 0000 803f 0000 803f
00000120: 0000 803f 0000 803f 0000 803f 0000 803f
00000130: 0000 803f 0000 803f 0000 803f 0000 803f
00000140: 0000 803f 0000 803f 0000 803f 0000 803f
00000150: 0000 803f 0000 803f 0000 803f 0000 803f
00000160: 0000 803f 0000 803f 0000 803f 0000 803f
00000170: 0000 803f 0000 803f 0000 803f 0000 803f
00000180: 0000 803f 0000 803f 0000 803f 0000 803f
00000190: 0000 803f 0000 803f 0000 803f 0000 803f
000001a0: 0000 803f 0000 803f 0000 803f 0000 803f
000001b0: 0000 803f 0000 803f 0000 803f 0000 803f
000001c0: 0000 803f 0000 803f 0000 803f 0000 803f
000001d0: 0000 803f 0000 803f 0000 803f 0000 803f
000001e0: 0000 803f 0000 803f 0000 803f 0000 803f
000001f0: 0000 803f 0000 803f 0000 803f 0000 803f

bn1.bias f4 [128]
0.0 0.0 0.0 0.0 0.0 0.0 0.0 0.0
0.0 0.0 0.0 0.0 0.0 0.0 0.0 0.0
0.0 0.0 0.0 0.0 0.0 0.0 0.0 0.0
0.0 0.0 0.0 0.0 0.0 0.0 0.0 0.0
0.0 0.0 0.0 0.0 0.0 0.0 0.0 0.0
0.0 0.0 0.0 0.0 0.0 0.0 0.0 0.0
0.0 0.0 0.0 0.0 0.0 0.0 0.0 0.0
0.0 0.0 0.0 0.0 0.0 0.0 0.0 0.0
0.0 0.0 0.0 0.0 0.0 0.0 0.0 0.0
0.0 0.0 0.0 0.0 0.0 0.0 0.0 0.0
0.0 0.0 0.0 0.0 0.0 0.0 0.0 0.0
0.0 0.0 0.0 0.0 0.0 0.0 0.0 0.0
0.0 0.0 0.0 0.0 0.0 0.0 0.0 0.0
0.0 0.0 0.0 0.0 0.0 0.0 0.0 0.0
0.0 0.0 0.0 0.0 0.0 0.0 0.0 0.0
0.0 0.0 0.0 0.0 0.0 0.0 0.0 0.0
00000000: 0000 0000 0000 0000 0000 0000 0000 0000
00000010: 0000 0000 0000 0000 0000 0000 0000 0000
00000020: 0000 0000 0000 0000 0000 0000 0000 0000
00000030: 0000 0000 0000 0000 0000 0000 0000 0000
00000040: 0000 0000 0000 0000 0000 0000 0000 0000
00000050: 0000 0000 0000 0000 0000 0000 0000 0000
00000060: 0000 0000 0000 0000 0000 0000 0000 0000
00000070: 0000 0000 0000 0000 0000 0000 0000 0000
00000080: 0000 0000 0000 0000 0000 0000 0000 0000
00000090: 0000 0000 0000 0000 0000 0000 0000 0000
000000a0: 0000 0000 0000 0000 0000 0000 0000 0000
000000b0: 0000 0000 0000 0000 0000 0000 0000 0000
000000c0: 0000 0000 0000 0000 0000 0000 0000 0000
000000d0: 0000 0000 0000 0000 0000 0000 0000 0000
000000e0: 0000 0000 0000 0000 0000 0000 0000 0000
000000f0: 0000 0000 0000 0000 0000 0000 0000 0000
00000100: 0000 0000 0000 0000 0000 0000 0000 0000
00000110: 0000 0000 0000 0000 0000 0000 0000 0000
00000120: 0000 0000 0000 0000 0000 0000 0000 0000
00000130: 0000 0000 0000 0000 0000 0000 0000 0000
00000140: 0000 0000 0000 0000 0000 0000 0000 0000
00000150: 0000 0000 0000 0000 0000 0000 0000 0000
00000160: 0000 0000 0000 0000 0000 0000 0000 0000
00000170: 0000 0000 0000 0000 0000 0000 0000 0000
00000180: 0000 0000 0000 0000 0000 0000 0000 0000
00000190: 0000 0000 0000 0000 0000 0000 0000 0000
000001a0: 0000 0000 0000 0000 0000 0000 0000 0000
000001b0: 0000 0000 0000 0000 0000 0000 0000 0000
000001c0: 0000 0000 0000 0000 0000 0000 0000 0000
000001d0: 0000 0000 0000 0000 0000 0000 0000 0000
000001e0: 0000 0000 0000 0000 0000 0000 0000 0000
000001f0: 0000 0000 0000 0000 0000 0000 0000 0000

bn1.running_mean f4 [128]
0.0 0.0 0.0 0.0 0.0 0.0 0.0 0.0
0.0 0.0 0.0 0.0 0.0 0.0 0.0 0.0
0.0 0.0 0.0 0.0 0.0 0.0 0.0 0.0
0.0 0.0 0.0 0.0 0.0 0.0 0.0 0.0
0.0 0.0 0.0 0.0 0.0 0.0 0.0 0.0
0.0 0.0 0.0 0.0 0.0 0.0 0.0 0.0
0.0 0.0 0.0 0.0 0.0 0.0 0.0 0.0
0.0 0.0 0.0 0.0 0.0 0.0 0.0 0.0
0.0 0.0 0.0 0.0 0.0 0.0 0.0 0.0
0.0 0.0 0.0 0.0 0.0 0.0 0.0 0.0
0.0 0.0 0.0 0.0 0.0 0.0 0.0 0.0
0.0 0.0 0.0 0.0 0.0 0.0 0.0 0.0
0.0 0.0 0.0 0.0 0.0 0.0 0.0 0.0
0.0 0.0 0.0 0.0 0.0 0.0 0.0 0.0
0.0 0.0 0.0 0.0 0.0 0.0 0.0 0.0
0.0 0.0 0.0 0.0 0.0 0.0 0.0 0.0
00000000: 0000 0000 0000 0000 0000 0000 0000 0000
00000010: 0000 0000 0000 0000 0000 0000 0000 0000
00000020: 0000 0000 0000 0000 0000 0000 0000 0000
00000030: 0000 0000 0000 0000 0000 0000 0000 0000
00000040: 0000 0000 0000 0000 0000 0000 0000 0000
00000050: 0000 0000 0000 0000 0000 0000 0000 0000
00000060: 0000 0000 0000 0000 0000 0000 0000 0000
00000070: 0000 0000 0000 0000 0000 0000 0000 0000
00000080: 0000 0000 0000 0000 0000 0000 0000 0000
00000090: 0000 0000 0000 0000 0000 0000 0000 0000
000000a0: 0000 0000 0000 0000 0000 0000 0000 0000
000000b0: 0000 0000 0000 0000 0000 0000 0000 0000
000000c0: 0000 0000 0000 0000 0000 0000 0000 0000
000000d0: 0000 0000 0000 0000 0000 0000 0000 0000
000000e0: 0000 0000 0000 0000 0000 0000 0000 0000
000000f0: 0000 0000 0000 0000 0000 0000 0000 0000
00000100: 0000 0000 0000 0000 0000 0000 0000 0000
00000110: 0000 0000 0000 0000 0000 0000 0000 0000
00000120: 0000 0000 0000 0000 0000 0000 0000 0000
00000130: 0000 0000 0000 0000 0000 0000 0000 0000
00000140: 0000 0000 0000 0000 0000 0000 0000 0000
00000150: 0000 0000 0000 0000 0000 0000 0000 0000
00000160: 0000 0000 0000 0000 0000 0000 0000 0000
00000170: 0000 0000 0000 0000 0000 0000 0000 0000
00000180: 0000 0000 0000 0000 0000 0000 0000 0000
00000190: 0000 0000 0000 0000 0000 0000 0000 0000
000001a0: 0000 0000 0000 0000 0000 0000 0000 0000
000001b0: 0000 0000 0000 0000 0000 0000 0000 0000
000001c0: 0000 0000 0000 0000 0000 0000 0000 0000
000001d0: 0000 0000 0000 0000 0000 0000 0000 0000
000001e0: 0000 0000 0000 0000 0000 0000 0000 0000
000001f0: 0000 0000 0000 0000 0000 0000 0000 0000

bn1.running_var f4 [128]
1.0 1.0 1.0 1.0 1.0 1.0 1.0 1.0
1.0 1.0 1.0 1.0 1.0 1.0 1.0 1.0
1.0 1.0 1.0 1.0 1.0 1.0 1.0 1.0
1.0 1.0 1.0 1.0 1.0 1.0 1.0 1.0
1.0 1.0 1.0 1.0 1.0 1.0 1.0 1.0
1.0 1.0 1.0 1.0 1.0 1.0 1.0 1.0
1.0 1.0 1.0 1.0 1.0 1.0 1.0 1.0
1.0 1.0 1.0 1.0 1.0 1.0 1.0 1.0
1.0 1.0 1.0 1.0 1.0 1.0 1.0 1.0
1.0 1.0 1.0 1.0 1.0 1.0 1.0 1.0
1.0 1.0 1.0 1.0 1.0 1.0 1.0 1.0
1.0 1.0 1.0 1.0 1.0 1.0 1.0 1.0
1.0 1.0 1.0 1.0 1.0 1.0 1.0 1.0
1.0 1.0 1.0 1.0 1.0 1.0 1.0 1.0
1.0 1.0 1.0 1.0 1.0 1.0 1.0 1.0
1.0 1.0 1.0 1.0 1.0 1.0 1.0 1.0
00000000: 0000 803f 0000 803f 0000 803f 0000 803f
00000010: 0000 803f 0000 803f 0000 803f 0000 803f
00000020: 0000 803f 0000 803f 0000 803f 0000 803f
00000030: 0000 803f 0000 803f 0000 803f 0000 803f
00000040: 0000 803f 0000 803f 0000 803f 0000 803f
00000050: 0000 803f 0000 803f 0000 803f 0000 803f
00000060: 0000 803f 0000 803f 0000 803f 0000 803f
00000070: 0000 803f 0000 803f 0000 803f 0000 803f
00000080: 0000 803f 0000 803f 0000 803f 0000 803f
00000090: 0000 803f 0000 803f 0000 803f 0000 803f
000000a0: 0000 803f 0000 803f 0000 803f 0000 803f
000000b0: 0000 803f 0000 803f 0000 803f 0000 803f
000000c0: 0000 803f 0000 803f 0000 803f 0000 803f
000000d0: 0000 803f 0000 803f 0000 803f 0000 803f
000000e0: 0000 803f 0000 803f 0000 803f 0000 803f
000000f0: 0000 803f 0000 803f 0000 803f 0000 803f
00000100: 0000 803f 0000 803f 0000 803f 0000 803f
00000110: 0000 803f 0000 803f 0000 803f 0000 803f
00000120: 0000 803f 0000 803f 0000 803f 0000 803f
00000130: 0000 803f 0000 803f 0000 803f 0000 803f
00000140: 0000 803f 0000 803f 0000 803f 0000 803f
00000150: 0000 803f 0000 803f 0000 803f 0000 803f
00000160: 0000 803f 0000 803f 0000 803f 0000 803f
00000170: 0000 803f 0000 803f 0000 803f 0000 803f
00000180: 0000 803f 0000 803f 0000 803f 0000 803f
00000190: 0000 803f 0000 803f 0000 803f 0000 803f
000001a0: 0000 803f 0000 803f 0000 803f 0000 803f
000001b0: 0000 803f 0000 803f 0000 803f 0000 803f
000001c0: 0000 803f 0000 803f 0000 803f 0000 803f
000001d0: 0000 803f 0000 803f 0000 803f 0000 803f
000001e0: 0000 803f 0000 803f 0000 803f 0000 803f
000001f0: 0000 803f 0000 803f 0000 803f 0000 803f

fc2.weight f4 [128, 128]
-0.20932512 -0.0015544312 0.041337285 -0.027476773 4.354405e-05 0.165626 0.12570229 0.056933008
-0.08395756 0.04200974 0.10567971 -0.1438267 0.05630755 -0.07957688 -0.13803928 0.129935
0.11185659 0.11550315 0.11767324 -0.0107254805 0.16379018 -0.0472708 -0.07209723 0.04993174
-0.121071145 -0.09489883 0.07964973 0.18762788 0.0062412284 0.03937814 0.15031126 0.030343708
-0.0526448 -0.12163322 -0.16562352 -0.011280786 0.11973563 0.004010211 -0.056917127 0.07677925
0.025066447 0.15354408 0.05381954 0.015192539 0.14326769 0.01073688 0.028506048 -0.08144818
0.12138636 0.10086533 0.2054907 0.060292095 -0.008813353 -0.009328678 -0.009592943 0.052729525
-0.12938266 -0.0050598006 0.0046254466 -0.038746864 0.032056004 0.01878077 0.14904092 -0.008344363
-0.05017416 -0.07204643 0.06308152 -0.07672958 0.048137598 0.05977059 0.01626313 -0.086967036
0.014578295 -0.089915276 -0.07651031 -0.047388975 0.15165314 0.0033045074 0.026820408 0.022812596
0.0521348 0.06692853 0.094958186 -0.059599392 -0.14856128 0.13106275 -0.23288637 0.11117064
0.17655018 0.043779247 -0.007694705 0.040932544 0.026201902 0.1411015 0.053251725 0.051657494
-0.032400496 -0.16968201 0.018537642 -0.050537113 0.02783966 -0.12096162 -0.15749061 0.1396154
0.07871315 0.015160124 -0.1076895 0.0065315934 0.052515805 0.0017547633 0.11606645 0.025114302
0.03343115 -0.089795455 -0.065117314 -0.086266935 0.039938204 0.15672441 -0.010626011 0.08254408
-0.04739763 -0.22200958 0.039087623 -0.06684353 0.021228174 0.09039776 -0.028807614 -0.11181043
-0.00791092 0.05193111 0.037688233 0.090354115 -0.08565858 0.13546415 0.1707122 0.0467412
0.14630601 -0.05339602 0.21186061 0.17530358 -0.0037073272 0.08696233 -0.07592522 0.090092756
0.071069844 -0.079613775 0.052590147 -0.01296786 0.09764566 -0.06762452 0.0065585817 0.06147484
0.035397414 0.010777359 0.075644664 0.0040229056 0.0002655812 0.024354193 -0.009791569 0.0583599
-0.0037875122 -0.026519652 -0.025708286 -0.13629031 0.057542566 0.10168293 -0.05366682 0.100487456
-0.039797388 -0.11572418 -0.16019075 -0.0021527356 0.006608186 -0.0304867 0.22347058 0.13761075
0.14737067 0.06704829 -0.06078735 0.2810764 -0.11352748 0.09646946 0.0981096 -0.07635505
0.2913755 -0.13355157 -0.30508536 -0.20344435 0.055065412 -0.14286157 0.08548214 -0.0053891796
0.005112704 0.03412317 -0.027804732 0.09388354 -0.15962924 -0.049985487 0.09743156 -0.07600053
0.00054562517 0.025313701 0.04190467 0.2092227 0.073267475 -0.10983209 -0.13088015 -0.056182746
0.21395259 -0.13105427 0.16247681 -0.0058111907 -0.054097045 0.060120173 -0.10657406 0.157098
0.0025588076 0.09520613 -0.047716916 0.066935204 -0.014296727 0.1485396 -0.052793194 -0.01904036
-0.07219778 -0.0055977902 0.036373183 -0.036693614 -0.06370557 0.0018217923 0.029646395 0.09301555
0.024982085 -0.0050301445 0.18722439 -0.21755268 0.1126496 -0.07618764 -0.036438014 -0.05693097
0.020977179 -0.062391046 -0.09445693 0.013259261 0.07809572 -0.07516545 0.06386278 -0.10459224
0.01752814 -0.19401883 0.0057606557 0.065595485 0.16700965 0.08221362 0.07145694 0.034978166
00000000: 5359 56be 0ebe cbba 4951 293d f816 e1bc
00000010: 11a3 3638 dd99 293e 1ab8 003e 9632 693d
00000020: f1f1 abbd 6812 2c3d 9b6e d83d 4e47 13be
00000030: bfa2 663d 34f9 a2bd 2b5a 0dbe ae0d 053e
00000040: 1115 e53d ea8c ec3d abfe f03d edb9 2fbc
00000050: 9db8 273e 079f 41bd b6a7 93bd 3985 4c3d
00000060: 26f4 f7bd 515a c2bd 661f a33d 8621 403e
00000070: 3883 cc3b f94a 213d 32eb 193e 5e93 f83c
00000080: 13a2 57bd d61a f9bd 3699 29be 0cd3 38bc
00000090: f437 f53d 1768 833b ef21 69bd 703e 9d3d
000000a0: 2658 cd3c a93a 1d3e e171 5c3d 21ea 783c
000000b0: c4b4 123e bde9 2f3c 8485 e93c 4ece a6bd
000000c0: 6999 f83d 7b92 ce3d 276c 523e d8f4 763d
000000d0: e265 10bc 50d7 18bc b82b 1dbc eafa 573d
000000e0: e37c 04be afcc a5bb 0f91 973b 08b5 1ebd
000000f0: 284d 033d 21da 993c 2f9e 183e ccb6 08bc
00000100: 6c83 4dbd 148d 93bd e230 813d 6624 9dbd
00000110: ee2b 453d 02d2 743d 413a 853c c61b b2bd
00000120: cdd9 6e3c 8025 b8bd 70b1 9cbd f11a 42bd
00000130: f64a 1b3e 6f90 583b 79b6 db3c 7be1 ba3c
00000140: 4d8b 553d d311 893d 7079 c23d 7e1e 74bd
00000150: 7320 18be 5035 063e c479 6ebe 6fad e33d
00000160: 92c9 343e de51 333d dd23 fcbb e2a8 273d
00000170: 5fa5 d63c e97c 103e 7b1e 5a3d cf96 533d
00000180: 62b6 04bd 1fc1 2dbe 41dc 973c 0100 4fbd
00000190: 0010 e43c baba f7bd 3845 21be 57f7 0e3e
000001a0: 5c34 a13d 2b62 783c 508c dcbd fa06 d63b
000001b0: d01a 573d 1600 e63a 3fb4 ed3d 82bc cd3c
000001c0: 1aef 083d aee6 b7bd 3a5c 85bd b8ac b0bd
000001d0: 3e96 233d 5d7c 203e b818 2ebc df0c a93d
000001e0: 0424 42bd 7b56 63be 581a 203d 43e5 88bd
000001f0: b5e6 ad3c 7622 b93d f2fd ebbc defc e4bd
00000200: ce9c 01bc b7b5 543d fa5e 1a3d 940b b93d
00000210: c46d afbd 1db7 0a3e 2ecf 2e3e b373 3f3d
00000220: 3ed1 153e c9b5 5abd fdf1 583e c882 333e
00000230: a1f6 72bb 4e19 b23d af7e 9bbd 8d82 b83d
00000240: 118d 913d 8c0c a3bd c468 573d 2677 54bc
00000250: 73fa c73d b97e 8abd 5fe9 d63b 0bcd 7b3d
00000260: e1fc 103d 8593 303c 97eb 9a3d 94d2 833b
00000270: b53d 8b39 7282 c73c d16c 20bc ca0a 6f3d
00000280: e937 78bb be3f d9bc 2f9a d2bc b08f 0bbe
00000290: c1b1 6b3d 243f d03d bdd1 5bbd 5ecc cd3d
000002a0: 9602 23bd cd00 edbd 0b09 24be e914 0dbb
000002b0: 7b89 d83b 3ebf f9bc 79d5 643e d5e9 0c3e
000002c0: 56e8 163e 9d50 893d 28fc 78bd 3fe9 8f3e
000002d0: 1881 e8bd c891 c53d b0ed c83d 0960 9cbd
000002e0: 2b2f 953e bec1 08be 2634 9cbe b753 50be
000002f0: 458c 613d 4e4a 12be 4311 af3d b797 b0bb
00000300: 7888 a73b bdc4 0b3d c0c6 e3bc 0346 c03d
00000310: d975 23be 95bd 4cbd 338a c73d 2aa6 9bbd
00000320: 4908 0f3a ae5e cf3c 3ba4 2b3d 7a3e 563e
00000330: 420d 963d a6ef e0bd 7205 06be e11f 66bd
00000340: 6316 5b3e 1733 06be 5260 263e cd6b bebb
00000350: dd94 5dbd 9240 763d 8043 dabd 4cde 203e
00000360: abb1 273b 6efb c23d d072 43bd 5315 893d
00000370: d23c 6abc c41a 183e ad3d 58bd 87fa 9bbc
00000380: 6edc 93bd ab6d b7bb 0cfc 143d 0b4c 16bd
00000390: 1178 82bd 35c9 ee3a ffdc f23c f07e be3d
000003a0: 3ba7 cc3c e9d3 a4bb c0b7 3f3e 21c6 5ebe
000003b0: d5b4 e63d 4408 9cbd 0740 15bd 7330 69bd
000003c0: 55d8 ab3c c18d 7fbd a372 c1bd 5f3d 593c
000003d0: a6f0 9f3d 58f0 99bd 7dca 823d 7534 d6bd
000003e0: 2d97 8f3c dfac 46be e2c3 bc3b ed56 863d
000003f0: 9404 2b3e 9d5f a83d 0458 923d 4445 0f3d

fc2.bias f4 [128]
0.025279585 -0.054432336 -0.04909953 0.021712469 -0.035392895 0.01542071 0.11089532 0.03019898
-0.008142354 0.11378558 0.049334344 -0.050025295 -0.0573734 0.022620581 0.05197323 0.015558772
-0.016477235 -0.09185313 -0.005865841 -0.11279308 0.057512723 0.07412975 -0.10075778 -0.09323052
-0.006956583 0.01768603 -0.08090416 0.062501185 -0.026434336 -0.018237852 0.122284636 -0.025659941
-0.01831784 -0.04374238 -0.07532456 0.06232888 -0.061978593 0.02292756 0.10175634 -0.104633614
0.0726485 -0.08567887 -0.08079208 -0.10600672 0.10925358 0.0674233 0.02489456 -0.025028225
0.030084848 -0.04432603 0.079054125 0.028366752 -0.030591214 -0.08137559 -0.070890345 0.039491657
0.069195986 -0.07738895 0.042524103 0.1163728 -0.02602844 0.030852813 0.071014345 0.098613426
-0.075954564 -0.03934358 0.038096394 -0.056311253 0.056577154 0.11186495 0.077061445 -0.00839484
-0.0674549 -0.10015987 0.060404796 -0.0404443 0.004102208 -0.060857695 0.008130063 0.007282248
0.08694202 0.036826763 -0.07146901 -0.07201092 -0.03649366 0.080336474 -0.007671619 0.11740547
0.0978745 -0.028736997 -0.012034055 -0.10335508 -0.004120167 -0.025692692 0.05961209 0.08758254
0.013969551 0.052989773 -0.06249842 0.08495599 0.0138469655 0.026858691 -0.026443023 -0.12254888
0.0047189933 -0.016533962 0.11144478 0.08244566 -0.05362889 -0.030169347 -0.017058693 0.037572
0.07957711 -0.0042300737 -0.03392397 0.025675436 -0.10349076 -0.06944404 0.088088065 0.0101600485
0.030372944 -0.052525386 0.12406064 0.03181616 0.006395223 0.042119313 -0.13248318 -0.082277186
00000000: 2217 cf3c 71f4 5ebd 971c 49bd 59de b13c
00000010: 24f8 10bd 25a7 7c3c 161d e33d da63 f73c
00000020: 8267 05bc 6a08 e93d cf12 4a3d 53e7 4cbd
00000030: 5f00 6bbd cc4e b93c e2e1 543d 38ea 7e3c
00000040: 44fb 86bc 7e1d bcbd 3e36 c0bb 0f00 e7bd
00000050: 7692 6b3d 57d1 973d 185a cebd a5ef bebd
00000060: 0cf4 e3bb 4be2 903c 15b1 a5bd 9f00 803d
00000070: d28c d8bc 8c67 95bc 5e70 fa3d cc34 d2bc
00000080: 4b0f 96bc 362b 33bd c343 9abd 914c 7f3d
00000090: 44dd 7dbd 94d2 bb3c a165 d03d 264a d6bd
000000a0: bdc8 943d 6778 afbd 5176 a5bd 0d1a d9bd
000000b0: 57c0 df3d 3a15 8a3d adef cb3c fe07 cdbc
000000c0: 8074 f63c 368f 35bd 21e7 a13d 6461 e83c
000000d0: 6d9a fabc 3fa8 a6bd f52e 91bd 01c2 213d
000000e0: a0b6 8d3d 197e 9ebd c12d 2e3d dd54 ee3d
000000f0: 9839 d5bc 0abf fc3c f86f 913d d6f5 c93d
00000100: 118e 9bbd bc26 21bd f70a 1c3d a1a6 66bd
00000110: 72bd 673d 7319 e53d 64d2 9d3d 838a 09bc
00000120: cb25 8abd 9e20 cdbd 056b 773d eca8 25bd
00000130: d16b 863b eb45 79bd f533 053c ed9f ee3b
00000140: a80e b23d a9d7 163d 585e 92bd 767a 93bd
00000150: 607a 15bd 7387 a43d 3462 fbbb 4772 f03d
00000160: 6d72 c83d da69 ebbc 7c2a 45bc d4ab d3bd
00000170: 7702 87bb 7b79 d2bc cf2b 743d 7a5e b33d
00000180: 8be0 643c ce0b 593d 58fe 7fbd 68fd ad3d
00000190: 62de 623c c206 dc3c 0a9f d8bc e8fa fabd
000001a0: c9a1 9a3b 3b72 87bc 293d e43d 45d9 a83d
000001b0: f8a9 5bbd b525 f7bc acbe 8bbc 19e5 193d
000001c0: 53f9 a23d 6e9c 8abb dcf3 0abd 4b55 d23c
000001d0: f7f2 d3bd ad38 8ebd 8467 b43d 5576 263c
000001e0: aed0 f83c dc24 57bd 8113 fe3d a951 023d
000001f0: 058f d13b 4d85 2c3d aca9 07be f180 a8bd

bn2.weight f4 [128]
1.0 1.0 1.0 1.0 1.0 1.0 1.0 1.0
1.0 1.0 1.0 1.0 1.0 1.0 1.0 1.0
1.0 1.0 1.0 1.0 1.0 1.0 1.0 1.0
1.0 1.0 1.0 1.0 1.0 1.0 1.0 1.0
1.0 1.0 1.0 1.0 1.0 1.0 1.0 1.0
1.0 1.0 1.0 1.0 1.0 1.0 1.0 1.0
1.0 1.0 1.0 1.0 1.0 1.0 1.0 1.0
1.0 1.0 1.0 1.0 1.0 1.0 1.0 1.0
1.0 1.0 1.0 1.0 1.0 1.0 1.0 1.0
1.0 1.0 1.0 1.0 1.0 1.0 1.0 1.0
1.0 1.0 1.0 1.0 1.0 1.0 1.0 1.0
1.0 1.0 1.0 1.0 1.0 1.0 1.0 1.0
1.0 1.0 1.0 1.0 1.0 1.0 1.0 1.0
1.0 1.0 1.0 1.0 1.0 1.0 1.0 1.0
1.0 1.0 1.0 1.0 1.0 1.0 1.0 1.0
1.0 1.0 1.0 1.0 1.0 1.0 1.0 1.0
00000000: 0000 803f 0000 803f 0000 803f 0000 803f
00000010: 0000 803f 0000 803f 0000 803f 0000 803f
00000020: 0000 803f 0000 803f 0000 803f 0000 803f
00000030: 0000 803f 0000 803f 0000 803f 0000 803f
00000040: 0000 803f 0000 803f 0000 803f 0000 803f
00000050: 0000 803f 0000 803f 0000 803f 0000 803f
00000060: 0000 803f 0000 803f 0000 803f 0000 803f
00000070: 0000 803f 0000 803f 0000 803f 0000 803f
00000080: 0000 803f 0000 803f 0000 803f 0000 803f
00000090: 0000 803f 0000 803f 0000 803f 0000 803f
000000a0: 0000 803f 0000 803f 0000 803f 0000 803f
000000b0: 0000 803f 0000 803f 0000 803f 0000 803f
000000c0: 0000 803f 0000 803f 0000 803f 0000 803f
000000d0: 0000 803f 0000 803f 0000 803f 0000 803f
000000e0: 0000 803f 0000 803f 0000 803f 0000 803f
000000f0: 0000 803f 0000 803f 0000 803f 0000 803f
00000100: 0000 803f 0000 803f 0000 803f 0000 803f
00000110: 0000 803f 0000 803f 0000 803f 0000 803f
00000120: 0000 803f 0000 803f 0000 803f 0000 803f
00000130: 0000 803f 0000 803f 0000 803f 0000 803f
00000140: 0000 803f 0000 803f 0000 803f 0000 803f
00000150: 0000 803f 0000 803f 0000 803f 0000 803f
00000160: 0000 803f 0000 803f 0000 803f 0000 803f
00000170: 0000 803f 0000 803f 0000 803f 0000 803f
00000180: 0000 803f 0000 803f 0000 803f 0000 803f
00000190: 0000 803f 0000 803f 0000 803f 0000 803f
000001a0: 0000 803f 0000 803f 0000 803f 0000 803f
000001b0: 0000 803f 0000 803f 0000 803f 0000 803f
000001c0: 0000 803f 0000 803f 0000 803f 0000 803f
000001d0: 0000 803f 0000 803f 0000 803f 0000 803f
000001e0: 0000 803f 0000 803f 0000 803f 0000 803f
000001f0: 0000 803f 0000 803f 0000 803f 0000 803f

bn2.bias f4 [128]
0.0 0.0 0.0 0.0 0.0 0.0 0.0 0.0
0.0 0.0 0.0 0.0 0.0 0.0 0.0 0.0
0.0 0.0 0.0 0.0 0.0 0.0 0.0 0.0
0.0 0.0 0.0 0.0 0.0 0.0 0.0 0.0
0.0 0.0 0.0 0.0 0.0 0.0 0.0 0.0
0.0 0.0 0.0 0.0 0.0 0.0 0.0 0.0
0.0 0.0 0.0 0.0 0.0 0.0 0.0 0.0
0.0 0.0 0.0 0.0 0.0 0.0 0.0 0.0
0.0 0.0 0.0 0.0 0.0 0.0 0.0 0.0
0.0 0.0 0.0 0.0 0.0 0.0 0.0 0.0
0.0 0.0 0.0 0.0 0.0 0.0 0.0 0.0
0.0 0.0 0.0 0.0 0.0 0.0 0.0 0.0
0.0 0.0 0.0 0.0 0.0 0.0 0.0 0.0
0.0 0.0 0.0 0.0 0.0 0.0 0.0 0.0
0.0 0.0 0.0 0.0 0.0 0.0 0.0 0.0
0.0 0.0 0.0 0.0 0.0 0.0 0.0 0.0
00000000: 0000 0000 0000 0000 0000 0000 0000 0000
00000010: 0000 0000 0000 0000 0000 0000 0000 0000
00000020: 0000 0000 0000 0000 0000 0000 0000 0000
00000030: 0000 0000 0000 0000 0000 0000 0000 0000
00000040: 0000 0000 0000 0000 0000 0000 0000 0000
00000050: 0000 0000 0000 0000 0000 0000 0000 0000
00000060: 0000 0000 0000 0000 0000 0000 0000 0000
00000070: 0000 0000 0000 0000 0000 0000 0000 0000
00000080: 0000 0000 0000 0000 0000 0000 0000 0000
00000090: 0000 0000 0000 0000 0000 0000 0000 0000
000000a0: 0000 0000 0000 0000 0000 0000 0000 0000
000000b0: 0000 0000 0000 0000 0000 0000 0000 0000
000000c0: 0000 0000 0000 0000 0000 0000 0000 0000
000000d0: 0000 0000 0000 0000 0000 0000 0000 0000
000000e0: 0000 0000 0000 0000 0000 0000 0000 0000
000000f0: 0000 0000 0000 0000 0000 0000 0000 0000
00000100: 0000 0000 0000 0000 0000 0000 0000 0000
00000110: 0000 0000 0000 0000 0000 0000 0000 0000
00000120: 0000 0000 0000 0000 0000 0000 0000 0000
00000130: 0000 0000 0000 0000 0000 0000 0000 0000
00000140: 0000 0000 0000 0000 0000 0000 0000 0000
00000150: 0000 0000 0000 0000 0000 0000 0000 0000
00000160: 0000 0000 0000 0000 0000 0000 0000 0000
00000170: 0000 0000 0000 0000 0000 0000 0000 0000
00000180: 0000 0000 0000 0000 0000 0000 0000 0000
00000190: 0000 0000 0000 0000 0000 0000 0000 0000
000001a0: 0000 0000 0000 0000 0000 0000 0000 0000
000001b0: 0000 0000 0000 0000 0000 0000 0000 0000
000001c0: 0000 0000 0000 0000 0000 0000 0000 0000
000001d0: 0000 0000 0000 0000 0000 0000 0000 0000
000001e0: 0000 0000 0000 0000 0000 0000 0000 0000
000001f0: 0000 0000 0000 0000 0000 0000 0000 0000

bn2.running_mean f4 [128]
0.0 0.0 0.0 0.0 0.0 0.0 0.0 0.0
0.0 0.0 0.0 0.0 0.0 0.0 0.0 0.0
0.0 0.0 0.0 0.0 0.0 0.0 0.0 0.0
0.0 0.0 0.0 0.0 0.0 0.0 0.0 0.0
0.0 0.0 0.0 0.0 0.0 0.0 0.0 0.0
0.0 0.0 0.0 0.0 0.0 0.0 0.0 0.0
0.0 0.0 0.0 0.0 0.0 0.0 0.0 0.0
0.0 0.0 0.0 0.0 0.0 0.0 0.0 0.0
0.0 0.0 0.0 0.0 0.0 0.0 0.0 0.0
0.0 0.0 0.0 0.0 0.0 0.0 0.0 0.0
0.0 0.0 0.0 0.0 0.0 0.0 0.0 0.0
0.0 0.0 0.0 0.0 0.0 0.0 0.0 0.0
0.0 0.0 0.0 0.0 0.0 0.0 0.0 0.0
0.0 0.0 0.0 0.0 0.0 0.0 0.0 0.0
0.0 0.0 0.0 0.0 0.0 0.0 0.0 0.0
0.0 0.0 0.0 0.0 0.0 0.0 0.0 0.0
00000000: 0000 0000 0000 0000 0000 0000 0000 0000
00000010: 0000 0000 0000 0000 0000 0000 0000 0000
00000020: 0000 0000 0000 0000 0000 0000 0000 0000
00000030: 0000 0000 0000 0000 0000 0000 0000 0000
00000040: 0000 0000 0000 0000 0000 0000 0000 0000
00000050: 0000 0000 0000 0000 0000 0000 0000 0000
00000060: 0000 0000 0000 0000 0000 0000 0000 0000
00000070: 0000 0000 0000 0000 0000 0000 0000 0000
00000080: 0000 0000 0000 0000 0000 0000 0000 0000
00000090: 0000 0000 0000 0000 0000 0000 0000 0000
000000a0: 0000 0000 0000 0000 0000 0000 0000 0000
000000b0: 0000 0000 0000 0000 0000 0000 0000 0000
000000c0: 0000 0000 0000 0000 0000 0000 0000 0000
000000d0: 0000 0000 0000 0000 0000 0000 0000 0000
000000e0: 0000 0000 0000 0000 0000 0000 0000 0000
000000f0: 0000 0000 0000 0000 0000 0000 0000 0000
00000100: 0000 0000 0000 0000 0000 0000 0000 0000
00000110: 0000 0000 0000 0000 0000 0000 0000 0000
00000120: 0000 0000 0000 0000 0000 0000 0000 0000
00000130: 0000 0000 0000 0000 0000 0000 0000 0000
00000140: 0000 0000 0000 0000 0000 0000 0000 0000
00000150: 0000 0000 0000 0000 0000 0000 0000 0000
00000160: 0000 0000 0000 0000 0000 0000 0000 0000
00000170: 0000 0000 0000 0000 0000 0000 0000 0000
00000180: 0000 0000 0000 0000 0000 0000 0000 0000
00000190: 0000 0000 0000 0000 0000 0000 0000 0000
000001a0: 0000 0000 0000 0000 0000 0000 0000 0000
000001b0: 0000 0000 0000 0000 0000 0000 0000 0000
000001c0: 0000 0000 0000 0000 0000 0000 0000 0000
000001d0: 0000 0000 0000 0000 0000 0000 0000 0000
000001e0: 0000 0000 0000 0000 0000 0000 0000 0000
000001f0: 0000 0000 0000 0000 0000 0000 0000 0000

bn2.running_var f4 [128]
1.0 1.0 1.0 1.0 1.0 1.0 1.0 1.0
1.0 1.0 1.0 1.0 1.0 1.0 1.0 1.0
1.0 1.0 1.0 1.0 1.0 1.0 1.0 1.0
1.0 1.0 1.0 1.0 1.0 1.0 1.0 1.0
1.0 1.0 1.0 1.0 1.0 1.0 1.0 1.0
1.0 1.0 1.0 1.0 1.0 1.0 1.0 1.0
1.0 1.0 1.0 1.0 1.0 1.0 1.0 1.0
1.0 1.0 1.0 1.0 1.0 1.0 1.0 1.0
1.0 1.0 1.0 1.0 1.0 1.0 1.0 1.0
1.0 1.0 1.0 1.0 1.0 1.0 1.0 1.0
1.0 1.0 1.0 1.0 1.0 1.0 1.0 1.0
1.0 1.0 1.0 1.0 1.0 1.0 1.0 1.0
1.0 1.0 1.0 1.0 1.0 1.0 1.0 1.0
1.0 1.0 1.0 1.0 1.0 1.0 1.0 1.0
1.0 1.0 1.0 1.0 1.0 1.0 1.0 1.0
1.0 1.0 1.0 1.0 1.0 1.0 1.0 1.0
00000000: 0000 803f 0000 803f 0000 803f 0000 803f
00000010: 0000 803f 0000 803f 0000 803f 0000 803f
00000020: 0000 803f 0000 803f 0000 803f 0000 803f
00000030: 0000 803f 0000 803f 0000 803f 0000 803f
00000040: 0000 803f 0000 803f 0000 803f 0000 803f
00000050: 0000 803f 0000 803f 0000 803f 0000 803f
00000060: 0000 803f 0000 803f 0000 803f 0000 803f
00000070: 0000 803f 0000 803f 0000 803f 0000 803f
00000080: 0000 803f 0000 803f 0000 803f 0000 803f
00000090: 0000 803f 0000 803f 0000 803f 0000 803f
000000a0: 0000 803f 0000 803f 0000 803f 0000 803f
000000b0: 0000 803f 0000 803f 0000 803f 0000 803f
000000c0: 0000 803f 0000 803f 0000 803f 0000 803f
000000d0: 0000 803f 0000 803f 0000 803f 0000 803f
000000e0: 0000 803f 0000 803f 0000 803f 0000 803f
000000f0: 0000 803f 0000 803f 0000 803f 0000 803f
00000100: 0000 803f 0000 803f 0000 803f 0000 803f
00000110: 0000 803f 0000 803f 0000 803f 0000 803f
00000120: 0000 803f 0000 803f 0000 803f 0000 803f
00000130: 0000 803f 0000 803f 0000 803f 0000 803f
00000140: 0000 803f 0000 803f 0000 803f 0000 803f
00000150: 0000 803f 0000 803f 0000 803f 0000 803f
00000160: 0000 803f 0000 803f 0000 803f 0000 803f
00000170: 0000 803f 0000 803f 0000 803f 0000 803f
00000180: 0000 803f 0000 803f 0000 803f 0000 803f
00000190: 0000 803f 0000 803f 0000 803f 0000 803f
000001a0: 0000 803f 0000 803f 0000 803f 0000 803f
000001b0: 0000 803f 0000 803f 0000 803f 0000 803f
000001c0: 0000 803f 0000 803f 0000 803f 0000 803f
000001d0: 0000 803f 0000 803f 0000 803f 0000 803f
000001e0: 0000 803f 0000 803f 0000 803f 0000 803f
000001f0: 0000 803f 0000 803f 0000 803f 0000 803f

fc3.weight f4 [4, 128]
0.18156298 0.014938931 0.32786447 -0.054462038 -0.1839418 0.30716592 0.10606898 0.07742126
-0.039596595 -0.088047214 0.47347224 0.6223872 0.30346948 -0.09288828 0.052965283 -0.115193866
0.15768716 0.007294845 0.027824204 -0.0045628804 -0.039409023 -0.06583134 0.58077693 -0.12523969
-0.012800937 -0.08578383 0.3001756 0.07430829 0.41464812 0.09238385 -0.10988818 0.24661146
-0.06183462 0.0846688 -0.19797194 -0.20776694 -0.031155923 0.19756371 -0.14284705 0.37947214
0.20652738 0.143679 0.011331109 0.3158159 0.014336982 0.5728376 0.21348877 0.004070595
0.30437654 0.45166606 0.01220433 0.018459955 -0.3708094 0.1747284 -0.09409085 0.090562865
-0.07692807 -0.12737334 0.11533767 -0.14253189 0.19120991 -0.13012756 0.099623926 -0.110489674
0.2549272 -0.08570913 -0.18972567 0.13455375 -0.4495357 0.2640549 -0.14388026 -0.0753349
0.027644506 0.32570666 -0.06762935 0.53913087 -0.039205767 0.15391806 0.005914491 -0.28986365
-0.005377026 -0.14051685 -0.046061683 -0.13054359 0.1934349 0.04800397 -0.04418657 -0.057924785
-0.11468202 -0.027047211 0.10740915 0.0381613 -0.07852659 -0.13488354 0.073654756 -0.06064825
0.37085572 -0.1755082 0.0029977378 -0.087889515 -0.108711205 0.22406018 0.29455256 0.37396723
0.21991035 -0.18682572 0.5083677 0.062612146 0.059026353 0.59451836 -0.123809814 -0.016215283
0.31183428 -0.052992508 -0.11413747 -0.14550939 0.088834636 -0.118842706 0.59593093 -0.020243907
0.14782676 -0.017457351 -0.26541683 -0.023204956 0.106088236 -0.1512654 0.038917355 -0.14554663
-0.027043302 0.16972025 -0.20695351 -0.04934069 -0.14250013 -0.26297382 -0.16154097 0.38548416
0.17606473 0.4621697 0.002464285 -0.12381715 0.30225697 -0.07592328 -0.19912845 -0.041158795
0.0032607655 -0.26243728 0.09903609 -0.21780992 0.075289235 0.4689013 -0.15795004 -0.041551575
-0.24616021 -0.27848583 0.27742127 0.1588124 0.6931866 -0.17364556 0.059944566 -0.101182334
0.10214486 0.3256628 0.097506784 0.2337538 0.2506924 -0.09075582 -0.013761642 -0.29975814
0.1358638 -0.43337253 -0.022972448 0.25231004 0.023259344 0.12725052 0.57331944 0.3365365
0.07655208 0.046883486 -0.18176927 -0.16373098 0.38979727 0.07657265 0.057885453 0.15113607
-0.116596684 0.008471489 -0.109237514 -0.07003028 -0.28000793 -0.0020993173 -0.05155803 -0.05206702
0.1335345 -0.1515884 0.5431622 0.3702988 -0.10177306 -0.102026425 -0.019926213 0.22155116
0.35675976 -0.11751142 -0.06580817 0.051931504 0.003853189 0.036389027 0.00918644 -0.17090516
0.39068428 -0.16887383 0.8162759 -0.040705558 0.14840826 -0.05228759 -0.40247723 -0.103551
0.1436048 0.082572736 0.056025423 0.16858134 0.0035233425 -0.024836004 -0.20069164 0.02962641
0.21431926 -0.06143727 0.057790477 -0.03463497 -0.17307626 -0.52350783 0.1909086 -0.11069055
-0.045721844 0.2250862 -0.039626557 -0.117547676 0.22804071 -0.03257638 -0.058720093 -0.06291761
-0.073524 0.32471585 -0.037142422 -0.02719698 0.14532048 -0.07353243 0.56892926 -0.4040609
0.25955454 -0.0027758363 -0.36147895 -0.14019118 -0.10691187 -0.052637864 0.27886003 -0.13043779
00000000: a5eb 393e 6bc2 743c dadd a73e 9613 5fbd
00000010: 3d5b 3cbe da44 9d3e b23a d93d 0a8f 9e3d
00000020: 0a30 22bd 1952 b4bd f46a f23e c454 1f3f
00000030: 5a60 9b3e 363c bebd 20f2 583d c3ea ebbd
00000040: be78 213e 9809 ef3b 96ef e33c 3784 95bb
00000050: 5b6b 21bd 95d2 86bd ccad 143f d53e 00be
00000060: 05bb 51bc 6faf afbd 9eb0 993e f22e 983d
00000070: c24c d43e be33 bd3d 0e0d e1bd b787 7c3e
00000080: 4c46 7dbd d666 ad3d 28b9 4abe dbc0 54be
00000090: b53a ffbc 244e 4a3e 7f46 12be 2c4a c23e
000000a0: ea7b 533e 9620 133e 1ea6 393c 9fb2 a13e
000000b0: a9e5 6a3c 7ca5 123f cd9c 5a3e a062 853b
000000c0: 3ed7 9b3e c640 e73e acf4 473c 5539 973c
000000d0: bbda bdbe 00ec 323e b4b2 c0bd 0679 b93d
000000e0: 778c 9dbd 286e 02be 2836 ec3d e1f3 11be
000000f0: 88cc 433e 2940 05be a107 cc3d 6948 e2bd
00000100: d185 823e 4588 afbd 7247 42be 75c8 093e
00000110: 8b29 e6be 3432 873e 5955 13be 2f49 9abd
00000120: bb76 e23c 06c3 a63e 4281 8abd 7b04 0a3f
00000130: 3a96 20bd b29c 1d3e 59ce c13b 0269 94be
00000140: c331 b0bb a6e3 0fbe 2dab 3cbd 38ad 05be
00000150: cc13 463e d09f 443d fafc 34bd 8a42 6dbd
00000160: 68de eabd 1d92 ddbc 54f9 db3d 064f 1c3d
00000170: 8cd2 a0bd e91e 0abe 4ed8 963d 4d6a 78bd
00000180: cde0 bd3e 6cb8 33be b275 443b 6bff b3bd
00000190: fba3 debd 0870 653e 98cf 963e a278 bf3e
000001a0: 2e30 613e 3e4f 3fbe 6324 023f cc3a 803d
000001b0: 9ec5 713d 5b32 183f 0090 fdbd ead5 84bc
000001c0: bea8 9f3e ac0e 59bd e8c0 e9bd 6a00 15be
000001d0: efee b53d ce63 f3bd ee8e 183f 8dd6 a5bc
000001e0: e65f 173e b802 8fbc b7e4 87be 5218 bebc
000001f0: ca44 d93d 51e5 1abe ce67 1f3d 2d0a 15be
00000200: ea89 ddbc 25cb 2d3e 9feb 53be 7719 4abd
00000210: 8eeb 11be 81a4 86be ff6a 25be 2e5e c53e
00000220: 504a 343e 82a1 ec3e d77f 213b d993 fdbd
00000230: 6dc1 9a3e aa7d 9bbd 54e8 4bbe 2096 28bd
00000240: 91b2 553b 2e5e 86be 6fd3 ca3d 9009 5fbe
00000250: 3e31 9a3d d513 f03e a8bd 21be fc31 2abd
00000260: 6c11 7cbe b295 8ebe 290a 8e3e b89f 223e
00000270: ad74 313f 24d0 31be 6f88 753d af38 cfbd
00000280: 5331 d13d 46bd a63e a3b1 c73d 285d 6f3e
00000290: c15a 803e 30de b9bd 8378 61bc e679 99be
000002a0: e11f 0b3e 01e3 ddbe b730 bcbc c82e 813e
000002b0: 618a be3c f64d 023e 10c5 123f 834e ac3e
000002c0: 56c7 9c3d e608 403d b921 3abe 18a9 27be
000002d0: 8293 c73e 1fd2 9c3d 4c19 6d3d 6ac3 1a3e
000002e0: 3eca eebd 00cc 0a3c ebb7 dfbd 096c 8fbd
000002f0: 335d 8fbe b394 09bb 832e 53bd 3a44 55bd
00000300: 45bd 083e fd39 1bbe ae0c 0b3f ce97 bd3e
00000310: 656e d0bd 3bf3 d0bd 4c3c a3bc 4fde 623e
00000320: 37a9 b63e d4a9 f0bd 6fc6 86bd 21b6 543d
00000330: c985 7c3b a90c 153d b982 163c c301 2fbe
00000340: c507 c83e 43ed 2cbe 75f7 503f dfba 26bd
00000350: 56f8 173e 832b 56bd 7f11 cebe 8c12 d4bd
00000360: 230d 133e e51b a93d ea7a 653d 96a0 2c3e
00000370: e1e7 663b e074 cbbc 1c82 4dbe 16b3 f23c
00000380: 8276 5b3e a6a5 7bbd b5b5 6c3d 66dd 0dbd
00000390: e73a 31be 9c04 06bf 8b7d 433e bab1 e2bd
000003a0: d446 3bbd ff7c 663e 754f 22bd d6bc f0bd
000003b0: 8183 693e cf6e 05bd 7b84 70bd f3da 80bd
000003c0: c093 96bd 2841 a63e a722 18bd 33cc debc
000003d0: e4ce 143e 2c98 96bd 59a5 113f 12e1 cebe
000003e0: 55e4 843e ceea 35bb c513 b9be 478e 0fbe
000003f0: 9cf4 dabd cd9a 57bd bec6 8e3e 7c91 05be

fc3.bias f4 [4]
-0.109472774 -0.09056355 0.10275981 -0.02847263
00000000: 4333 e0bd 6279 b9bd bc73 d23d 6f3f e9bc
