data/critic_local.pth (torch_old, 93880 bytes, 14 tensors)

fc1.weight f4 [128, 33]
0.08829545 -0.03228023 -0.032112636 -0.07495565 0.18260795 -0.038970627 0.06741449 -0.022681074
0.03343104 -0.089866385 0.0067601497 -0.04625914 -0.027861279 -0.03893003 0.04934709 0.11521016
-0.06534356 0.03608343 -0.038467407 -0.056808215 -0.10748258 -0.011432683 0.12053075 -0.09724023
-0.014348473 -0.0116565535 -0.005818682 0.09348589 -0.06057229 0.045751728 -0.05495681 0.056789376
0.07002414 0.10301218 0.0016966427 -0.07953205 0.009708753 0.10785301 -0.0021184462 -0.022971617
0.027211664 0.070785634 -0.078597516 0.032179635 -0.034788024 0.034450434 -0.05896342 -0.0341102
0.11375825 0.05971643 0.075184986 0.08032716 0.09111334 0.016779156 -0.045382585 0.004721711
-0.112774655 -0.018137963 0.011915403 -0.03194508 -0.040787805 -0.08699271 -0.06164598 -0.028217053
-0.06640414 -0.115933366 -0.0020925472 -0.005948503 -0.035738207 0.02417114 -0.056653567 -0.018689305
-0.014507542 -0.0344945 0.028489223 0.01066266 -0.010072414 -0.04090313 -0.06610734 0.083809584
-0.07096255 0.042770952 -0.028165417 0.0052840994 0.06965802 0.009071404 -0.052451055 -0.0032944472
-0.026650967 0.04965578 0.05512801 -0.028353635 -0.042829674 0.09033629 -0.025923822 0.034016803
-0.12504512 -0.026354875 -0.21540476 -0.068608046 -0.09681395 -0.07409593 0.023187013 0.0126187345
-0.028429614 0.05295199 -0.07898143 0.00047767305 0.010710309 0.066762745 -0.017391058 0.012468411
0.060336024 -0.035104956 0.10634966 0.026576325 0.016131213 0.030487752 0.0067609902 0.060078774
0.05585712 -0.062270332 -0.0129064275 -0.021803847 0.08321269 -0.03781347 0.037388794 0.12881333
0.033199586 0.09983134 0.021667063 0.071380824 -0.031173972 -0.038585927 -0.034743764 0.053926878
-0.033845734 0.02726212 -0.08292378 0.00077802275 -0.023731772 -0.030291986 -0.065613694 0.021659883
-0.024247538 -0.010988422 0.03515849 -0.028946191 -0.024703136 -0.06593834 -0.023915866 -0.007148178
0.0076712575 0.016660819 0.06137318 0.020084316 0.009779535 0.04304483 -0.1037604 -0.023596793
0.10734373 0.04938536 0.10119012 -0.05724272 -0.23459867 -0.19337004 -0.10360634 -0.016253704
-0.00025454472 -0.036663316 0.01628587 0.06887454 -0.020603357 -0.010146506 -0.031114005 -0.011255583
-0.019126117 -0.041636337 0.03547641 -0.03648725 0.05815711 -0.04100099 -0.0029171861 -0.017458
-0.018400853 -0.006481289 0.0035838026 -0.03993939 0.12107023 -0.019199671 0.014487902 0.043250587
0.0055216225 -0.06321534 0.07377673 0.033014838 -0.07709995 0.3024919 0.038968552 0.055669684
0.13012815 0.022605438 0.022231968 -0.0072727297 -0.020995822 -0.008517941 0.12002692 0.049863756
-0.011191932 0.033884104 -0.0010878498 -0.17162277 -0.0029687996 -0.009030223 -0.18619245 -0.008872176
-0.01160633 0.017134154 -0.029443165 0.0045063295 -0.00015847174 -0.036214657 0.008496249 0.044949457
0.13015148 0.05391049 0.0050966768 -0.08424693 -0.02003186 -0.049470928 0.2747559 -0.08468823
0.10146845 -0.0669175 0.06515282 -0.10929011 -0.075065434 -0.021342192 -0.009592172 -0.0302519
-0.04750261 -0.047434505 0.031348724 -0.030397119 0.0055000256 -0.117730476 -0.06396866 -0.023266625
-0.08393774 0.0772446 -0.074315794 -0.04672749 -0.020533111 -0.016724093 0.011902184 -0.0065160426
00000000: 3fd4 b43d 4638 04bd 8a88 03bd 5982 99bd
00000010: 94fd 3a3e aa9f 1fbd 9c10 8a3d a9cd b9bc
00000020: fcee 083d de0b b8bd 3f84 dd3b 397a 3dbd
00000030: 563d e4bc 1875 1fbd 2d20 4a3d 4ef3 eb3d
00000040: d8d2 85bd 38cc 133d 0090 1dbd bbaf 68bd
00000050: d41f dcbd 2650 3bbc d3d8 f63d e325 c7bd
00000060: dc15 6bbc 21fb 3ebc a4aa bebb 8875 bf3d
00000070: a61a 78bd 2a66 3b3d 641a 61bd fa9b 683d
00000080: d168 8f3d 0df8 d23d e261 de3a b3e1 a2bd
00000090: 7611 1f3c 0ae2 dc3d a1d5 0abb f92e bcbc
000000a0: ffea de3c 0ff8 903d bcf7 a0bd cbce 033d
000000b0: e37d 0ebd e61b 0d3d a183 71bd 23b7 0bbd
000000c0: 16fa e83d 3799 743d 96fa 993d 9182 a43d
000000d0: a199 ba3d 7174 893c 17e3 39bd 95b8 9a3b
000000e0: 66f6 e6bd 1196 94bc d338 433c d8d8 02bd
000000f0: 1d11 27bd 3c29 b2bd 7f80 7cbd 7327 e7bc
00000100: e5fe 87bd 796e edbd 1e23 09bb a9eb c2bb
00000110: 3a62 12bd 8e02 c63c 920d 68bd 501a 99bc
00000120: 0bb1 6dbc 1b4a 0dbd 3b62 e93c 70b2 2e3c
00000130: c406 25bc 0a8a 27bd 4963 87bd 5ca4 ab3d
00000140: d054 91bd 9830 2f3d 29bb e6bc 3d26 ad3b
00000150: dda8 8e3d 3aa0 143c ebd6 56bd a7e7 57bb
00000160: 2153 dabc dc63 4b3d e9cd 613d e245 e8bc
00000170: 2b6e 2fbd 3c02 b93d 325e d4bc 3455 0b3d
00000180: d40b 00be 2ee6 d7bc 1193 5cbe 6082 8cbd
00000190: 6446 c6bd 9bbf 97bd b1f2 bd3c cfbe 4e3c
000001a0: 39e5 e8bc 30e4 583d 04c1 a1bd 3170 fa39
000001b0: 4b7a 2f3c e8ba 883d b177 8ebc 4e48 4c3c
000001c0: e822 773d 37ca 0fbd dacd d93d 98b6 d93c
000001d0: 9b25 843c 73c1 f93c 4c8b dd3b 2915 763d
000001e0: 6fca 643d 2d0f 7fbd 7b75 53bc fb9d b2bc
000001f0: 6a6b aa3d 4ce2 1abd fe24 193d a4e7 033e
00000200: 4afc 073d 6074 cc3d 207f b13c 1c30 923d
00000210: 8f60 ffbc 470c 1ebd 7a4f 0ebd 6ee2 5c3d
00000220: d3a1 0abd cf54 df3c f1d3 a9bd 39f4 4b3a
00000230: 2269 c2bc e626 f8bc 7960 86bd 1170 b13c
00000240: c6a2 c6bc c808 34bc 5902 103d 9020 edbc
00000250: 3b5e cabc ae0a 87bd 35eb c3bc 433b eabb
00000260: 2c5f fb3b 457c 883c 7262 7b3d dd87 a43c
00000270: 583a 203c c74f 303d 5580 d4bd 104e c1bc
00000280: 08d7 db3d 4e48 4a3d c43c cf3d 5877 6abd
00000290: a23a 70be cc02 46be 902f d4bd 7d26 85bc
000002a0: 6a74 85b9 462c 16bd f269 853c 180e 8d3d
000002b0: 5fc8 a8bc 883d 26bc cce2 febc 5669 38bc
000002c0: 60ae 9cbc dd8a 2abd b64f 113d a873 15bd
000002d0: 2636 6e3d a7f0 27bd 432e 3fbb 1404 8fbc
000002e0: 63bd 96bc fe60 d4bb 3bde 6a3b 7c97 23bd
000002f0: abf3 f73d a148 9dbc aa5e 6d3c 8727 313d
00000300: baee b43b 0b77 81bd 4118 973d 913a 073d
00000310: 94e6 9dbd 38e0 9a3e 7d9d 1f3d e505 643d
00000320: 5040 053e 0a2f b93c d11f b63c 1450 eebb
00000330: 6eff abbc d68e 0bbc add0 f53d f03d 4c3d
00000340: 5d5e 37bc 0fca 0a3d 2f96 8eba e1bd 2fbe
00000350: 3190 42bb 80f3 13bc 3ca9 3ebe 9a5c 11bc
00000360: 7a28 3ebc ed5c 8c3c cb32 f1bc d5a9 933b
00000370: 6f2b 26b9 d255 14bd da33 0b3c ec1c 383d
00000380: 6e46 053e 3fd1 5c3d 0602 a73b a889 acbd
00000390: db19 a4bc 07a2 4abd ceac 8c3e 0671 adbd
000003a0: b1ce cf3d 0b0c 89bd d76e 853d 7ed3 dfbd
000003b0: e8bb 99bd d2d5 aebc 7c28 1dbc d5d2 f7bc
000003c0: 1992 42bd af4a 42bd 8567 003d 6103 f9bc
000003d0: 8f39 b43b ad1c f1bd 0002 83bd a699 bebc
000003e0: 8de7 abbd 6b32 9e3d e132 98bd 5365 3fbd
000003f0: 0e35 a8bc f700 89bc 6101 433c 8784 d5bb

fc1.bias f4 [128]
-0.1836461 0.09019063 -0.19247507 0.019517608 0.09787447 0.13847058 0.14906773 -0.148611
-0.08853842 0.17185867 0.1629637 -0.1658476 -0.19196142 -0.16445144 -0.034940075 -0.17511109
0.041003156 0.15007474 -0.17987198 -0.04146029 -0.006488901 0.10228657 0.06160686 -0.027068678
-0.12165828 -0.18902548 0.069579154 0.076668374 -0.07667348 0.23766184 -0.2079705 0.21995142
0.14388673 0.09730575 0.042109724 -0.10793444 0.12381889 0.0040145153 0.024810921 -0.042707447
0.11142578 -0.029163366 0.04046179 0.046970136 0.004329031 0.16544051 -0.015476365 -0.01188955
0.044991426 0.16034915 -0.09283721 -0.12134472 -0.021641575 -0.0065595536 -0.10144371 0.18317404
-0.10396982 -0.008608915 0.14881782 0.15979873 -0.017606132 0.018102363 -0.029915266 0.084322
-0.07840328 0.034403555 0.20376235 -0.10003557 0.041072972 -0.07597443 0.03505072 -0.13830036
-0.15784717 -0.009974398 -0.013767969 0.17979658 -0.027525505 -0.083422944 0.209445 -0.22334577
-0.1495889 -0.03830903 0.19012283 -0.14632253 -0.14099671 -0.05117068 -0.17974105 0.118868046
0.05127725 0.032256477 -0.1630576 0.003377837 0.11262852 0.11865986 0.12406812 0.062306084
-0.11987554 -0.06395452 0.062400542 0.027631829 -0.10383561 0.022721497 0.15289953 0.07873832
-0.19254202 -0.11321388 -0.07858695 -0.07397284 -0.052162685 0.094965704 -0.024033288 0.01614863
-0.07549727 0.13108963 -0.110554606 -0.18939938 0.16965117 -0.1003613 0.18817179 0.030814126
0.10117646 0.006053593 -0.063123286 -0.010871379 -0.14444022 0.18233179 -0.06500531 0.13306254
00000000: b90d 3cbe ddb5 b83d 2f18 45be 64e3 9f3c
00000010: 6972 c83d 3bcb 0d3e 36a5 183e 7b2d 18be
00000020: a253 b5bd b8fb 2f3e f5df 263e f4d3 29be
00000030: 8991 44be f565 28be 531d 0fbd 5250 33be
00000040: edf2 273d 31ad 193e 5c30 38be 44d2 29bd
00000050: d9a0 d4bb 9f7b d13d 7a57 7c3d 22bf ddbc
00000060: fa27 f9bd e58f 41be 847f 8e3d 4f04 9d3d
00000070: fc06 9dbd a05d 733e 38f6 54be f23a 613e
00000080: 0b57 133e 3d48 c73d 3f7b 2c3d bb0c ddbd
00000090: c294 fd3d 328c 833b 4640 cb3c 01ee 2ebd
000000a0: 3333 e43d 03e8 eebc 43bb 253d c263 403d
000000b0: 8bda 8d3b 3d69 293e 9490 7dbc 63cc 42bc
000000c0: ee48 383d 9132 243e 6f21 bebd 9583 f8bd
000000d0: ac49 b1bc 86f1 d6bb b8c1 cfbd fa91 3b3e
000000e0: 21ee d4bd 680c 0dbc b363 183e 47a2 233e
000000f0: bc3a 90bc 684b 943c dc10 f5bc 03b1 ac3d
00000100: e691 a0bd beea 0c3d 14a7 503e 73df ccbd
00000110: 223c 283d 7b98 9bbd 5891 0f3d 9c9e 0dbe
00000120: b0a2 21be a86b 23bc 0c93 61bc 981c 383e
00000130: 2b7d e1bc a6d9 aabd c078 563e c1b4 64be
00000140: d52d 19be eee9 1cbd 8faf 423e 93d5 15be
00000150: 7161 10be 5998 51bd 0a0e 38be 1771 f33d
00000160: 1808 523d 5e1f 043d 92f8 26be b35e 5d3b
00000170: c8a9 e63d f103 f33d 6d17 fe3d aa34 7f3d
00000180: 4f81 f5bd 96fa 82bd b697 7f3d 255c e23c
00000190: c4a7 d4bd 6f22 ba3c b291 1c3e 8e41 a13d
000001a0: bc29 45be aedc e7bd 32f2 a0bd 137f 97bd
000001b0: 8aa8 55bd 617d c23d 75e1 c4bc 224a 843c
000001c0: 509e 9abd 5c3c 063e 746a e2bd e9f1 41be
000001d0: 09b9 2d3e 3a8a cdbd 1bb0 403e e86d fc3c
000001e0: 9b35 cf3d 385d c63b c846 81bd de1d 32bc
000001f0: 23e8 13be 2fb5 3a3e 8121 85bd 8c41 083e

bn1.weight f4 [128]
1.0 1.0 1.0 1.0 1.0 1.0 1.0 1.0
1.0 1.0 1.0 1.0 1.0 1.0 1.0 1.0
1.0 1.0 1.0 1.0 1.0 1.0 1.0 1.0
1.0 1.0 1.0 1.0 1.0 1.0 1.0 1.0
1.0 1.0 1.0 1.0 1.0 1.0 1.0 1.0
1.0 1.0 1.0 1.0 1.0 1.0 1.0 1.0
1.0 1.0 1.0 1.0 1.0 1.0 1.0 1.0
1.0 1.0 1.0 1.0 1.0 1.0 1.0 1.0
1.0 1.0 1.0 1.0 1.0 1.0 1.0 1.0
1.0 1.0 1.0 1.0 1.0 1.0 1.0 1.0
1.0 1.0 1.0 1.0 1.0 1.0 1.0 1.0
1.0 1.0 1.0 1.0 1.0 1.0 1.0 1.0
1.0 1.0 1.0 1.0 1.0 1.0 1.0 1.0
1.0 1.0 1.0 1.0 1.0 1.0 1.0 1.0
1.0 1.0 1.0 1.0 1.0 1.0 1.0 1.0
1.0 1.0 1.0 1.0 1.0 1.0 1.0 1.0
00000000: 0000 803f 0000 803f 0000 803f 0000 803f
00000010: 0000 803f 0000 803f 0000 803f 0000 803f
00000020: 0000 803f 0000 803f 0000 803f 0000 803f
00000030: 0000 803f 0000 803f 0000 803f 0000 803f
00000040: 0000 803f 0000 803f 0000 803f 0000 803f
00000050: 0000 803f 0000 803f 0000 803f 0000 803f
00000060: 0000 803f 0000 803f 0000 803f 0000 803f
00000070: 0000 803f 0000 803f 0000 803f 0000 803f
00000080: 0000 803f 0000 803f 0000 803f 0000 803f
00000090: 0000 803f 0000 803f 0000 803f 0000 803f
000000a0: 0000 803f 0000 803f 0000 803f 0000 803f
000000b0: 0000 803f 0000 803f 0000 803f 0000 803f
000000c0: 0000 803f 0000 803f 0000 803f 0000 803f
000000d0: 0000 803f 0000 803f 0000 803f 0000 803f
000000e0: 0000 803f 0000 803f 0000 803f 0000 803f
000000f0: 0000 803f 0000 803f 0000 803f 0000 803f
00000100: 0000 803f 0000 803f 0000 803f 0000 803f
00000110: 0000 803f 0000 803f 0000 803f 0000 803f
00000120: 0000 803f 0000 803f 0000 803f 0000 803f
00000130: 0000 803f 0000 803f 0000 803f 0000 803f
00000140: 0000 803f 0000 803f 0000 803f 0000 803f
00000150: 0000 803f 0000 803f 0000 803f 0000 803f
00000160: 0000 803f 0000 803f 0000 803f 0000 803f
00000170: 0000 803f 0000 803f 0000 803f 0000 803f
00000180: 0000 803f 0000 803f 0000 803f 0000 803f
00000190: 0000 803f 0000 803f 0000 803f 0000 803f
000001a0: 0000 803f 0000 803f 0000 803f 0000 803f
000001b0: 0000 803f 0000 803f 0000 803f 0000 803f
000001c0: 0000 803f 0000 803f 0000 803f 0000 803f
000001d0: 0000 803f 0000 803f 0000 803f 0000 803f
000001e0: 0000 803f 0000 803f 0000 803f 0000 803f
000001f0: 0000 803f 0000 803f 0000 803f 0000 803f

bn1.bias f4 [128]
0.0 0.0 0.0 0.0 0.0 0.0 0.0 0.0
0.0 0.0 0.0 0.0 0.0 0.0 0.0 0.0
0.0 0.0 0.0 0.0 0.0 0.0 0.0 0.0
0.0 0.0 0.0 0.0 0.0 0.0 0.0 0.0
0.0 0.0 0.0 0.0 0.0 0.0 0.0 0.0
0.0 0.0 0.0 0.0 0.0 0.0 0.0 0.0
0.0 0.0 0.0 0.0 0.0 0.0 0.0 0.0
0.0 0.0 0.0 0.0 0.0 0.0 0.0 0.0
0.0 0.0 0.0 0.0 0.0 0.0 0.0 0.0
0.0 0.0 0.0 0.0 0.0 0.0 0.0 0.0
0.0 0.0 0.0 0.0 0.0 0.0 0.0 0.0
0.0 0.0 0.0 0.0 0.0 0.0 0.0 0.0
0.0 0.0 0.0 0.0 0.0 0.0 0.0 0.0
0.0 0.0 0.0 0.0 0.0 0.0 0.0 0.0
0.0 0.0 0.0 0.0 0.0 0.0 0.0 0.0
0.0 0.0 0.0 0.0 0.0 0.0 0.0 0.0
00000000: 0000 0000 0000 0000 0000 0000 0000 0000
00000010: 0000 0000 0000 0000 0000 0000 0000 0000
00000020: 0000 0000 0000 0000 0000 0000 0000 0000
00000030: 0000 0000 0000 0000 0000 0000 0000 0000
00000040: 0000 0000 0000 0000 0000 0000 0000 0000
00000050: 0000 0000 0000 0000 0000 0000 0000 0000
00000060: 0000 0000 0000 0000 0000 0000 0000 0000
00000070: 0000 0000 0000 0000 0000 0000 0000 0000
00000080: 0000 0000 0000 0000 0000 0000 0000 0000
00000090: 0000 0000 0000 0000 0000 0000 0000 0000
000000a0: 0000 0000 0000 0000 0000 0000 0000 0000
000000b0: 0000 0000 0000 0000 0000 0000 0000 0000
000000c0: 0000 0000 0000 0000 0000 0000 0000 0000
000000d0: 0000 0000 0000 0000 0000 0000 0000 0000
000000e0: 0000 0000 0000 0000 0000 0000 0000 0000
000000f0: 0000 0000 0000 0000 0000 0000 0000 0000
00000100: 0000 0000 0000 0000 0000 0000 0000 0000
00000110: 0000 0000 0000 0000 0000 0000 0000 0000
00000120: 0000 0000 0000 0000 0000 0000 0000 0000
00000130: 0000 0000 0000 0000 0000 0000 0000 0000
00000140: 0000 0000 0000 0000 0000 0000 0000 0000
00000150: 0000 0000 0000 0000 0000 0000 0000 0000
00000160: 0000 0000 0000 0000 0000 0000 0000 0000
00000170: 0000 0000 0000 0000 0000 0000 0000 0000
00000180: 0000 0000 0000 0000 0000 0000 0000 0000
00000190: 0000 0000 0000 0000 0000 0000 0000 0000
000001a0: 0000 0000 0000 0000 0000 0000 0000 0000
000001b0: 0000 0000 0000 0000 0000 0000 0000 0000
000001c0: 0000 0000 0000 0000 0000 0000 0000 0000
000001d0: 0000 0000 0000 0000 0000 0000 0000 0000
000001e0: 0000 0000 0000 0000 0000 0000 0000 0000
000001f0: 0000 0000 0000 0000 0000 0000 0000 0000

bn1.running_mean f4 [128]
0.0 0.0 0.0 0.0 0.0 0.0 0.0 0.0
0.0 0.0 0.0 0.0 0.0 0.0 0.0 0.0
0.0 0.0 0.0 0.0 0.0 0.0 0.0 0.0
0.0 0.0 0.0 0.0 0.0 0.0 0.0 0.0
0.0 0.0 0.0 0.0 0.0 0.0 0.0 0.0
0.0 0.0 0.0 0.0 0.0 0.0 0.0 0.0
0.0 0.0 0.0 0.0 0.0 0.0 0.0 0.0
0.0 0.0 0.0 0.0 0.0 0.0 0.0 0.0
0.0 0.0 0.0 0.0 0.0 0.0 0.0 0.0
0.0 0.0 0.0 0.0 0.0 0.0 0.0 0.0
0.0 0.0 0.0 0.0 0.0 0.0 0.0 0.0
0.0 0.0 0.0 0.0 0.0 0.0 0.0 0.0
0.0 0.0 0.0 0.0 0.0 0.0 0.0 0.0
0.0 0.0 0.0 0.0 0.0 0.0 0.0 0.0
0.0 0.0 0.0 0.0 0.0 0.0 0.0 0.0
0.0 0.0 0.0 0.0 0.0 0.0 0.0 0.0
00000000: 0000 0000 0000 0000 0000 0000 0000 0000
00000010: 0000 0000 0000 0000 0000 0000 0000 0000
00000020: 0000 0000 0000 0000 0000 0000 0000 0000
00000030: 0000 0000 0000 0000 0000 0000 0000 0000
00000040: 0000 0000 0000 0000 0000 0000 0000 0000
00000050: 0000 0000 0000 0000 0000 0000 0000 0000
00000060: 0000 0000 0000 0000 0000 0000 0000 0000
00000070: 0000 0000 0000 0000 0000 0000 0000 0000
00000080: 0000 0000 0000 0000 0000 0000 0000 0000
00000090: 0000 0000 0000 0000 0000 0000 0000 0000
000000a0: 0000 0000 0000 0000 0000 0000 0000 0000
000000b0: 0000 0000 0000 0000 0000 0000 0000 0000
000000c0: 0000 0000 0000 0000 0000 0000 0000 0000
000000d0: 0000 0000 0000 0000 0000 0000 0000 0000
000000e0: 0000 0000 0000 0000 0000 0000 0000 0000
000000f0: 0000 0000 0000 0000 0000 0000 0000 0000
00000100: 0000 0000 0000 0000 0000 0000 0000 0000
00000110: 0000 0000 0000 0000 0000 0000 0000 0000
00000120: 0000 0000 0000 0000 0000 0000 0000 0000
00000130: 0000 0000 0000 0000 0000 0000 0000 0000
00000140: 0000 0000 0000 0000 0000 0000 0000 0000
00000150: 0000 0000 0000 0000 0000 0000 0000 0000
00000160: 0000 0000 0000 0000 0000 0000 0000 0000
00000170: 0000 0000 0000 0000 0000 0000 0000 0000
00000180: 0000 0000 0000 0000 0000 0000 0000 0000
00000190: 0000 0000 0000 0000 0000 0000 0000 0000
000001a0: 0000 0000 0000 0000 0000 0000 0000 0000
000001b0: 0000 0000 0000 0000 0000 0000 0000 0000
000001c0: 0000 0000 0000 0000 0000 0000 0000 0000
000001d0: 0000 0000 0000 0000 0000 0000 0000 0000
000001e0: 0000 0000 0000 0000 0000 0000 0000 0000
000001f0: 0000 0000 0000 0000 0000 0000 0000 0000

bn1.running_var f4 [128]
1.0 1.0 1.0 1.0 1.0 1.0 1.0 1.0
1.0 1.0 1.0 1.0 1.0 1.0 1.0 1.0
1.0 1.0 1.0 1.0 1.0 1.0 1.0 1.0
1.0 1.0 1.0 1.0 1.0 1.0 1.0 1.0
1.0 1.0 1.0 1.0 1.0 1.0 1.0 1.0
1.0 1.0 1.0 1.0 1.0 1.0 1.0 1.0
1.0 1.0 1.0 1.0 1.0 1.0 1.0 1.0
1.0 1.0 1.0 1.0 1.0 1.0 1.0 1.0
1.0 1.0 1.0 1.0 1.0 1.0 1.0 1.0
1.0 1.0 1.0 1.0 1.0 1.0 1.0 1.0
1.0 1.0 1.0 1.0 1.0 1.0 1.0 1.0
1.0 1.0 1.0 1.0 1.0 1.0 1.0 1.0
1.0 1.0 1.0 1.0 1.0 1.0 1.0 1.0
1.0 1.0 1.0 1.0 1.0 1.0 1.0 1.0
1.0 1.0 1.0 1.0 1.0 1.0 1.0 1.0
1.0 1.0 1.0 1.0 1.0 1.0 1.0 1.0
00000000: 0000 803f 0000 803f 0000 803f 0000 803f
00000010: 0000 803f 0000 803f 0000 803f 0000 803f
00000020: 0000 803f 0000 803f 0000 803f 0000 803f
00000030: 0000 803f 0000 803f 0000 803f 0000 803f
00000040: 0000 803f 0000 803f 0000 803f 0000 803f
00000050: 0000 803f 0000 803f 0000 803f 0000 803f
00000060: 0000 803f 0000 803f 0000 803f 0000 803f
00000070: 0000 803f 0000 803f 0000 803f 0000 803f
00000080: 0000 803f 0000 803f 0000 803f 0000 803f
00000090: 0000 803f 0000 803f 0000 803f 0000 803f
000000a0: 0000 803f 0000 803f 0000 803f 0000 803f
000000b0: 0000 803f 0000 803f 0000 803f 0000 803f
000000c0: 0000 803f 0000 803f 0000 803f 0000 803f
000000d0: 0000 803f 0000 803f 0000 803f 0000 803f
000000e0: 0000 803f 0000 803f 0000 803f 0000 803f
000000f0: 0000 803f 0000 803f 0000 803f 0000 803f
00000100: 0000 803f 0000 803f 0000 803f 0000 803f
00000110: 0000 803f 0000 803f 0000 803f 0000 803f
00000120: 0000 803f 0000 803f 0000 803f 0000 803f
00000130: 0000 803f 0000 803f 0000 803f 0000 803f
00000140: 0000 803f 0000 803f 0000 803f 0000 803f
00000150: 0000 803f 0000 803f 0000 803f 0000 803f
00000160: 0000 803f 0000 803f 0000 803f 0000 803f
00000170: 0000 803f 0000 803f 0000 803f 0000 803f
00000180: 0000 803f 0000 803f 0000 803f 0000 803f
00000190: 0000 803f 0000 803f 0000 803f 0000 803f
000001a0: 0000 803f 0000 803f 0000 803f 0000 803f
000001b0: 0000 803f 0000 803f 0000 803f 0000 803f
000001c0: 0000 803f 0000 803f 0000 803f 0000 803f
000001d0: 0000 803f 0000 803f 0000 803f 0000 803f
000001e0: 0000 803f 0000 803f 0000 803f 0000 803f
000001f0: 0000 803f 0000 803f 0000 803f 0000 803f

fc2.weight f4 [128, 132]
0.002685854 0.026242744 0.03584982 0.0173957 -0.011831892 -0.090294674 0.13102137 -0.025805414
-0.043454908 0.093165055 0.06132662 -0.08475489 -0.109525874 -0.08578346 0.02628929 -0.07901767
0.0739937 -0.033242527 -0.07252856 0.010201303 -0.09629979 -0.025086366 -0.008244511 0.09944128
0.04182573 0.013506907 -0.0116897 0.0123710595 -0.09972887 0.046124365 -0.001828286 -0.025931336
-0.06853473 -0.07626716 0.07006557 -0.04045413 -0.017890412 -0.020023677 -0.097498715 -0.17252387
-0.060530007 0.08412513 0.047654968 -0.09738871 0.18936722 -0.0033743922 -0.00091116264 -0.07307544
-0.09404949 -0.06773048 -0.047518343 -0.08540693 0.042898033 0.06467602 0.13237484 -0.08065163
0.02502273 0.05202322 0.088178895 0.09515395 0.061676614 0.05083337 -0.076268956 -0.011115284
-0.06039359 -0.0005793394 -0.02448046 0.029426394 0.06454852 0.016508233 0.107297584 0.089245915
-0.06889419 0.032636996 -0.007993416 0.099710405 0.05206538 0.08822397 -0.10245397 0.024101483
-0.10085055 -0.07266081 -0.056315053 -0.049783345 0.025337137 -0.0064633717 0.010942894 0.04228003
0.029354274 -0.035520308 -0.08318388 0.039705034 0.03138836 -0.0138556305 0.09040379 0.032456893
-0.032839566 -0.0730248 -0.026604185 0.08222843 -0.0387112 0.017826376 0.026802987 -0.010032807
0.07565726 -0.1456712 0.11831475 0.07835939 0.023861159 -0.10061745 0.015624781 0.026836656
-0.056306988 -0.11619118 -0.015004389 -0.024352727 -0.032774854 0.063620694 0.009498272 0.08221387
0.039145287 -0.048438676 -0.14917092 -0.07143443 0.015916059 0.061955072 -0.13682278 0.0100403
-0.0058819787 0.030400794 -0.05414821 -0.018675566 -0.06509394 -0.041554663 0.06413772 0.09104078
0.105875134 0.03746332 0.0031558762 -0.059807803 0.05287935 0.082697816 0.019288316 0.049299646
0.0031711322 -0.007687495 -0.03359483 0.062217105 0.047558226 0.09157788 -0.037988972 0.035917427
0.02357432 -0.13802922 0.12161631 -0.03739445 0.07176047 0.0061824364 -0.012456053 -0.1312208
0.09923098 0.005398435 0.0112715615 0.048095997 -0.015203006 -0.02731134 -0.16560464 0.066386886
-0.035881776 0.0741322 0.09652786 0.056481242 0.08570221 0.015428607 0.026578475 -0.015102199
-0.02308619 -0.05280776 -0.034083314 -0.0020780377 -0.010119765 -0.03137254 -0.0029772574 0.007606125
0.12879354 0.013079807 0.09022724 0.0023370013 0.038202837 -0.11490095 0.035948858 0.05387876
-0.04339454 0.003344919 -0.060340747 0.06403581 -0.023716507 -0.017300107 0.0029564712 0.091629915
-0.053880952 0.12776825 0.06677909 -0.113456964 0.016191706 -0.014585457 0.012120675 0.057929575
0.09612058 0.00533306 -0.024116047 0.07686228 0.008287771 -0.005524775 0.04211296 0.03920142
0.06788252 0.11396394 -0.07107108 0.08680933 -0.013919482 0.06075678 -0.12652001 0.066831425
0.04186224 0.011275909 -0.012554632 0.08862367 -0.06828195 -0.01994555 -0.028051235 0.075404055
0.031344984 0.02987834 0.062058102 -0.00592978 0.07393867 -0.011897047 0.022575112 -0.082240604
0.014715402 0.11063738 0.07041888 0.03388727 -0.04520176 0.080004975 0.064591065 -0.083893724
0.09700819 -0.05349926 -0.02006644 0.07818032 -0.029128145 0.00250473 0.10097423 0.06974539
00000000: 2705 303b 06fb d63c 43d7 123d 6d81 8e3c
00000010: 8dda 41bc 6aec b8bd 772a 063e e065 d3bc
00000020: c6fd 31bd 52cd be3d 9f31 7b3d f993 adbd
00000030: 1a4f e0bd 3daf afbd a35c d73c 04d4 a1bd
00000040: 028a 973d 5129 08bd db89 94bd 5e23 273c
00000050: d338 c5bd ec81 cdbc fc13 07bc dfa7 cb3d
00000060: 7551 2b3d 134c 5d3c 2886 3fbc fcaf 4a3c
00000070: a63e ccbd e7ec 3c3d 19a3 efba f46d d4bc
00000080: f05b 8cbd f531 9cbd 8a7e 8f3d 3bb3 25bd
00000090: ea8e 92bc b208 a4bc 68ad c7bd 19aa 30be
000000a0: 50ee 77bd cc49 ac3d db31 433d bb73 c7bd
000000b0: 7be9 413e e824 5dbb 17db 6eba 94a8 95bd
000000c0: 059d c0bd 47b6 8abd 98a2 42bd d4e9 aebd
000000d0: d9b5 2f3d dc74 843d 458d 073e af2c a5bd
000000e0: 78fc cc3c 4d16 553d 2397 b43d 13e0 c23d
000000f0: 9ea0 7c3d a736 503d e632 9cbd e11c 36bc
00000100: 455f 77bd cfde 17ba 3f8b c8bc 9f0f f13c
00000110: 0432 843d 463c 873c d6be db3d 90c6 b63d
00000120: 6618 8dbd 5fae 053d d1f6 02bc f834 cc3d
00000130: 8242 553d c5ae b43d 63d3 d1bd 7970 c53c
00000140: bc8a cebd 31cf 94bd 9daa 66bd 9fe9 4bbd
00000150: d48f cf3c b1ca d3bb d349 333c d32d 2d3d
00000160: 6078 f03c be7d 11bd 4f5c aabd bfa1 223d
00000170: 1591 003d ba02 63bc 9f25 b93d 85f1 043d
00000180: c882 06bd 078e 95bd 05f1 d9bc 6167 a83d
00000190: a38f 1ebd 9f08 923c f091 db3c a460 24bc
000001a0: 32f2 9a3d d52a 15be 014f f23d e37a a03d
000001b0: 7a78 c33c 8610 cebd 15ff 7f3c 8cd8 db3c
000001c0: 28a2 66bd a4f5 edbd f8d4 75bc 5f7f c7bc
000001d0: ed3e 06bd 914b 823d a49e 1b3c bf5f a83d
000001e0: cf56 203d a267 46bd 43c0 18be 374c 92bd
000001f0: 6562 823c 9ac4 7d3d 451b 0cbe 1280 243c
00000200: 9dbd c0bb 160b f93c 83ca 5dbd 80fd 98bc
00000210: f94f 85bd 3935 2abd a35a 833d 9773 ba3d
00000220: 10d5 d83d 2373 193d d1d2 4e3b 07f9 74bd
00000230: 0498 583d 795d a93d 8802 9e3c 6dee 493d
00000240: c5d2 4f3b 62e7 fbbb bc9a 09bd 5dd7 7e3d
00000250: 6acc 423d 2f8d bb3d 539a 1bbd 271e 133d
00000260: ef1e c13c 8857 0dbe f911 f93d ec2a 19bd
00000270: 27f7 923d 0996 ca3b 7914 4cbc bf5e 06be
00000280: 9d39 cb3d 5be5 b03b 5bac 383c 4f00 453d
00000290: 0716 79bc 08bc dfbc 4394 29be d9f5 873d
000002a0: c5f8 12bd 9fd2 973d 66b0 c53d e058 673d
000002b0: a484 af3d 45c8 7c3c 1abb d93c 376f 77bc
000002c0: 401f bdbc f34c 58bd f29a 0bbd b02f 08bb
000002d0: 5fcd 25bc 7e80 00bd 171e 43bb cd3c f93b
000002e0: 74e2 033e b04c 563c 0fc9 b83d 6028 193b
000002f0: 947a 1c3d 3051 ebbd 1c3f 133d faaf 5c3d
00000300: 79be 31bd 6e36 5b3b dc27 77bd 3525 833d
00000310: 1f49 c2bc f4b8 8dbc 5bc1 413b 77a8 bb3d
00000320: 46b2 5cbd aed5 023e 7ac3 883d 205c e8bd
00000330: 78a4 843c d7f7 6ebc cc95 463c 9047 6d3d
00000340: deda c43d f3c0 ae3b 048f c5bc f969 9d3d
00000350: 6ec9 073c 2c09 b5bb a47e 2c3d ab91 203d
00000360: fe05 8b3d ed65 e93d b78d 91bd 17c9 b13d
00000370: 8a0e 64bc 1adc 783d 768e 01be eade 883d
00000380: bd77 2b3d 97be 383c f1b1 4dbc 5480 b53d
00000390: 68d7 8bbd da64 a3bc b4cb e5bc 716d 9a3d
000003a0: 9963 003d 6cc3 f43c a330 7e3d 9a4e c2bb
000003b0: 286d 973d d5eb 42bc 71ef b83c c36d a8bd
000003c0: df18 713c da95 e23d c637 903d 61cd 0a3d
000003d0: 7b25 39bd a6d9 a33d 5248 843d 79d0 abbd
000003e0: 3bac c63d 0a22 5bbd 6062 a4bc 011d a03d
000003f0: 269e eebc 6526 243b 94cb ce3d acd6 8e3d

fc2.bias f4 [128]
-0.009012695 0.1775989 0.000106416075 0.056984995 -0.06689714 -0.016854504 -0.03673132 0.1188569
0.06435715 0.04391723 0.011150114 0.044024598 0.10732878 0.13017483 -0.029364623 0.033338364
-0.0084446 0.04904826 0.12115639 -0.08805229 0.028325653 0.000736761 -0.09591607 -0.017771682
0.052002244 -0.013711695 0.11623131 0.14297898 -0.02520869 0.0666722 0.05584473 -0.026739512
-0.12366913 -0.0331981 0.07608497 0.13717741 -0.01742599 0.12965362 -0.14664474 -0.07311352
0.08607538 0.1258903 0.026476176 0.13086227 0.08486239 -0.03793645 0.0780712 0.023547715
0.09919111 0.14858843 0.013804668 0.06564621 -0.035224043 -0.101442434 -0.0154304 0.035833117
0.017262375 -0.08033521 0.08950495 -0.0099813705 0.0020236864 0.011329941 0.0059436364 0.07621793
0.031004902 -0.0296444 -0.0155162 -0.053985897 0.12733193 -0.0043236725 0.09897552 -0.08997211
0.008295514 0.051178187 -0.01247055 0.07773037 0.028694008 0.013822832 -0.017711358 0.10863849
0.02088836 0.10657519 0.055541005 0.10298306 -0.03245865 0.09308123 0.14494066 0.17108113
0.008054971 0.11672249 -0.06389211 -0.056604225 0.12680823 -0.052254613 0.05453141 0.11415188
-0.09361049 -0.005545815 -0.026480226 0.06121146 0.018160328 0.011108566 0.0341569 0.11345779
-0.01811254 -0.008765486 0.076779105 -0.10582211 -0.0068501653 0.1164411 0.053026296 -0.09768336
0.092406064 -0.04224002 0.054865986 -0.00019606035 -0.02063913 -0.07682271 0.004511873 0.072203085
-0.02220065 0.055668022 -0.055717807 0.102759145 0.103962354 -0.103608295 0.044927415 -0.096449845
00000000: fca9 13bc 7cdc 353e b22b df38 1969 693d
00000010: 5e01 89bd 7512 8abc 9573 16bd 3f6b f33d
00000020: aecd 833d 8ee2 333d f8ae 363c 2353 343d
00000030: 31cf db3d 8d4c 053e 148e f0bc cf8d 083d
00000040: 385b 0abc d4e6 483d d720 f83d c254 b4bd
00000050: 330b e83c 3223 413a a56f c4bd eb95 91bc
00000060: 4e00 553d 04a7 60bc ae0a ee3d 1569 123e
00000070: 7482 cebc 6f8b 883d 72bd 643d d20c dbbc
00000080: 3e46 fdbd bbfa 07bd 70d2 9b3d 3c78 0c3e
00000090: f3c0 8ebc ebc3 043e 0a2a 16be 8bbc 95bd
000000a0: 4a48 b03d 63e9 003e 91e4 d83c c200 063e
000000b0: 55cc ad3d 4063 1bbd cbe3 9f3d 23e7 c03c
000000c0: b524 cb3d 9127 183e f92c 623c 8571 863d
000000d0: 1647 10bd 0dc1 cfbd cacf 7cbc bfc5 123d
000000e0: d369 8d3c c986 a4bd 5f4e b73d e788 23bc
000000f0: d39f 043b 38a1 393c d6c2 c23b 2518 9c3d
00000100: fefd fd3c d0d8 f2bc a937 7ebc 5120 5dbd
00000110: 4d63 023e 98ad 8dbb adb3 ca3d 4c43 b8bd
00000120: e8e9 073c 38a0 513d 4751 4cbc 1a31 9f3d
00000130: b20f eb3c 2979 623c 6917 91bc db7d de3d
00000140: 111e ab3c 1844 da3d f77e 633d c8e8 d23d
00000150: 5df3 04bd 5fa1 be3d 536b 143e e42f 2f3e
00000160: fff8 033c 330c ef3d ded9 82bd d5d9 67bd
00000170: 04da 013e ef08 56bd 545c 5f3d 76c8 e93d
00000180: dbb6 bfbd abb9 b5bb 0fed d8bc deb8 7a3d
00000190: f8c4 943c b400 363c 1be8 0b3d 8f5c e83d
000001a0: c060 94bc 1d9d 0fbc 5d3e 9d3d 43b9 d8bd
000001b0: 5a77 e0bb ac78 ee3d 1a32 593d 370e c8bd
000001c0: 643f bd3d df03 2dbd 28bb 603d 8d95 4db9
000001d0: 6513 a9bc 3a55 9dbd 55d8 933b 36df 933d
000001e0: 23de b5bc 2704 643d 5b38 64bd 6373 d23d
000001f0: 37ea d43d 9630 d4bd cf05 383d 7f87 c5bd

bn2.weight f4 [128]
1.0 1.0 1.0 1.0 1.0 1.0 1.0 1.0
1.0 1.0 1.0 1.0 1.0 1.0 1.0 1.0
1.0 1.0 1.0 1.0 1.0 1.0 1.0 1.0
1.0 1.0 1.0 1.0 1.0 1.0 1.0 1.0
1.0 1.0 1.0 1.0 1.0 1.0 1.0 1.0
1.0 1.0 1.0 1.0 1.0 1.0 1.0 1.0
1.0 1.0 1.0 1.0 1.0 1.0 1.0 1.0
1.0 1.0 1.0 1.0 1.0 1.0 1.0 1.0
1.0 1.0 1.0 1.0 1.0 1.0 1.0 1.0
1.0 1.0 1.0 1.0 1.0 1.0 1.0 1.0
1.0 1.0 1.0 1.0 1.0 1.0 1.0 1.0
1.0 1.0 1.0 1.0 1.0 1.0 1.0 1.0
1.0 1.0 1.0 1.0 1.0 1.0 1.0 1.0
1.0 1.0 1.0 1.0 1.0 1.0 1.0 1.0
1.0 1.0 1.0 1.0 1.0 1.0 1.0 1.0
1.0 1.0 1.0 1.0 1.0 1.0 1.0 1.0
00000000: 0000 803f 0000 803f 0000 803f 0000 803f
00000010: 0000 803f 0000 803f 0000 803f 0000 803f
00000020: 0000 803f 0000 803f 0000 803f 0000 803f
00000030: 0000 803f 0000 803f 0000 803f 0000 803f
00000040: 0000 803f 0000 803f 0000 803f 0000 803f
00000050: 0000 803f 0000 803f 0000 803f 0000 803f
00000060: 0000 803f 0000 803f 0000 803f 0000 803f
00000070: 0000 803f 0000 803f 0000 803f 0000 803f
00000080: 0000 803f 0000 803f 0000 803f 0000 803f
00000090: 0000 803f 0000 803f 0000 803f 0000 803f
000000a0: 0000 803f 0000 803f 0000 803f 0000 803f
000000b0: 0000 803f 0000 803f 0000 803f 0000 803f
000000c0: 0000 803f 0000 803f 0000 803f 0000 803f
000000d0: 0000 803f 0000 803f 0000 803f 0000 803f
000000e0: 0000 803f 0000 803f 0000 803f 0000 803f
000000f0: 0000 803f 0000 803f 0000 803f 0000 803f
00000100: 0000 803f 0000 803f 0000 803f 0000 803f
00000110: 0000 803f 0000 803f 0000 803f 0000 803f
00000120: 0000 803f 0000 803f 0000 803f 0000 803f
00000130: 0000 803f 0000 803f 0000 803f 0000 803f
00000140: 0000 803f 0000 803f 0000 803f 0000 803f
00000150: 0000 803f 0000 803f 0000 803f 0000 803f
00000160: 0000 803f 0000 803f 0000 803f 0000 803f
00000170: 0000 803f 0000 803f 0000 803f 0000 803f
00000180: 0000 803f 0000 803f 0000 803f 0000 803f
00000190: 0000 803f 0000 803f 0000 803f 0000 803f
000001a0: 0000 803f 0000 803f 0000 803f 0000 803f
000001b0: 0000 803f 0000 803f 0000 803f 0000 803f
000001c0: 0000 803f 0000 803f 0000 803f 0000 803f
000001d0: 0000 803f 0000 803f 0000 803f 0000 803f
000001e0: 0000 803f 0000 803f 0000 803f 0000 803f
000001f0: 0000 803f 0000 803f 0000 803f 0000 803f

bn2.bias f4 [128]
0.0 0.0 0.0 0.0 0.0 0.0 0.0 0.0
0.0 0.0 0.0 0.0 0.0 0.0 0.0 0.0
0.0 0.0 0.0 0.0 0.0 0.0 0.0 0.0
0.0 0.0 0.0 0.0 0.0 0.0 0.0 0.0
0.0 0.0 0.0 0.0 0.0 0.0 0.0 0.0
0.0 0.0 0.0 0.0 0.0 0.0 0.0 0.0
0.0 0.0 0.0 0.0 0.0 0.0 0.0 0.0
0.0 0.0 0.0 0.0 0.0 0.0 0.0 0.0
0.0 0.0 0.0 0.0 0.0 0.0 0.0 0.0
0.0 0.0 0.0 0.0 0.0 0.0 0.0 0.0
0.0 0.0 0.0 0.0 0.0 0.0 0.0 0.0
0.0 0.0 0.0 0.0 0.0 0.0 0.0 0.0
0.0 0.0 0.0 0.0 0.0 0.0 0.0 0.0
0.0 0.0 0.0 0.0 0.0 0.0 0.0 0.0
0.0 0.0 0.0 0.0 0.0 0.0 0.0 0.0
0.0 0.0 0.0 0.0 0.0 0.0 0.0 0.0
00000000: 0000 0000 0000 0000 0000 0000 0000 0000
00000010: 0000 0000 0000 0000 0000 0000 0000 0000
00000020: 0000 0000 0000 0000 0000 0000 0000 0000
00000030: 0000 0000 0000 0000 0000 0000 0000 0000
00000040: 0000 0000 0000 0000 0000 0000 0000 0000
00000050: 0000 0000 0000 0000 0000 0000 0000 0000
00000060: 0000 0000 0000 0000 0000 0000 0000 0000
00000070: 0000 0000 0000 0000 0000 0000 0000 0000
00000080: 0000 0000 0000 0000 0000 0000 0000 0000
00000090: 0000 0000 0000 0000 0000 0000 0000 0000
000000a0: 0000 0000 0000 0000 0000 0000 0000 0000
000000b0: 0000 0000 0000 0000 0000 0000 0000 0000
000000c0: 0000 0000 0000 0000 0000 0000 0000 0000
000000d0: 0000 0000 0000 0000 0000 0000 0000 0000
000000e0: 0000 0000 0000 0000 0000 0000 0000 0000
000000f0: 0000 0000 0000 0000 0000 0000 0000 0000
00000100: 0000 0000 0000 0000 0000 0000 0000 0000
00000110: 0000 0000 0000 0000 0000 0000 0000 0000
00000120: 0000 0000 0000 0000 0000 0000 0000 0000
00000130: 0000 0000 0000 0000 0000 0000 0000 0000
00000140: 0000 0000 0000 0000 0000 0000 0000 0000
00000150: 0000 0000 0000 0000 0000 0000 0000 0000
00000160: 0000 0000 0000 0000 0000 0000 0000 0000
00000170: 0000 0000 0000 0000 0000 0000 0000 0000
00000180: 0000 0000 0000 0000 0000 0000 0000 0000
00000190: 0000 0000 0000 0000 0000 0000 0000 0000
000001a0: 0000 0000 0000 0000 0000 0000 0000 0000
000001b0: 0000 0000 0000 0000 0000 0000 0000 0000
000001c0: 0000 0000 0000 0000 0000 0000 0000 0000
000001d0: 0000 0000 0000 0000 0000 0000 0000 0000
000001e0: 0000 0000 0000 0000 0000 0000 0000 0000
000001f0: 0000 0000 0000 0000 0000 0000 0000 0000

bn2.running_mean f4 [128]
0.0 0.0 0.0 0.0 0.0 0.0 0.0 0.0
0.0 0.0 0.0 0.0 0.0 0.0 0.0 0.0
0.0 0.0 0.0 0.0 0.0 0.0 0.0 0.0
0.0 0.0 0.0 0.0 0.0 0.0 0.0 0.0
0.0 0.0 0.0 0.0 0.0 0.0 0.0 0.0
0.0 0.0 0.0 0.0 0.0 0.0 0.0 0.0
0.0 0.0 0.0 0.0 0.0 0.0 0.0 0.0
0.0 0.0 0.0 0.0 0.0 0.0 0.0 0.0
0.0 0.0 0.0 0.0 0.0 0.0 0.0 0.0
0.0 0.0 0.0 0.0 0.0 0.0 0.0 0.0
0.0 0.0 0.0 0.0 0.0 0.0 0.0 0.0
0.0 0.0 0.0 0.0 0.0 0.0 0.0 0.0
0.0 0.0 0.0 0.0 0.0 0.0 0.0 0.0
0.0 0.0 0.0 0.0 0.0 0.0 0.0 0.0
0.0 0.0 0.0 0.0 0.0 0.0 0.0 0.0
0.0 0.0 0.0 0.0 0.0 0.0 0.0 0.0
00000000: 0000 0000 0000 0000 0000 0000 0000 0000
00000010: 0000 0000 0000 0000 0000 0000 0000 0000
00000020: 0000 0000 0000 0000 0000 0000 0000 0000
00000030: 0000 0000 0000 0000 0000 0000 0000 0000
00000040: 0000 0000 0000 0000 0000 0000 0000 0000
00000050: 0000 0000 0000 0000 0000 0000 0000 0000
00000060: 0000 0000 0000 0000 0000 0000 0000 0000
00000070: 0000 0000 0000 0000 0000 0000 0000 0000
00000080: 0000 0000 0000 0000 0000 0000 0000 0000
00000090: 0000 0000 0000 0000 0000 0000 0000 0000
000000a0: 0000 0000 0000 0000 0000 0000 0000 0000
000000b0: 0000 0000 0000 0000 0000 0000 0000 0000
000000c0: 0000 0000 0000 0000 0000 0000 0000 0000
000000d0: 0000 0000 0000 0000 0000 0000 0000 0000
000000e0: 0000 0000 0000 0000 0000 0000 0000 0000
000000f0: 0000 0000 0000 0000 0000 0000 0000 0000
00000100: 0000 0000 0000 0000 0000 0000 0000 0000
00000110: 0000 0000 0000 0000 0000 0000 0000 0000
00000120: 0000 0000 0000 0000 0000 0000 0000 0000
00000130: 0000 0000 0000 0000 0000 0000 0000 0000
00000140: 0000 0000 0000 0000 0000 0000 0000 0000
00000150: 0000 0000 0000 0000 0000 0000 0000 0000
00000160: 0000 0000 0000 0000 0000 0000 0000 0000
00000170: 0000 0000 0000 0000 0000 0000 0000 0000
00000180: 0000 0000 0000 0000 0000 0000 0000 0000
00000190: 0000 0000 0000 0000 0000 0000 0000 0000
000001a0: 0000 0000 0000 0000 0000 0000 0000 0000
000001b0: 0000 0000 0000 0000 0000 0000 0000 0000
000001c0: 0000 0000 0000 0000 0000 0000 0000 0000
000001d0: 0000 0000 0000 0000 0000 0000 0000 0000
000001e0: 0000 0000 0000 0000 0000 0000 0000 0000
000001f0: 0000 0000 0000 0000 0000 0000 0000 0000

bn2.running_var f4 [128]
1.0 1.0 1.0 1.0 1.0 1.0 1.0 1.0
1.0 1.0 1.0 1.0 1.0 1.0 1.0 1.0
1.0 1.0 1.0 1.0 1.0 1.0 1.0 1.0
1.0 1.0 1.0 1.0 1.0 1.0 1.0 1.0
1.0 1.0 1.0 1.0 1.0 1.0 1.0 1.0
1.0 1.0 1.0 1.0 1.0 1.0 1.0 1.0
1.0 1.0 1.0 1.0 1.0 1.0 1.0 1.0
1.0 1.0 1.0 1.0 1.0 1.0 1.0 1.0
1.0 1.0 1.0 1.0 1.0 1.0 1.0 1.0
1.0 1.0 1.0 1.0 1.0 1.0 1.0 1.0
1.0 1.0 1.0 1.0 1.0 1.0 1.0 1.0
1.0 1.0 1.0 1.0 1.0 1.0 1.0 1.0
1.0 1.0 1.0 1.0 1.0 1.0 1.0 1.0
1.0 1.0 1.0 1.0 1.0 1.0 1.0 1.0
1.0 1.0 1.0 1.0 1.0 1.0 1.0 1.0
1.0 1.0 1.0 1.0 1.0 1.0 1.0 1.0
00000000: 0000 803f 0000 803f 0000 803f 0000 803f
00000010: 0000 803f 0000 803f 0000 803f 0000 803f
00000020: 0000 803f 0000 803f 0000 803f 0000 803f
00000030: 0000 803f 0000 803f 0000 803f 0000 803f
00000040: 0000 803f 0000 803f 0000 803f 0000 803f
00000050: 0000 803f 0000 803f 0000 803f 0000 803f
00000060: 0000 803f 0000 803f 0000 803f 0000 803f
00000070: 0000 803f 0000 803f 0000 803f 0000 803f
00000080: 0000 803f 0000 803f 0000 803f 0000 803f
00000090: 0000 803f 0000 803f 0000 803f 0000 803f
000000a0: 0000 803f 0000 803f 0000 803f 0000 803f
000000b0: 0000 803f 0000 803f 0000 803f 0000 803f
000000c0: 0000 803f 0000 803f 0000 803f 0000 803f
000000d0: 0000 803f 0000 803f 0000 803f 0000 803f
000000e0: 0000 803f 0000 803f 0000 803f 0000 803f
000000f0: 0000 803f 0000 803f 0000 803f 0000 803f
00000100: 0000 803f 0000 803f 0000 803f 0000 803f
00000110: 0000 803f 0000 803f 0000 803f 0000 803f
00000120: 0000 803f 0000 803f 0000 803f 0000 803f
00000130: 0000 803f 0000 803f 0000 803f 0000 803f
00000140: 0000 803f 0000 803f 0000 803f 0000 803f
00000150: 0000 803f 0000 803f 0000 803f 0000 803f
00000160: 0000 803f 0000 803f 0000 803f 0000 803f
00000170: 0000 803f 0000 803f 0000 803f 0000 803f
00000180: 0000 803f 0000 803f 0000 803f 0000 803f
00000190: 0000 803f 0000 803f 0000 803f 0000 803f
000001a0: 0000 803f 0000 803f 0000 803f 0000 803f
000001b0: 0000 803f 0000 803f 0000 803f 0000 803f
000001c0: 0000 803f 0000 803f 0000 803f 0000 803f
000001d0: 0000 803f 0000 803f 0000 803f 0000 803f
000001e0: 0000 803f 0000 803f 0000 803f 0000 803f
000001f0: 0000 803f 0000 803f 0000 803f 0000 803f

fc3.weight f4 [4, 128]
0.078730755 0.074819855 -0.18717906 -0.0753735 -0.058073927 -0.11485905 0.1608043 0.050630845
-0.14178613 -0.12432567 0.123297326 0.12829316 0.10431138 0.069351204 -0.18853371 -0.105835736
0.14374995 0.07070692 0.0643058 -0.08396364 -0.032252703 0.16988587 -0.11411725 0.10323934
0.115966134 -0.104080334 0.07472409 0.08195819 0.08068551 -0.25491926 0.04678514 0.044455417
-0.113599144 0.051877595 0.07529167 0.07278353 -0.067289785 0.086676575 -0.16641432 -0.070882656
0.09942835 0.0777431 -0.08152724 0.060359955 0.07748476 -0.20866038 0.07863564 0.07261377
0.056656804 0.058572367 0.11308953 0.0987631 -0.087737344 -0.17032431 -0.16962098 0.09698427
-0.10521276 -0.23701447 0.05760261 0.12264225 -0.101508185 -0.10826922 0.079947546 -0.10332451
0.20753847 -0.056438655 -0.20551772 -0.26915944 0.063360736 0.05181916 0.09767923 -0.1217821
0.151047 -0.072261795 -0.12060319 0.07922586 0.079832114 0.13323613 -0.097044535 0.076005146
0.06081867 0.08659773 0.07256746 0.08123398 -0.14913826 0.10080373 0.05991626 0.26366633
0.071789145 0.0822646 -0.11706029 -0.10161305 0.14242671 -0.19830175 -0.11262083 0.10141721
-0.14404659 0.07518756 0.0787662 -0.058788378 -0.113217376 0.117357306 -0.047637716 0.057723306
-0.1124899 -0.041794922 -0.16702548 -0.08891369 0.07083349 0.11732714 0.1919301 -0.16479972
0.10027378 -0.06007122 0.119301714 -0.12771831 0.09934061 -0.09765463 0.17177081 0.12795207
-0.13673122 0.06866975 0.05601648 0.07763173 0.09505186 -0.18114407 0.09875874 -0.12871614
0.07848001 0.073736794 -0.18759081 -0.07538466 -0.057298303 -0.11467612 0.16052432 0.049958482
-0.14226823 -0.124618106 0.123239286 0.12843096 0.103890315 0.069805056 -0.18931098 -0.105639
0.14339049 0.07034999 0.06353533 -0.08412332 -0.03274688 0.17015156 -0.11443098 0.10359826
0.1156156 -0.10306501 0.074628435 0.081970856 0.08005667 -0.2554464 0.04630993 0.044425417
-0.11312133 0.05194417 0.07474119 0.071988896 -0.06717303 0.08615065 -0.16661379 -0.0704275
0.09814966 0.07677283 -0.08113143 0.059384637 0.07714018 -0.20897566 0.07825968 0.07227669
0.056857653 0.05759154 0.1125929 0.09930154 -0.08697058 -0.17139952 -0.17007706 0.09726716
-0.104751505 -0.23660885 0.05739939 0.12237505 -0.10121271 -0.1092535 0.08039304 -0.102869995
0.20755272 -0.05619989 -0.20685896 -0.26931804 0.06308344 0.052259605 0.097634666 -0.12228583
0.15084223 -0.071778975 -0.12013542 0.07926174 0.07979489 0.13281876 -0.09674525 0.07567436
0.060853392 0.086341836 0.07287614 0.080536745 -0.14812197 0.10057904 0.059968226 0.2630411
0.07311124 0.081362545 -0.11758658 -0.10202296 0.14223486 -0.19725342 -0.11192238 0.10148427
-0.144145 0.07500524 0.07835341 -0.0589333 -0.112831205 0.11683667 -0.04796554 0.05686255
-0.11240568 -0.041535024 -0.16693267 -0.08939004 0.071077354 0.117276214 0.19171199 -0.16447423
0.099357545 -0.059944138 0.12026703 -0.12783143 0.0987538 -0.09789729 0.17164175 0.12794518
-0.13718715 0.06895276 0.055627745 0.077141464 0.094801284 -0.18087226 0.098524265 -0.12786938
00000000: 973d a13d 273b 993d deab 3fbe 6c5d 9abd
00000010: edde 6dbd 393b ebbd e2a9 243e 4a62 4f3d
00000020: 6230 11be 759e febd 4f83 fc3d 485f 033e
00000030: 34a1 d53d 0108 8e3d fb0e 41be 68c0 d8bd
00000040: 3033 133e cace 903d c2b2 833d 21f5 abbd
00000050: 691b 04bd 90f6 2d3e 4eb6 e9bd 266f d33d
00000060: a77f ed3d 1228 d5bd f208 993d b2d9 a73d
00000070: 723e a53d c784 82be c6a1 3f3d e216 363d
00000080: aba6 e8bd 9a7d 543d 8532 9a3d 880f 953d
00000090: 3acf 89bd 7d83 b13d 8468 2abe ed2a 91bd
000000a0: 17a1 cb3d c637 9f3d c1f7 a6bd 003c 773d
000000b0: 54b0 9e3d 11ab 55be b90b a13d 87b6 943d
000000c0: f710 683d 94e9 6f3d 7c9b e73d 4f44 ca3d
000000d0: a3af b3bd 7f69 2ebe 1fb1 2dbe b09f c63d
000000e0: ca79 d7bd ecb3 72be b7f0 6b3d dc2b fb3d
000000f0: 86e3 cfbd 41bc ddbd 8abb a33d cd9b d3bd
00000100: f784 543e 382c 67bd 3d73 52be 44cf 89be
00000110: 46c3 813d 5440 543d 0c0c c83d e568 f9bd
00000120: 11ac 1a3e fefd 93bd cefe f6bd 2b41 a23d
00000130: 057f a33d 0d6f 083e 49bf c6bd 96a8 9b3d
00000140: ff1c 793d 275a b13d 409e 943d 005e a63d
00000150: b3b7 18be 3072 ce3d c16a 753d 46ff 863e
00000160: 3006 933d 587a a83d 4ebd efbd 811a d0bd
00000170: 4fd8 113e 9d0f 4bbe c0a5 e6bd d4b3 cf3d
00000180: f380 13be effb 993d 2c50 a13d 15cc 70bd
00000190: 83de e7bd 0759 f03d c41f 43bd 466f 6c3d
000001a0: 1b61 e6bd 2731 2bbd ba08 2bbe 6118 b6bd
000001b0: 2611 913d 3649 f03d 5389 443e 42c1 28be
000001c0: 575c cd3d 3d0d 76bd 7554 f43d 97c8 02be
000001d0: 1773 cb3d 27ff c7bd b0e4 2f3e de05 033e
000001e0: 4503 0cbe baa2 8c3d 8971 653d 62fd 9e3d
000001f0: 8daa c23d d57d 39be 0642 ca3d 2ace 03be
00000200: 21ba a03d 5103 973d ce17 40be 4663 9abd
00000210: a0b1 6abd 50db eabd 7d60 243e 44a1 4c3d
00000220: c3ae 11be c737 ffbd e164 fc3d 6883 033e
00000230: 72c4 d43d f4f5 8e3d bdda 41be 4359 d8bd
00000240: f5d4 123e a813 903d d01e 823d d948 acbd
00000250: 9821 06bd 363c 2e3e ca5a eabd 532b d43d
00000260: dfc7 ec3d bf13 d3bd cbd6 983d 56e0 a73d
00000270: c0f4 a33d dfc9 82be 7baf 3d3d 6df7 353d
00000280: 28ac e7bd 69c3 543d e911 993d ea6e 933d
00000290: 0392 89bd c16f b03d ce9c 2abe 4b3c 90bd
000002a0: b002 c93d 133b 9d3d 3c28 a6bd 4e3d 733d
000002b0: acfb 9d3d b7fd 55be 9c46 a03d cd05 943d
000002c0: 92e3 683d 1be5 6b3d 1b97 e63d 9b5e cb3d
000002d0: a21d b2bd 5b83 2fbe ae28 2ebe 0134 c73d
000002e0: f587 d6bd 9749 72be 9f1b 6b3d c59f fa3d
000002f0: 9c48 cfbd 4dc0 dfbd 1ba5 a43d 81ad d2bd
00000300: b388 543e db31 66bd d6d2 53be 0ee4 89be
00000310: e431 813d 2b0e 563d aff4 c73d fe70 fabd
00000320: 6376 1a3e db00 93bd 8f09 f6bd fb53 a23d
00000330: 816b a33d a401 083e 6022 c6bd 29fb 9a3d
00000340: 6841 793d fdd3 b03d 1640 953d 73f0 a43d
00000350: 49ad 17be 62fc cd3d 3ea1 753d 53ad 863e
00000360: 59bb 953d 68a1 a63d 3cd1 f0bd 6af1 d0bd
00000370: 04a6 113e cdfc 49be 9037 e5bd fcd6 cf3d
00000380: bf9a 13be 599c 993d c177 a03d 0b64 71bd
00000390: 0c14 e7bd 1048 ef3d 8477 44bd b5e8 683d
000003a0: f334 e6bd a120 2abd 66f0 2abe 2012 b7bd
000003b0: 0191 913d 832e f03d 2650 443e ef6b 28be
000003c0: f87b cb3d fc87 75bd 904e f63d 3ee6 02be
000003d0: 6f3f ca3d 607e c8bd dbc2 2f3e 1004 033e
000003e0: ca7a 0cbe 1b37 8d3d ebd9 633d 58fc 9d3d
000003f0: 2d27 c23d 9436 39be 17c7 c93d 31f0 02be

fc3.bias f4 [4]
0.1294356 0.14386949 0.13641872 0.13926387
00000000: c48a 043e 8652 133e 59b1 0b3e 309b 0e3e
