data/critic_target.pth (torch_old, 93896 bytes, 14 tensors)

fc1.weight f4 [128, 33]
00000000: 6a43 b43d 2820 09bd 8b15 fcbc 81d4 96bd
00000010: 85b1 3a3e 3a3c 21bd 7776 8c3d 48ec a8bc
00000020: 06f1 0b3d 3c64 b7bd d1ea e63b 34b2 36bd
00000030: 03be e8bc e428 1dbd 8167 4b3d 30e5 ed3d
00000040: cd0f 88bd d985 173d 6835 22bd 625d 6abd
00000050: a42d d8bd 9171 34bc 2722 fc3d 53d2 c8bd
00000060: f1bb 29bc 0b43 62bc b33c b4bb 40c5 bc3d
00000070: 510d 74bd 5363 3b3d 5ab9 5bbd b199 683d
00000080: bdf4 8f3d a31a d23d 6bf0 a73a 8cae a2bd
00000090: 3341 213c bd3b dc3d 230f 6aba a74e bcbc
000000a0: 4cd8 db3c 74f7 903d 491d a2bd 18dd 013d
000000b0: bcf5 11bd be3a 0d3d 9318 73bd f335 10bd
000000c0: e439 e93d 0a49 783d 62ea 953d 9702 a43d
000000d0: 8fe7 b93d 0656 863c 8a07 37bd 5364 a03b
000000e0: 4220 e7bd 0373 a0bc 4d9f 3c3c f180 00bd
000000f0: 7053 27bd 0e5c b2bd 827f 7cbd 8ca4 e6bc
00000100: ce02 88bd db63 ebbd 4791 9fba c936 9fbb
00000110: 2269 18bd 649b c23c d5a0 64bd 57d2 89bc
00000120: d420 86bc 3421 10bd 0d4e ef3c f701 713c
00000130: 0483 c8bb 89ee 1fbd 8a97 84bd 2606 aa3d
00000140: 9b6b 8ebd a5be 273d 7ba1 efbc 6afa 843a
00000150: 72c8 893d f221 173c 667e 63bd 888d 99bb
00000160: 1417 d7bc 2baf 4e3d 6886 613d c927 d9bc
00000170: eb40 34bd 016e b93d 33c6 d7bc 6156 0b3d
00000180: d441 00be 4be4 d7bc 76a8 5cbe e4f8 8dbd
00000190: 755a c6bd 245a 97bd 5b10 bd3c 2c89 423c
000001a0: 6850 e8bc 1cae 593d 3486 a1bd e5e9 ee3a
000001b0: d8e5 253c 7773 883d 4699 90bc f3c3 3f3c
000001c0: cf44 743d aa09 11bd aa11 da3d ad8a d63c
000001d0: 18f3 8a3c 9103 f73c 86b4 b13b 45c5 723d
000001e0: 5203 693d 3a7b 7fbd d555 60bc b6ae b9bc
000001f0: 3f26 a93d ef3d 1ebd 57c7 193d eab3 033e
00000200: e6fe 073d 1924 cc3d 227c b13c f3d3 903d
00000210: c918 03bd 353b 20bd ee8c 0ebd cdc1 5e3d
00000220: deee 0dbd 3dbe de3c 2617 aabd 9d16 d13a
00000230: 33bd bfbc 437a 00bd 1bc7 87bd b82d bd3c
00000240: 1e96 cbbc 7fd2 3bbc caa9 0c3d e141 ecbc
00000250: c339 d1bc 3c10 87bd fa4c c8bc cc5b d8bb
00000260: 1ab7 f73b c8c7 8e3c 5ec9 7b3d 1582 a53c
00000270: 3d4a fd3b 79b2 313d 5f59 d4bd ddd3 c4bc
00000280: 6e71 dc3d df47 4a3d bd1e d03d 297a 6abd
00000290: cefe 6fbe 8b2e 45be 24f9 d3bd c613 8fbc
000002a0: a842 2dba d492 12bd 4e51 893c 4481 8a3d
000002b0: 7c05 b6bc 3521 e4bb 35ce f3bc 1c97 2dbc
000002c0: 6871 a5bc 7879 28bd af41 143d d176 18bd
000002d0: d8d0 6a3d 2670 2dbd 73da 21bb 6ebd 8fbc
000002e0: e50c 98bc b14e e2bb f118 4d3b 75e4 1ebd
000002f0: 0579 f63d b741 9dbc 0d4d 7f3c 34cc 343d
00000300: 4328 c53b 63f5 81bd 3c16 973d dc33 053d
00000310: 72e4 9dbd 7ffd 9b3e 81f9 213d 3456 603d
00000320: e64c 043e 9dbb c03c d758 ba3c ab7f d4bb
00000330: cba2 b3bc 0592 b4bb 0501 f23d 86c6 4f3d
00000340: 3e79 31bc b072 0d3d 1a7f 70bb 474c 2fbe
00000350: d3fa 7abb 0079 22bc 4f5e 3fbe 3606 d0bb
00000360: 38c8 3cbc 9143 943c 36a0 ddbc f8b5 a33b
00000370: 2750 273a 2993 11bd 32bd 283c 3933 363d
00000380: e0fd 053e 5dfe 583d a39d 903b 9686 acbd
00000390: 3d73 9cbc b7a1 4abd d50c 8c3e c5fa abbd
000003a0: a789 d23d 5cfb 85bd d4e1 813d 426d debd
000003b0: e979 9abd 4c40 a2bc 6877 24bc 5ddb f7bc
000003c0: 4e25 42bd f4e8 3fbd f5af f63c 863d fdbc
000003d0: 7f10 9d3b b6c1 edbd 1512 80bd 8433 d3bc
000003e0: 5f43 a9bd 2229 993d 4855 9abd c5a4 39bd
000003f0: 2b87 aebc e717 6fbc d385 4e3c c5ea d4bb
0.08801921 -0.033477932 -0.030771991 -0.07364751 0.18231781 -0.039364077 0.06858533 -0.02062048
0.034165405 -0.08954665 0.0070470353 -0.04460354 -0.028410917 -0.038369074 0.049659256 0.1161598
-0.06643639 0.03699288 -0.039601713 -0.057217963 -0.1055558 -0.0110134045 0.123112015 -0.09805741
-0.01035975 -0.01380993 -0.0055004 0.0921731 -0.059583012 0.04574902 -0.053643562 0.056787197
0.07029102 0.10258987 0.0012812739 -0.079434484 0.009842205 0.10753582 -0.0008928647 -0.022986723
0.026836537 0.07078448 -0.07915742 0.031704992 -0.03563474 0.03447985 -0.059349608 -0.0352077
0.11387995 0.06061653 0.073200956 0.080083065 0.090773694 0.016398441 -0.044684924 0.004894772
-0.112854496 -0.019586092 0.01151259 -0.031372968 -0.040851057 -0.08708964 -0.06164504 -0.028154634
-0.0664116 -0.11493655 -0.0012174033 -0.004858826 -0.037209637 0.023755737 -0.055817444 -0.01682393
-0.016373076 -0.035187915 0.029212022 0.014709941 -0.006119134 -0.039045844 -0.06474216 0.08301954
-0.06954118 0.040953297 -0.029251805 0.001014543 0.06727685 0.009224402 -0.055540465 -0.0046860613
-0.026256122 0.050460022 0.05505982 -0.026508229 -0.044007223 0.09054185 -0.026339626 0.034017924
-0.12525111 -0.026353976 -0.21548638 -0.06932238 -0.09685222 -0.0739024 0.023079088 0.011873525
-0.028358653 0.05314456 -0.07886925 0.0018227665 0.0101256 0.06662648 -0.017651211 0.011704433
0.059635933 -0.035409607 0.106479004 0.026189173 0.01696162 0.030153068 0.0054231314 0.059270162
0.056887932 -0.062373377 -0.013692339 -0.022666316 0.08259248 -0.038633283 0.03754362 0.128616
0.033202074 0.099678226 0.021665636 0.07071676 -0.03200606 -0.039118964 -0.03480237 0.05438404
-0.03465163 0.027190322 -0.083051965 0.0015952174 -0.023405647 -0.031366598 -0.06629773 0.02309309
-0.024851855 -0.01146376 0.03434161 -0.028840007 -0.025540238 -0.06594893 -0.024450768 -0.00660274
0.007559669 0.017429247 0.061471336 0.02020363 0.007729797 0.043383095 -0.10368609 -0.024026806
0.107638225 0.049384948 0.10162113 -0.057245407 -0.23437044 -0.19256036 -0.10350254 -0.017465483
-0.0006609359 -0.035784557 0.016762402 0.06762937 -0.022219412 -0.0069619664 -0.029761413 -0.010595109
-0.020195678 -0.041131467 0.036195453 -0.037222687 0.057328075 -0.04234328 -0.0024696856 -0.017546382
-0.018560836 -0.0069063534 0.0031295384 -0.038792092 0.120348014 -0.019196374 0.015582335 0.044140056
0.0060167625 -0.06345632 0.07377288 0.03252016 -0.07709588 0.3046684 0.039544586 0.05476971
0.1291996 0.023526961 0.02274744 -0.006484946 -0.021928212 -0.005510571 0.11816601 0.050726436
-0.010832129 0.034533203 -0.0036696852 -0.17118941 -0.0038296476 -0.009916544 -0.1868832 -0.0063483967
-0.011522345 0.018098624 -0.027053934 0.0049960576 0.0006382488 -0.035540733 0.010299014 0.044482443
0.13085127 0.052976955 0.004413323 -0.08424108 -0.019097919 -0.04947063 0.2735354 -0.0839744
0.10280161 -0.065420836 0.063419014 -0.10860683 -0.07542784 -0.01980605 -0.010038234 -0.030255968
-0.047398858 -0.04685302 0.0301132 -0.030913126 0.0047932263 -0.11609213 -0.06253449 -0.0257814
-0.08264803 0.074785486 -0.07535797 -0.045323152 -0.021304687 -0.014593101 0.012605148 -0.0064977133

fc1.bias f4 [128]
00000000: e2b5 3abe 5bd7 b83d 584e 45be 22a0 9e3c
00000010: 5d54 c93d e249 0d3e be9a 193e 2c09 1abe
00000020: 90d5 b2bd 96cc 2f3e f7da 263e 333d 28be
00000030: cf98 45be 62e4 26be a511 10bd 7085 32be
00000040: d815 283d 6955 193e 04f6 38be acb3 2fbd
00000050: d43a c6bb f887 cf3d ab32 7e3d 3761 dcbc
00000060: acab f7bd e4fe 3fbe 5208 903d 01d3 9d3d
00000070: fd9c 9dbd e8b6 723e 8a66 55be 2b4b 5f3e
00000080: cd42 133e 3c48 c63d eb08 2f3d 823d dfbd
00000090: d42c fd3d e8d2 243b 33bb c83c 9add 32bd
000000a0: 4262 e43d c73b e1bc d8bf 223d d89b 433d
000000b0: f462 7e3b e844 293e a5db 72bc 8e5b 48bc
000000c0: 95ae 363d e76c 243e fa7d bdbd f2b1 f7bd
000000d0: 6d49 b5bc 8415 aabb d05a cebd fa12 3b3e
000000e0: 645e d5bd 39c3 0bbc 53eb 183e b716 233e
000000f0: 246f 92bc e404 983c ffb7 efbc c452 ab3d
00000100: b5d3 9ebd 1103 083d d946 503e a6f6 cfbd
00000110: ce2e 2d3d 7c05 9abd b69a 0f3d 4909 0ebe
00000120: 1100 21be acfe 24bc 7fb6 43bc fe4d 383e
00000130: 4f7f eebc 94a8 a9bd 750d 563e 6927 64be
00000140: ec96 18be 5111 22bd b08b 423e 768c 15be
00000150: 9588 12be 3c49 4fbd 3628 38be 86eb f23d
00000160: ccc4 533d e4ca 033d edbe 25be a1c4 253b
00000170: 972e e63d 2b0a f33d 9cd0 fe3d 00e2 803d
00000180: 70a2 f8bd 129b 84bd 4585 803d 355d e03c
00000190: ecea d5bd fe46 c33c 57a3 1d3e a395 a03d
000001a0: 588a 44be 6327 e8bd a43d 9ebd 2aa6 95bd
000001b0: 24bb 53bd 543a c03d 063d c6bc 235a 7e3c
000001c0: 0712 9bbd cda1 063e 5a1d debd 225a 40be
000001d0: 44da 2d3e 8bc2 c9bd e02b 403e c95a fa3c
000001e0: 3918 ce3d 93c6 ac3b d87f 7fbd 6b98 32bc
000001f0: 1258 14be aafa 393e 6816 84bd fad4 073e
-0.18233445 0.09025451 -0.19268167 0.019363467 0.09830544 0.13797715 0.15000436 -0.15042561
-0.0873214 0.17167887 0.16294466 -0.16429596 -0.19296573 -0.16298059 -0.035173077 -0.17433715
0.041036457 0.14973988 -0.18062598 -0.042895958 -0.0060494933 0.10133356 0.06206004 -0.026901824
-0.12093291 -0.18749577 0.07032837 0.077062614 -0.07695959 0.23702586 -0.20839897 0.21806018
0.14380951 0.09681746 0.042733114 -0.109004036 0.12362066 0.0025150124 0.024503326 -0.043668367
0.11151554 -0.027494324 0.039733738 0.047756046 0.0038816305 0.16530192 -0.014822875 -0.01222886
0.04460009 0.16057168 -0.09252544 -0.12094487 -0.022129739 -0.005190553 -0.10075915 0.18268958
-0.10418394 -0.008530431 0.14933519 0.15926634 -0.017875262 0.01855702 -0.02926254 0.08365396
-0.07755224 0.03320605 0.20339526 -0.10154466 0.042280965 -0.07520577 0.035059653 -0.1387073
-0.15722682 -0.010070484 -0.011945366 0.17998502 -0.02911344 -0.08284107 0.20903571 -0.22280659
-0.14901322 -0.039567295 0.18998599 -0.14604363 -0.14309914 -0.05060695 -0.1798409 0.11861329
0.051701352 0.032175913 -0.16186114 0.0025294202 0.11239355 0.11867174 0.12442133 0.06293106
-0.121403575 -0.0647489 0.06275419 0.027388195 -0.104451984 0.023837563 0.1539434 0.07841041
-0.19193399 -0.113356374 -0.07726601 -0.07307084 -0.051692143 0.09386125 -0.02419902 0.01552442
-0.07571798 0.1314766 -0.10845442 -0.18784383 0.16977793 -0.09851559 0.18766737 0.030560868
0.10063214 0.0052726953 -0.06237778 -0.010900597 -0.14486721 0.18162027 -0.06449586 0.13264838

bn1.weight f4 [128]
00000000: 0000 803f 0000 803f 0000 803f 0000 803f
00000010: 0000 803f 0000 803f 0000 803f 0000 803f
00000020: 0000 803f 0000 803f 0000 803f 0000 803f
00000030: 0000 803f 0000 803f 0000 803f 0000 803f
00000040: 0000 803f 0000 803f 0000 803f 0000 803f
00000050: 0000 803f 0000 803f 0000 803f 0000 803f
00000060: 0000 803f 0000 803f 0000 803f 0000 803f
00000070: 0000 803f 0000 803f 0000 803f 0000 803f
00000080: 0000 803f 0000 803f 0000 803f 0000 803f
00000090: 0000 803f 0000 803f 0000 803f 0000 803f
000000a0: 0000 803f 0000 803f 0000 803f 0000 803f
000000b0: 0000 803f 0000 803f 0000 803f 0000 803f
000000c0: 0000 803f 0000 803f 0000 803f 0000 803f
000000d0: 0000 803f 0000 803f 0000 803f 0000 803f
000000e0: 0000 803f 0000 803f 0000 803f 0000 803f
000000f0: 0000 803f 0000 803f 0000 803f 0000 803f
00000100: 0000 803f 0000 803f 0000 803f 0000 803f
00000110: 0000 803f 0000 803f 0000 803f 0000 803f
00000120: 0000 803f 0000 803f 0000 803f 0000 803f
00000130: 0000 803f 0000 803f 0000 803f 0000 803f
00000140: 0000 803f 0000 803f 0000 803f 0000 803f
00000150: 0000 803f 0000 803f 0000 803f 0000 803f
00000160: 0000 803f 0000 803f 0000 803f 0000 803f
00000170: 0000 803f 0000 803f 0000 803f 0000 803f
00000180: 0000 803f 0000 803f 0000 803f 0000 803f
00000190: 0000 803f 0000 803f 0000 803f 0000 803f
000001a0: 0000 803f 0000 803f 0000 803f 0000 803f
000001b0: 0000 803f 0000 803f 0000 803f 0000 803f
000001c0: 0000 803f 0000 803f 0000 803f 0000 803f
000001d0: 0000 803f 0000 803f 0000 803f 0000 803f
000001e0: 0000 803f 0000 803f 0000 803f 0000 803f
000001f0: 0000 803f 0000 803f 0000 803f 0000 803f
1.0 1.0 1.0 1.0 1.0 1.0 1.0 1.0
1.0 1.0 1.0 1.0 1.0 1.0 1.0 1.0
1.0 1.0 1.0 1.0 1.0 1.0 1.0 1.0
1.0 1.0 1.0 1.0 1.0 1.0 1.0 1.0
1.0 1.0 1.0 1.0 1.0 1.0 1.0 1.0
1.0 1.0 1.0 1.0 1.0 1.0 1.0 1.0
1.0 1.0 1.0 1.0 1.0 1.0 1.0 1.0
1.0 1.0 1.0 1.0 1.0 1.0 1.0 1.0
1.0 1.0 1.0 1.0 1.0 1.0 1.0 1.0
1.0 1.0 1.0 1.0 1.0 1.0 1.0 1.0
1.0 1.0 1.0 1.0 1.0 1.0 1.0 1.0
1.0 1.0 1.0 1.0 1.0 1.0 1.0 1.0
1.0 1.0 1.0 1.0 1.0 1.0 1.0 1.0
1.0 1.0 1.0 1.0 1.0 1.0 1.0 1.0
1.0 1.0 1.0 1.0 1.0 1.0 1.0 1.0
1.0 1.0 1.0 1.0 1.0 1.0 1.0 1.0

bn1.bias f4 [128]
00000000: 0000 0000 0000 0000 0000 0000 0000 0000
00000010: 0000 0000 0000 0000 0000 0000 0000 0000
00000020: 0000 0000 0000 0000 0000 0000 0000 0000
00000030: 0000 0000 0000 0000 0000 0000 0000 0000
00000040: 0000 0000 0000 0000 0000 0000 0000 0000
00000050: 0000 0000 0000 0000 0000 0000 0000 0000
00000060: 0000 0000 0000 0000 0000 0000 0000 0000
00000070: 0000 0000 0000 0000 0000 0000 0000 0000
00000080: 0000 0000 0000 0000 0000 0000 0000 0000
00000090: 0000 0000 0000 0000 0000 0000 0000 0000
000000a0: 0000 0000 0000 0000 0000 0000 0000 0000
000000b0: 0000 0000 0000 0000 0000 0000 0000 0000
000000c0: 0000 0000 0000 0000 0000 0000 0000 0000
000000d0: 0000 0000 0000 0000 0000 0000 0000 0000
000000e0: 0000 0000 0000 0000 0000 0000 0000 0000
000000f0: 0000 0000 0000 0000 0000 0000 0000 0000
00000100: 0000 0000 0000 0000 0000 0000 0000 0000
00000110: 0000 0000 0000 0000 0000 0000 0000 0000
00000120: 0000 0000 0000 0000 0000 0000 0000 0000
00000130: 0000 0000 0000 0000 0000 0000 0000 0000
00000140: 0000 0000 0000 0000 0000 0000 0000 0000
00000150: 0000 0000 0000 0000 0000 0000 0000 0000
00000160: 0000 0000 0000 0000 0000 0000 0000 0000
00000170: 0000 0000 0000 0000 0000 0000 0000 0000
00000180: 0000 0000 0000 0000 0000 0000 0000 0000
00000190: 0000 0000 0000 0000 0000 0000 0000 0000
000001a0: 0000 0000 0000 0000 0000 0000 0000 0000
000001b0: 0000 0000 0000 0000 0000 0000 0000 0000
000001c0: 0000 0000 0000 0000 0000 0000 0000 0000
000001d0: 0000 0000 0000 0000 0000 0000 0000 0000
000001e0: 0000 0000 0000 0000 0000 0000 0000 0000
000001f0: 0000 0000 0000 0000 0000 0000 0000 0000
0.0 0.0 0.0 0.0 0.0 0.0 0.0 0.0
0.0 0.0 0.0 0.0 0.0 0.0 0.0 0.0
0.0 0.0 0.0 0.0 0.0 0.0 0.0 0.0
0.0 0.0 0.0 0.0 0.0 0.0 0.0 0.0
0.0 0.0 0.0 0.0 0.0 0.0 0.0 0.0
0.0 0.0 0.0 0.0 0.0 0.0 0.0 0.0
0.0 0.0 0.0 0.0 0.0 0.0 0.0 0.0
0.0 0.0 0.0 0.0 0.0 0.0 0.0 0.0
0.0 0.0 0.0 0.0 0.0 0.0 0.0 0.0
0.0 0.0 0.0 0.0 0.0 0.0 0.0 0.0
0.0 0.0 0.0 0.0 0.0 0.0 0.0 0.0
0.0 0.0 0.0 0.0 0.0 0.0 0.0 0.0
0.0 0.0 0.0 0.0 0.0 0.0 0.0 0.0
0.0 0.0 0.0 0.0 0.0 0.0 0.0 0.0
0.0 0.0 0.0 0.0 0.0 0.0 0.0 0.0
0.0 0.0 0.0 0.0 0.0 0.0 0.0 0.0

bn1.running_mean f4 [128]
00000000: 0000 0000 0000 0000 0000 0000 0000 0000
00000010: 0000 0000 0000 0000 0000 0000 0000 0000
00000020: 0000 0000 0000 0000 0000 0000 0000 0000
00000030: 0000 0000 0000 0000 0000 0000 0000 0000
00000040: 0000 0000 0000 0000 0000 0000 0000 0000
00000050: 0000 0000 0000 0000 0000 0000 0000 0000
00000060: 0000 0000 0000 0000 0000 0000 0000 0000
00000070: 0000 0000 0000 0000 0000 0000 0000 0000
00000080: 0000 0000 0000 0000 0000 0000 0000 0000
00000090: 0000 0000 0000 0000 0000 0000 0000 0000
000000a0: 0000 0000 0000 0000 0000 0000 0000 0000
000000b0: 0000 0000 0000 0000 0000 0000 0000 0000
000000c0: 0000 0000 0000 0000 0000 0000 0000 0000
000000d0: 0000 0000 0000 0000 0000 0000 0000 0000
000000e0: 0000 0000 0000 0000 0000 0000 0000 0000
000000f0: 0000 0000 0000 0000 0000 0000 0000 0000
00000100: 0000 0000 0000 0000 0000 0000 0000 0000
00000110: 0000 0000 0000 0000 0000 0000 0000 0000
00000120: 0000 0000 0000 0000 0000 0000 0000 0000
00000130: 0000 0000 0000 0000 0000 0000 0000 0000
00000140: 0000 0000 0000 0000 0000 0000 0000 0000
00000150: 0000 0000 0000 0000 0000 0000 0000 0000
00000160: 0000 0000 0000 0000 0000 0000 0000 0000
00000170: 0000 0000 0000 0000 0000 0000 0000 0000
00000180: 0000 0000 0000 0000 0000 0000 0000 0000
00000190: 0000 0000 0000 0000 0000 0000 0000 0000
000001a0: 0000 0000 0000 0000 0000 0000 0000 0000
000001b0: 0000 0000 0000 0000 0000 0000 0000 0000
000001c0: 0000 0000 0000 0000 0000 0000 0000 0000
000001d0: 0000 0000 0000 0000 0000 0000 0000 0000
000001e0: 0000 0000 0000 0000 0000 0000 0000 0000
000001f0: 0000 0000 0000 0000 0000 0000 0000 0000
0.0 0.0 0.0 0.0 0.0 0.0 0.0 0.0
0.0 0.0 0.0 0.0 0.0 0.0 0.0 0.0
0.0 0.0 0.0 0.0 0.0 0.0 0.0 0.0
0.0 0.0 0.0 0.0 0.0 0.0 0.0 0.0
0.0 0.0 0.0 0.0 0.0 0.0 0.0 0.0
0.0 0.0 0.0 0.0 0.0 0.0 0.0 0.0
0.0 0.0 0.0 0.0 0.0 0.0 0.0 0.0
0.0 0.0 0.0 0.0 0.0 0.0 0.0 0.0
0.0 0.0 0.0 0.0 0.0 0.0 0.0 0.0
0.0 0.0 0.0 0.0 0.0 0.0 0.0 0.0
0.0 0.0 0.0 0.0 0.0 0.0 0.0 0.0
0.0 0.0 0.0 0.0 0.0 0.0 0.0 0.0
0.0 0.0 0.0 0.0 0.0 0.0 0.0 0.0
0.0 0.0 0.0 0.0 0.0 0.0 0.0 0.0
0.0 0.0 0.0 0.0 0.0 0.0 0.0 0.0
0.0 0.0 0.0 0.0 0.0 0.0 0.0 0.0

bn1.running_var f4 [128]
00000000: 0000 803f 0000 803f 0000 803f 0000 803f
00000010: 0000 803f 0000 803f 0000 803f 0000 803f
00000020: 0000 803f 0000 803f 0000 803f 0000 803f
00000030: 0000 803f 0000 803f 0000 803f 0000 803f
00000040: 0000 803f 0000 803f 0000 803f 0000 803f
00000050: 0000 803f 0000 803f 0000 803f 0000 803f
00000060: 0000 803f 0000 803f 0000 803f 0000 803f
00000070: 0000 803f 0000 803f 0000 803f 0000 803f
00000080: 0000 803f 0000 803f 0000 803f 0000 803f
00000090: 0000 803f 0000 803f 0000 803f 0000 803f
000000a0: 0000 803f 0000 803f 0000 803f 0000 803f
000000b0: 0000 803f 0000 803f 0000 803f 0000 803f
000000c0: 0000 803f 0000 803f 0000 803f 0000 803f
000000d0: 0000 803f 0000 803f 0000 803f 0000 803f
000000e0: 0000 803f 0000 803f 0000 803f 0000 803f
000000f0: 0000 803f 0000 803f 0000 803f 0000 803f
00000100: 0000 803f 0000 803f 0000 803f 0000 803f
00000110: 0000 803f 0000 803f 0000 803f 0000 803f
00000120: 0000 803f 0000 803f 0000 803f 0000 803f
00000130: 0000 803f 0000 803f 0000 803f 0000 803f
00000140: 0000 803f 0000 803f 0000 803f 0000 803f
00000150: 0000 803f 0000 803f 0000 803f 0000 803f
00000160: 0000 803f 0000 803f 0000 803f 0000 803f
00000170: 0000 803f 0000 803f 0000 803f 0000 803f
00000180: 0000 803f 0000 803f 0000 803f 0000 803f
00000190: 0000 803f 0000 803f 0000 803f 0000 803f
000001a0: 0000 803f 0000 803f 0000 803f 0000 803f
000001b0: 0000 803f 0000 803f 0000 803f 0000 803f
000001c0: 0000 803f 0000 803f 0000 803f 0000 803f
000001d0: 0000 803f 0000 803f 0000 803f 0000 803f
000001e0: 0000 803f 0000 803f 0000 803f 0000 803f
000001f0: 0000 803f 0000 803f 0000 803f 0000 803f
1.0 1.0 1.0 1.0 1.0 1.0 1.0 1.0
1.0 1.0 1.0 1.0 1.0 1.0 1.0 1.0
1.0 1.0 1.0 1.0 1.0 1.0 1.0 1.0
1.0 1.0 1.0 1.0 1.0 1.0 1.0 1.0
1.0 1.0 1.0 1.0 1.0 1.0 1.0 1.0
1.0 1.0 1.0 1.0 1.0 1.0 1.0 1.0
1.0 1.0 1.0 1.0 1.0 1.0 1.0 1.0
1.0 1.0 1.0 1.0 1.0 1.0 1.0 1.0
1.0 1.0 1.0 1.0 1.0 1.0 1.0 1.0
1.0 1.0 1.0 1.0 1.0 1.0 1.0 1.0
1.0 1.0 1.0 1.0 1.0 1.0 1.0 1.0
1.0 1.0 1.0 1.0 1.0 1.0 1.0 1.0
1.0 1.0 1.0 1.0 1.0 1.0 1.0 1.0
1.0 1.0 1.0 1.0 1.0 1.0 1.0 1.0
1.0 1.0 1.0 1.0 1.0 1.0 1.0 1.0
1.0 1.0 1.0 1.0 1.0 1.0 1.0 1.0

fc2.weight f4 [128, 132]
00000000: fc0f ea3a c80d d13c 2091 113d e743 9e3c
00000010: 9eac 5cbc bb83 b8bd 46d7 053e 17b6 d7bc
00000020: 92d6 29bd 2608 be3d e380 7a3d fc61 afbd
00000030: 68d2 e2bd d4a1 aabd 0594 cb3c e03d 9cbd
00000040: 392a 953d 8ea2 15bd 473e 93bd 2f12 283c
00000050: 98b5 c3bd e2b6 d3bc 6c05 02bc bcab ce3d
00000060: e748 283d 12dc 733c 3886 30bc 25d9 523c
00000070: 73cb d0bd ae5b 3a3d d391 85bb 28af d6bc
00000080: 7ae2 8cbd 014b 9cbd f0b2 8c3d 780b 27bd
00000090: 3d20 9bbc 8b75 98bc 07ec c9bd 340e 32be
000000a0: c634 76bd 6ca7 ab3d f800 493d 6665 c8bd
000000b0: 14a0 3f3e 2334 7abb da07 d9ba 0efd 95bd
000000c0: 7564 c0bd c283 8abd 6abf 43bd 19db c1bd
000000d0: 1f4f 2f3d 015e 853d 5511 083e 3132 a4bd
000000e0: 76dd d33c c57e 533d ec67 b43d 1bb6 c13d
000000f0: 7f9b 763d ea46 523d 6b52 9fbd c45f 47bc
00000100: 1742 81bd 9e6e deb9 f821 b5bc 45bd f23c
00000110: adc1 843d 1284 873c 485b da3d 4f36 b83d
00000120: 4b47 8ebd f631 063d 5305 f7bb 742d cb3d
00000130: 4739 5c3d 27b6 a73d 4d99 d5bd 03a8 c83c
00000140: 6678 c8bd 1131 9cbd 6494 63bd b8ca 50bd
00000150: 29b4 d13c 92ba d2bb d860 2f3c 8e48 283d
00000160: e9a5 033d f074 13bd 0d51 a8bd d9b2 153d
00000170: 78a3 fb3c f822 6dbc ab32 b83d 6a41 023d
00000180: 684e 10bd e6da 94bd 2951 f1bc 4d3f a73d
00000190: 5866 1fbd 6e1a 8d3c 204b df3c 70e9 32bc
000001a0: 9352 9a3d 95ab 12be 5f87 f23d bdee a23d
000001b0: 2b31 c93c a90c ccbd 7492 903c b286 d43c
000001c0: 0f04 62bd ce35 f1bd d665 73bc 582e bebc
000001d0: 2510 f5bc ef9d 863d 7abc 0d3c 397b a73d
000001e0: c497 1d3d 74ae 3cbd 86d9 18be 4516 95bd
000001f0: 74b4 823c 837a 803d 71d0 0bbe 57d1 193c
00000200: ca33 bfbb 8796 ff3c 67a6 6ebd 186b 9abc
00000210: dfb1 81bd d8ce 2bbd bf0d 833d 1cf7 b93d
00000220: b5d2 d83d 1df6 193d 52b2 463b 40af 73bd
00000230: cd92 5b3d 559d a83d 69ea 9b3c c2a8 453d
00000240: 6a9b 203b 4dc5 e1bb d029 0abd a4f1 7d3d
00000250: 0ab7 413d 8318 bb3d a176 1abd 5353 123d
00000260: 5f46 c43c 1334 0cbe e45b fa3d a311 17bd
00000270: b22f 923d 1000 c83b 656b 64bc d567 06be
00000280: 4bb8 ca3d 8bb5 953b 109f 523c acd4 443d
00000290: 627d 7abc 0a39 e0bc 79e6 28be d467 883d
000002a0: 368c 12bd 8043 983d 22f2 c43d df21 663d
000002b0: 7a43 af3d cd05 813c 30a4 d93c 47cf 7cbc
000002c0: a29c c3bc 3223 5abd 11a9 0cbd 3820 06bb
000002d0: 5312 29bc b01b 02bd 69ad 40bb 6dfe f43b
000002e0: a2da 033e 9601 5b3c f7b5 ba3d 8e2f 1a3b
000002f0: 87b7 1e3d 45d5 eabd d7e3 123d a1bb 5b3d
00000300: 6904 33bd eec5 5f3b 336c 77bd 66e5 813d
00000310: 63d5 bebc b070 8bbc 7158 293b 7878 bb3d
00000320: de1b 5dbd f753 023e 36db 873d a973 eabd
00000330: 1bc6 863c 04a7 6abc 63da 363c f9ad 6c3d
00000340: 5bda c43d 1569 593b d025 c7bc 7854 9e3d
00000350: f467 e73b 744f c8bb afc9 2c3d d819 223d
00000360: 6fec 883d b45c e93d 2d72 91bd e480 b03d
00000370: 6ce8 5fbc dc76 783d ff71 01be 7ca1 883d
00000380: 8176 2b3d 0198 363c cbe5 51bc 9701 b73d
00000390: 25f7 8bbd d86a a3bc bbc5 e9bc 9b29 9a3d
000003a0: 1025 053d 0d12 f53c 9cbc 7d3d f3c3 d5bb
000003b0: 8e38 963d a128 3bbc ed41 c23c 19d9 a4bd
000003c0: 671e 6e3c 034a e33d 798b 8f3d 3c8e 083d
000003d0: 8ca2 38bd a02e a33d da03 843d db21 acbd
000003e0: 79be c63d 70ec 5dbd 23d2 a6bc ae5e 9f3d
000003f0: bd56 f2bc b8d3 153b 7b30 ce3d 31b0 8f3d
0.0017857547 0.025519267 0.035538793 0.019319488 -0.0134688895 -0.090095006 0.13070402 -0.026331944
-0.041464396 0.09278898 0.061158072 -0.08563611 -0.11075288 -0.083316475 0.024850855 -0.07628989
0.07283444 -0.036531977 -0.07189613 0.010258242 -0.09556121 -0.025844041 -0.007935863 0.100913495
0.04108515 0.014884012 -0.010774188 0.012869154 -0.10195055 0.04549759 -0.0040762215 -0.026206568
-0.068791345 -0.07631493 0.06870067 -0.04078242 -0.01893627 -0.018610736 -0.09859472 -0.1738823
-0.060108922 0.083815426 0.04907319 -0.09784965 0.18713409 -0.0038178049 -0.0016558126 -0.07323657
-0.09394161 -0.06763412 -0.04778997 -0.09465618 0.042800065 0.065120704 0.13287862 -0.08017386
0.025862437 0.05163457 0.08808884 0.09458562 0.060206886 0.05133716 -0.07779392 -0.012168828
-0.06311434 -0.00042425556 -0.022110924 0.029631266 0.06482253 0.016542468 0.10661942 0.089947335
-0.06947192 0.03276249 -0.0075384765 0.09920779 0.05376556 0.0818904 -0.104296304 0.024494177
-0.09788589 -0.07626546 -0.05556144 -0.050974578 0.025598602 -0.0064309323 0.010704242 0.04108482
0.032140646 -0.036000192 -0.08218584 0.036547516 0.030717596 -0.014473669 0.08994039 0.031800665
-0.035231024 -0.07268314 -0.029457645 0.081663705 -0.038915962 0.017224517 0.027257502 -0.010919914
0.07535281 -0.14323266 0.11842226 0.07955692 0.024559578 -0.09963352 0.01764796 0.025943134
-0.05517965 -0.117778406 -0.014855823 -0.023215458 -0.029914925 0.06573092 0.008650893 0.081778
0.038474813 -0.04606481 -0.14926729 -0.07279638 0.015955187 0.06273367 -0.13653733 0.009388289
-0.005835031 0.031199707 -0.058264162 -0.018849894 -0.06332754 -0.04194531 0.06399106 0.090803355
0.10587064 0.037588228 0.003031869 -0.059493303 0.053606797 0.08233134 0.019032674 0.048256643
0.0024506696 -0.006889975 -0.03373128 0.061998025 0.0472937 0.091355346 -0.03771079 0.035723995
0.023959337 -0.1369174 0.12224558 -0.036882054 0.071380034 0.006103523 -0.0139416205 -0.13125546
0.09898432 0.0045687607 0.012855306 0.048054382 -0.015288683 -0.027370948 -0.16494168 0.06660429
-0.035778247 0.074347496 0.09616496 0.056184646 0.08557792 0.015749836 0.026567549 -0.015430278
-0.0238784 -0.05325622 -0.03434092 -0.0020465981 -0.01031931 -0.031764686 -0.0029400236 0.007476619
0.1287637 0.013367077 0.09116738 0.002352688 0.038749244 -0.11466459 0.035861816 0.053645734
-0.043705378 0.0034145075 -0.06040592 0.063425824 -0.02329511 -0.017021507 0.0025840069 0.09153837
-0.053981654 0.12727343 0.06633608 -0.11447842 0.016451886 -0.014322046 0.011160466 0.0577831
0.096119605 0.0033174206 -0.024310023 0.07730955 0.0070619527 -0.006112987 0.042184528 0.039575428
0.06685721 0.11394635 -0.071018554 0.08618334 -0.013666254 0.060660228 -0.12641142 0.06671426
0.04186106 0.011144639 -0.012811135 0.0893585 -0.068342485 -0.019948408 -0.028536668 0.07527467
0.03250605 0.029915834 0.06194745 -0.006523603 0.07335006 -0.011423261 0.023713076 -0.080492206
0.014533616 0.11098101 0.07009024 0.03333877 -0.04507689 0.079678774 0.06446047 -0.08404895
0.097042985 -0.054180562 -0.020363873 0.077817306 -0.029582376 0.002286179 0.10067841 0.07016028

fc2.bias f4 [128]
00000000: a5d8 1ebc 151b 353e fe83 523a 06e5 6c3d
00000010: 5865 87bd fc82 85bc 54d5 17bd 79e8 f13d
00000020: e9da 813d bea4 303d 4e96 393c f6e4 323d
00000030: 410a da3d 5ae9 053e 46b8 f8bc 80ac 0a3d
00000040: 3978 0ebc fe4d 473d 2e40 f73d 6449 b4bd
00000050: 7cdd eb3c 8c78 163a 72f0 c1bd c15f 99bc
00000060: 99ab 503d e6f1 60bc 3130 ed3d a47e 113e
00000070: f037 d5bc 11c2 883d 9fd2 623d 1e21 d7bc
00000080: 0b28 fdbd 57e3 0abd 5351 9a3d c136 0c3e
00000090: 46af 8abc a908 043e a906 14be cacb 97bd
000000a0: 7df1 b03d 1b91 003e f706 d63c be42 053e
000000b0: 791b ad3d a097 1ebd af40 a03d 7bca b93c
000000c0: ed91 ca3d 8076 183e 157e 563c 1068 883d
000000d0: 0718 0dbd aa12 cfbd 1bdd 78bc 698f 133d
000000e0: 8b6d 8d3c 163a a4bd efb0 b43d 945d 30bc
000000f0: 2dd8 eb3a bfa3 223c ab3e 9e3b 4920 9b3d
00000100: e7a8 fa3c 1b73 e9bc 4d0b 80bc 216e 5bbd
00000110: 2415 023e d171 4bbb f187 cc3d 8dc5 b6bd
00000120: 8dca 013c 6a41 4f3d 6c4b 58bc c5e2 9d3d
00000130: 62e6 ec3c 2a7e 5c3c ae7c 91bc 807b de3d
00000140: e6a0 a13c 2760 d93d 7778 603d c04d d13d
00000150: 2fa8 05bd 3b35 be3d 0274 133e a89a 2e3e
00000160: ecd3 023c 38be ed3d 1708 83bd 995a 68bd
00000170: 09ef 013e 7a64 54bd a692 5d3d 07c2 e93d
00000180: 6095 c2bd 0c93 f0bb 7ae0 dbbc 48f5 7d3d
00000190: 614a 943c a798 2d3c 33bb 103d ccdc e63d
000001a0: dc87 92bc c63c dfbb f630 9e3d cdae d9bd
000001b0: ccbb efbb 7def ec3d 2ab4 573d 22d8 c6bd
000001c0: 3779 bc3d 75c3 30bd 53df 5e3d 627d e938
000001d0: acbc afbc eb46 9cbd 32f2 b33b d5d7 933d
000001e0: 7409 b3bc 8c0c 633d caba 65bd 701a d13d
000001f0: 2b17 d53d 1441 d3bd bf86 393d 7cf7 c4bd
-0.009695207 0.17686112 0.00080305326 0.0578356 -0.06611127 -0.01629781 -0.03706868 0.11811919
0.06340582 0.04312586 0.011327339 0.043675385 0.10646487 0.13077298 -0.030361306 0.033855915
-0.0086956555 0.048658364 0.12072788 -0.08803061 0.028792135 0.0005740009 -0.094696894 -0.018722417
0.0509449 -0.013729548 0.115814574 0.14208466 -0.02602765 0.0667764 0.055376645 -0.026260909
-0.12361153 -0.033908214 0.075350426 0.13692762 -0.01692928 0.12893929 -0.14455666 -0.074119166
0.0863981 0.12555353 0.026126368 0.13013741 0.084525056 -0.03871882 0.078248374 0.022679558
0.098911144 0.14888954 0.013091584 0.06660473 -0.034446742 -0.10110982 -0.015189434 0.03602544
0.017264148 -0.080188915 0.0882281 -0.010764498 0.0017993503 0.009926735 0.004829248 0.07574517
0.030598117 -0.02849727 -0.015630389 -0.053571824 0.12703377 -0.0031043182 0.09986866 -0.089243986
0.007921827 0.050599493 -0.013201576 0.077092685 0.028918449 0.013457814 -0.017759647 0.108633995
0.019730043 0.10614043 0.054802384 0.10219908 -0.032631095 0.09287497 0.14399722 0.17051184
0.007985096 0.11608547 -0.063980274 -0.056727026 0.12688841 -0.051853634 0.054094933 0.11413961
-0.09501147 -0.007341748 -0.026840437 0.062001497 0.018101873 0.010595477 0.035334777 0.112725824
-0.017887048 -0.0068126647 0.07724182 -0.10629044 -0.0073160883 0.11569116 0.052662052 -0.09709193
0.092028074 -0.043155152 0.054412197 0.0001113366 -0.02145227 -0.07630714 0.0054915184 0.07218901
-0.021855094 0.055431888 -0.05608634 0.10210121 0.104048096 -0.10315147 0.04529452 -0.096175164

bn2.weight f4 [128]
00000000: 0000 803f 0000 803f 0000 803f 0000 803f
00000010: 0000 803f 0000 803f 0000 803f 0000 803f
00000020: 0000 803f 0000 803f 0000 803f 0000 803f
00000030: 0000 803f 0000 803f 0000 803f 0000 803f
00000040: 0000 803f 0000 803f 0000 803f 0000 803f
00000050: 0000 803f 0000 803f 0000 803f 0000 803f
00000060: 0000 803f 0000 803f 0000 803f 0000 803f
00000070: 0000 803f 0000 803f 0000 803f 0000 803f
00000080: 0000 803f 0000 803f 0000 803f 0000 803f
00000090: 0000 803f 0000 803f 0000 803f 0000 803f
000000a0: 0000 803f 0000 803f 0000 803f 0000 803f
000000b0: 0000 803f 0000 803f 0000 803f 0000 803f
000000c0: 0000 803f 0000 803f 0000 803f 0000 803f
000000d0: 0000 803f 0000 803f 0000 803f 0000 803f
000000e0: 0000 803f 0000 803f 0000 803f 0000 803f
000000f0: 0000 803f 0000 803f 0000 803f 0000 803f
00000100: 0000 803f 0000 803f 0000 803f 0000 803f
00000110: 0000 803f 0000 803f 0000 803f 0000 803f
00000120: 0000 803f 0000 803f 0000 803f 0000 803f
00000130: 0000 803f 0000 803f 0000 803f 0000 803f
00000140: 0000 803f 0000 803f 0000 803f 0000 803f
00000150: 0000 803f 0000 803f 0000 803f 0000 803f
00000160: 0000 803f 0000 803f 0000 803f 0000 803f
00000170: 0000 803f 0000 803f 0000 803f 0000 803f
00000180: 0000 803f 0000 803f 0000 803f 0000 803f
00000190: 0000 803f 0000 803f 0000 803f 0000 803f
000001a0: 0000 803f 0000 803f 0000 803f 0000 803f
000001b0: 0000 803f 0000 803f 0000 803f 0000 803f
000001c0: 0000 803f 0000 803f 0000 803f 0000 803f
000001d0: 0000 803f 0000 803f 0000 803f 0000 803f
000001e0: 0000 803f 0000 803f 0000 803f 0000 803f
000001f0: 0000 803f 0000 803f 0000 803f 0000 803f
1.0 1.0 1.0 1.0 1.0 1.0 1.0 1.0
1.0 1.0 1.0 1.0 1.0 1.0 1.0 1.0
1.0 1.0 1.0 1.0 1.0 1.0 1.0 1.0
1.0 1.0 1.0 1.0 1.0 1.0 1.0 1.0
1.0 1.0 1.0 1.0 1.0 1.0 1.0 1.0
1.0 1.0 1.0 1.0 1.0 1.0 1.0 1.0
1.0 1.0 1.0 1.0 1.0 1.0 1.0 1.0
1.0 1.0 1.0 1.0 1.0 1.0 1.0 1.0
1.0 1.0 1.0 1.0 1.0 1.0 1.0 1.0
1.0 1.0 1.0 1.0 1.0 1.0 1.0 1.0
1.0 1.0 1.0 1.0 1.0 1.0 1.0 1.0
1.0 1.0 1.0 1.0 1.0 1.0 1.0 1.0
1.0 1.0 1.0 1.0 1.0 1.0 1.0 1.0
1.0 1.0 1.0 1.0 1.0 1.0 1.0 1.0
1.0 1.0 1.0 1.0 1.0 1.0 1.0 1.0
1.0 1.0 1.0 1.0 1.0 1.0 1.0 1.0

bn2.bias f4 [128]
00000000: 0000 0000 0000 0000 0000 0000 0000 0000
00000010: 0000 0000 0000 0000 0000 0000 0000 0000
00000020: 0000 0000 0000 0000 0000 0000 0000 0000
00000030: 0000 0000 0000 0000 0000 0000 0000 0000
00000040: 0000 0000 0000 0000 0000 0000 0000 0000
00000050: 0000 0000 0000 0000 0000 0000 0000 0000
00000060: 0000 0000 0000 0000 0000 0000 0000 0000
00000070: 0000 0000 0000 0000 0000 0000 0000 0000
00000080: 0000 0000 0000 0000 0000 0000 0000 0000
00000090: 0000 0000 0000 0000 0000 0000 0000 0000
000000a0: 0000 0000 0000 0000 0000 0000 0000 0000
000000b0: 0000 0000 0000 0000 0000 0000 0000 0000
000000c0: 0000 0000 0000 0000 0000 0000 0000 0000
000000d0: 0000 0000 0000 0000 0000 0000 0000 0000
000000e0: 0000 0000 0000 0000 0000 0000 0000 0000
000000f0: 0000 0000 0000 0000 0000 0000 0000 0000
00000100: 0000 0000 0000 0000 0000 0000 0000 0000
00000110: 0000 0000 0000 0000 0000 0000 0000 0000
00000120: 0000 0000 0000 0000 0000 0000 0000 0000
00000130: 0000 0000 0000 0000 0000 0000 0000 0000
00000140: 0000 0000 0000 0000 0000 0000 0000 0000
00000150: 0000 0000 0000 0000 0000 0000 0000 0000
00000160: 0000 0000 0000 0000 0000 0000 0000 0000
00000170: 0000 0000 0000 0000 0000 0000 0000 0000
00000180: 0000 0000 0000 0000 0000 0000 0000 0000
00000190: 0000 0000 0000 0000 0000 0000 0000 0000
000001a0: 0000 0000 0000 0000 0000 0000 0000 0000
000001b0: 0000 0000 0000 0000 0000 0000 0000 0000
000001c0: 0000 0000 0000 0000 0000 0000 0000 0000
000001d0: 0000 0000 0000 0000 0000 0000 0000 0000
000001e0: 0000 0000 0000 0000 0000 0000 0000 0000
000001f0: 0000 0000 0000 0000 0000 0000 0000 0000
0.0 0.0 0.0 0.0 0.0 0.0 0.0 0.0
0.0 0.0 0.0 0.0 0.0 0.0 0.0 0.0
0.0 0.0 0.0 0.0 0.0 0.0 0.0 0.0
0.0 0.0 0.0 0.0 0.0 0.0 0.0 0.0
0.0 0.0 0.0 0.0 0.0 0.0 0.0 0.0
0.0 0.0 0.0 0.0 0.0 0.0 0.0 0.0
0.0 0.0 0.0 0.0 0.0 0.0 0.0 0.0
0.0 0.0 0.0 0.0 0.0 0.0 0.0 0.0
0.0 0.0 0.0 0.0 0.0 0.0 0.0 0.0
0.0 0.0 0.0 0.0 0.0 0.0 0.0 0.0
0.0 0.0 0.0 0.0 0.0 0.0 0.0 0.0
0.0 0.0 0.0 0.0 0.0 0.0 0.0 0.0
0.0 0.0 0.0 0.0 0.0 0.0 0.0 0.0
0.0 0.0 0.0 0.0 0.0 0.0 0.0 0.0
0.0 0.0 0.0 0.0 0.0 0.0 0.0 0.0
0.0 0.0 0.0 0.0 0.0 0.0 0.0 0.0

bn2.running_mean f4 [128]
00000000: 0000 0000 0000 0000 0000 0000 0000 0000
00000010: 0000 0000 0000 0000 0000 0000 0000 0000
00000020: 0000 0000 0000 0000 0000 0000 0000 0000
00000030: 0000 0000 0000 0000 0000 0000 0000 0000
00000040: 0000 0000 0000 0000 0000 0000 0000 0000
00000050: 0000 0000 0000 0000 0000 0000 0000 0000
00000060: 0000 0000 0000 0000 0000 0000 0000 0000
00000070: 0000 0000 0000 0000 0000 0000 0000 0000
00000080: 0000 0000 0000 0000 0000 0000 0000 0000
00000090: 0000 0000 0000 0000 0000 0000 0000 0000
000000a0: 0000 0000 0000 0000 0000 0000 0000 0000
000000b0: 0000 0000 0000 0000 0000 0000 0000 0000
000000c0: 0000 0000 0000 0000 0000 0000 0000 0000
000000d0: 0000 0000 0000 0000 0000 0000 0000 0000
000000e0: 0000 0000 0000 0000 0000 0000 0000 0000
000000f0: 0000 0000 0000 0000 0000 0000 0000 0000
00000100: 0000 0000 0000 0000 0000 0000 0000 0000
00000110: 0000 0000 0000 0000 0000 0000 0000 0000
00000120: 0000 0000 0000 0000 0000 0000 0000 0000
00000130: 0000 0000 0000 0000 0000 0000 0000 0000
00000140: 0000 0000 0000 0000 0000 0000 0000 0000
00000150: 0000 0000 0000 0000 0000 0000 0000 0000
00000160: 0000 0000 0000 0000 0000 0000 0000 0000
00000170: 0000 0000 0000 0000 0000 0000 0000 0000
00000180: 0000 0000 0000 0000 0000 0000 0000 0000
00000190: 0000 0000 0000 0000 0000 0000 0000 0000
000001a0: 0000 0000 0000 0000 0000 0000 0000 0000
000001b0: 0000 0000 0000 0000 0000 0000 0000 0000
000001c0: 0000 0000 0000 0000 0000 0000 0000 0000
000001d0: 0000 0000 0000 0000 0000 0000 0000 0000
000001e0: 0000 0000 0000 0000 0000 0000 0000 0000
000001f0: 0000 0000 0000 0000 0000 0000 0000 0000
0.0 0.0 0.0 0.0 0.0 0.0 0.0 0.0
0.0 0.0 0.0 0.0 0.0 0.0 0.0 0.0
0.0 0.0 0.0 0.0 0.0 0.0 0.0 0.0
0.0 0.0 0.0 0.0 0.0 0.0 0.0 0.0
0.0 0.0 0.0 0.0 0.0 0.0 0.0 0.0
0.0 0.0 0.0 0.0 0.0 0.0 0.0 0.0
0.0 0.0 0.0 0.0 0.0 0.0 0.0 0.0
0.0 0.0 0.0 0.0 0.0 0.0 0.0 0.0
0.0 0.0 0.0 0.0 0.0 0.0 0.0 0.0
0.0 0.0 0.0 0.0 0.0 0.0 0.0 0.0
0.0 0.0 0.0 0.0 0.0 0.0 0.0 0.0
0.0 0.0 0.0 0.0 0.0 0.0 0.0 0.0
0.0 0.0 0.0 0.0 0.0 0.0 0.0 0.0
0.0 0.0 0.0 0.0 0.0 0.0 0.0 0.0
0.0 0.0 0.0 0.0 0.0 0.0 0.0 0.0
0.0 0.0 0.0 0.0 0.0 0.0 0.0 0.0

bn2.running_var f4 [128]
00000000: 0000 803f 0000 803f 0000 803f 0000 803f
00000010: 0000 803f 0000 803f 0000 803f 0000 803f
00000020: 0000 803f 0000 803f 0000 803f 0000 803f
00000030: 0000 803f 0000 803f 0000 803f 0000 803f
00000040: 0000 803f 0000 803f 0000 803f 0000 803f
00000050: 0000 803f 0000 803f 0000 803f 0000 803f
00000060: 0000 803f 0000 803f 0000 803f 0000 803f
00000070: 0000 803f 0000 803f 0000 803f 0000 803f
00000080: 0000 803f 0000 803f 0000 803f 0000 803f
00000090: 0000 803f 0000 803f 0000 803f 0000 803f
000000a0: 0000 803f 0000 803f 0000 803f 0000 803f
000000b0: 0000 803f 0000 803f 0000 803f 0000 803f
000000c0: 0000 803f 0000 803f 0000 803f 0000 803f
000000d0: 0000 803f 0000 803f 0000 803f 0000 803f
000000e0: 0000 803f 0000 803f 0000 803f 0000 803f
000000f0: 0000 803f 0000 803f 0000 803f 0000 803f
00000100: 0000 803f 0000 803f 0000 803f 0000 803f
00000110: 0000 803f 0000 803f 0000 803f 0000 803f
00000120: 0000 803f 0000 803f 0000 803f 0000 803f
00000130: 0000 803f 0000 803f 0000 803f 0000 803f
00000140: 0000 803f 0000 803f 0000 803f 0000 803f
00000150: 0000 803f 0000 803f 0000 803f 0000 803f
00000160: 0000 803f 0000 803f 0000 803f 0000 803f
00000170: 0000 803f 0000 803f 0000 803f 0000 803f
00000180: 0000 803f 0000 803f 0000 803f 0000 803f
00000190: 0000 803f 0000 803f 0000 803f 0000 803f
000001a0: 0000 803f 0000 803f 0000 803f 0000 803f
000001b0: 0000 803f 0000 803f 0000 803f 0000 803f
000001c0: 0000 803f 0000 803f 0000 803f 0000 803f
000001d0: 0000 803f 0000 803f 0000 803f 0000 803f
000001e0: 0000 803f 0000 803f 0000 803f 0000 803f
000001f0: 0000 803f 0000 803f 0000 803f 0000 803f
1.0 1.0 1.0 1.0 1.0 1.0 1.0 1.0
1.0 1.0 1.0 1.0 1.0 1.0 1.0 1.0
1.0 1.0 1.0 1.0 1.0 1.0 1.0 1.0
1.0 1.0 1.0 1.0 1.0 1.0 1.0 1.0
1.0 1.0 1.0 1.0 1.0 1.0 1.0 1.0
1.0 1.0 1.0 1.0 1.0 1.0 1.0 1.0
1.0 1.0 1.0 1.0 1.0 1.0 1.0 1.0
1.0 1.0 1.0 1.0 1.0 1.0 1.0 1.0
1.0 1.0 1.0 1.0 1.0 1.0 1.0 1.0
1.0 1.0 1.0 1.0 1.0 1.0 1.0 1.0
1.0 1.0 1.0 1.0 1.0 1.0 1.0 1.0
1.0 1.0 1.0 1.0 1.0 1.0 1.0 1.0
1.0 1.0 1.0 1.0 1.0 1.0 1.0 1.0
1.0 1.0 1.0 1.0 1.0 1.0 1.0 1.0
1.0 1.0 1.0 1.0 1.0 1.0 1.0 1.0
1.0 1.0 1.0 1.0 1.0 1.0 1.0 1.0

fc3.weight f4 [4, 128]
00000000: a06d a03d 78cd 983d d3b5 44be a923 9fbd
00000010: 59a0 70bd 4dbb e6bd 0b24 253e 6c01 503d
00000020: e4a8 0fbe 29ee fbbd 0b6c fd3d 4423 033e
00000030: 4a0d d53d 8ff7 8c3d 20d5 41be a8c4 dabd
00000040: 5ef8 133e 3d29 913d d9c3 833d c240 adbd
00000050: df80 02bd d91c 2e3e 3d72 ecbd 2f58 d03d
00000060: 790a ed3d 1a4f d6bd 1baa 983d 530b a73d
00000070: 9b54 a53d 8a47 83be 1a53 3e3d 0839 363d
00000080: 51d6 e7bd f194 533d 18d6 993d 7310 953d
00000090: 3200 88bd 5aeb b03d dcfd 26be e444 93bd
000000a0: 1a17 c93d 7937 9f3d 9810 a8bd c00b 763d
000000b0: 9df3 9e3d d631 52be b3a3 a13d 7676 933d
000000c0: 65e8 693d 866e 6f3d ca26 e73d 8d1a c93d
000000d0: f6df b2bd 87c1 2fbe 5bca 2fbe 0634 c63d
000000e0: d17a d7bd b4e8 71be ce78 6b3d 9a07 fb3d
000000f0: d12a d1bd 869a dabd 6e56 a53d fa12 dabd
00000100: 14cd 543e bc23 68bd 3a2a 50be 2ff1 8abe
00000110: 25f4 803d 2b6e 523d 8e0d c93d 43eb f5bd
00000120: 6cc9 1a3e 9a65 96bd c3da f4bd e146 a23d
00000130: 0543 a53d 4d59 083e f7b7 c5bd c983 9b3d
00000140: 2ec6 783d 2c54 b03d 3753 943d 54f0 a53d
00000150: 2cbf 16be b386 d13d c5be 733d 3ecb 863e
00000160: 6eca 943d b1e3 a73d eb38 f2bd 53f4 d0bd
00000170: 90e2 113e 3d42 4bbe d939 edbd 52c1 cf3d
00000180: b2d5 0fbe 697e 9a3d 08b2 a13d 5b16 6dbd
00000190: 063c eebd 8b51 f13d c978 45bd 249e 6b3d
000001a0: 7e23 e7bd 745d 39bd 7daf 2dbe 3a7f b4bd
000001b0: a22f 913d e5e9 ef3d 17a8 443e 97dd 28be
000001c0: 0b3f cd3d 9d99 63bd 2ffe f33d f292 02be
000001d0: 7d31 cb3d 0841 c5bd 146e 2c3e 882e 033e
000001e0: cc2f 0ebe 9a3e 8d3d 5f97 653d 1a9c 9e3d
000001f0: d03d c53d d6b1 37be c36a cc3d a4a9 03be
00000200: 8af7 9f3d 3696 963d 7d24 45be 6924 9fbd
00000210: 3891 6dbd b067 e6bd f3d6 243e ad35 4d3d
00000220: 8630 10be d582 fcbd c760 fd3d 1347 033e
00000230: b536 d43d 44e4 8d3d 2dad 42be 6461 dabd
00000240: 2392 133e 8377 903d 1433 823d 2d8d adbd
00000250: 0b6b 04bd 2662 2e3e 2c2c edbd 3b45 d13d
00000260: d34e ec3d 7338 d4bd 1e72 983d 1512 a73d
00000270: 400a a43d 678f 83be ee64 3c3d 4e0b 363d
00000280: cbe1 e6bd 07e9 533d e1b5 983d 8472 933d
00000290: dac3 87bd 56d7 af3d 3525 27be 2254 92bd
000002a0: 656c c63d 2c3e 9d3d 9836 a7bd 6c07 723d
000002b0: 503f 9e3d 0e8f 52be 4de1 a03d b8c4 923d
000002c0: dbc2 6a3d aa5c 6b3d f225 e63d 0930 ca3d
000002d0: d45e b1bd f5da 30be 5a45 30be bdc5 c63d
000002e0: 898c d6bd d67f 71be 6d9c 6a3d 667d fa3d
000002f0: 527b d0bd 609f dcbd 204e a63d 772d d9bd
00000300: d1d4 543e f72c 67bd e989 51be c201 8bbe
00000310: 765a 803d b739 543d 2ffb c83d 0df8 f6bd
00000320: 3093 1a3e 7673 95bd 10d8 f3bd fa55 a23d
00000330: 552b a53d 80ee 073e 7d17 c5bd 67da 9a3d
00000340: b4ec 783d c2d0 af3d 2cf9 943d dd7e a43d
00000350: dfb5 15be 530b d13d e2f3 733d 6079 863e
00000360: 0e6f 973d 3408 a63d f158 f3bd 0fcb d1bd
00000370: 3eb4 113e 0638 4abe 62d6 ebbd d1e4 cf3d
00000380: b1f8 0fbe 3328 9a3d a6dd a03d 1da2 6dbd
00000390: 9981 edbd 1c41 f03d ddc3 46bd 0518 683d
000003a0: fa08 e7bd 714e 38bd 439a 2dbe 696a b5bd
000003b0: 62aa 913d c9d0 ef3d f76f 443e 2787 28be
000003c0: c45a cb3d d41f 63bd 78f9 f53d 35ae 02be
000003d0: e7de c93d 72d3 c5bd a739 2c3e 1c2d 033e
000003e0: b8b5 0ebe a6d3 8d3d 560d 643d 559e 9d3d
000003f0: d3b0 c43d 5f63 37be 91c5 cb3d 7ed1 02be
0.07833409 0.07461065 -0.19209985 -0.077704735 -0.05874667 -0.112661935 0.1612703 0.050782606
-0.1402927 -0.12301285 0.12374123 0.12806422 0.10402925 0.068831556 -0.18928957 -0.106820405
0.14450213 0.07087944 0.06433839 -0.08459617 -0.031861182 0.17003192 -0.11545227 0.1017307
0.11574263 -0.10464306 0.0745432 0.08156457 0.08072778 -0.25640517 0.04646597 0.044487983
-0.113201745 0.051655713 0.07511538 0.07278528 -0.06640662 0.0863864 -0.16307777 -0.07190874
0.098188594 0.077742524 -0.0820629 0.0600698 0.07761309 -0.20526823 0.07892551 0.07200329
0.057106394 0.058455013 0.11286695 0.09819517 -0.087341234 -0.17163669 -0.17167036 0.096778914
-0.10521472 -0.23623925 0.057488255 0.12257309 -0.10213245 -0.10674004 0.08073126 -0.10648151
0.20781356 -0.056674704 -0.20328608 -0.27137133 0.06296567 0.051374596 0.098170385 -0.12007763
0.15115899 -0.07343598 -0.11955788 0.07923675 0.080694236 0.13315316 -0.09654229 0.075934954
0.060735874 0.086098045 0.072424345 0.081024796 -0.14721364 0.1023077 0.059508104 0.26326936
0.07265173 0.081977256 -0.118272625 -0.10202851 0.14246583 -0.19849487 -0.11583299 0.10144295
-0.14046362 0.07543642 0.07895285 -0.057882648 -0.11632542 0.11783131 -0.048210893 0.05752386
-0.112860665 -0.04525514 -0.16961475 -0.08813329 0.07089163 0.11714534 0.19204746 -0.1649078
0.1002179 -0.05556642 0.11913716 -0.12751368 0.099215485 -0.09631544 0.16838866 0.12810719
-0.1388542 0.06896706 0.05605256 0.07744618 0.096309304 -0.17938933 0.09981301 -0.12857682
0.07810886 0.07352869 -0.192522 -0.077706166 -0.05799982 -0.112502456 0.16097622 0.050100017
-0.1408101 -0.12329642 0.123719744 0.12820081 0.10361997 0.06928304 -0.19011374 -0.10663107
0.14411215 0.07054045 0.06357399 -0.08474193 -0.032328647 0.17029628 -0.11580691 0.10218283
0.11538472 -0.10362329 0.07443641 0.08157746 0.080097675 -0.25695345 0.04599469 0.044444375
-0.11273535 0.051735904 0.07456566 0.071995765 -0.066291526 0.08585994 -0.16322787 -0.07144953
0.09688643 0.07677874 -0.0816471 0.05908911 0.0772692 -0.20562384 0.07855473 0.071664274
0.057314735 0.05746142 0.11237706 0.09872443 -0.08660665 -0.17271025 -0.17213956 0.09705684
-0.10476024 -0.23583922 0.057278086 0.12230949 -0.101797715 -0.10772586 0.0812037 -0.10604375
0.20784308 -0.056439366 -0.20462765 -0.2714978 0.06267254 0.051812854 0.098135345 -0.12059031
0.1509521 -0.07297413 -0.11906445 0.07926555 0.080649056 0.13274574 -0.09623621 0.07561188
0.060772613 0.08584739 0.07274088 0.0803201 -0.1462016 0.10207238 0.059558757 0.26264477
0.07394229 0.08107033 -0.118821986 -0.102438085 0.14228913 -0.19747934 -0.115155 0.10151065
-0.14059712 0.07527199 0.07854776 -0.05801593 -0.115969844 0.11731169 -0.048526634 0.05666353
-0.11281009 -0.044996683 -0.16953377 -0.08858187 0.07112576 0.117097445 0.19183336 -0.16457807
0.099294215 -0.055450276 0.12010473 -0.12761767 0.098569684 -0.096594706 0.16818868 0.12810177
-0.13936508 0.06925134 0.05567678 0.07696215 0.09604039 -0.17909001 0.09949792 -0.12775227

fc3.bias f4 [4]
00000000: 44be 033e 3888 123e 02e6 0a3e 23d0 0d3e
0.1286555 0.14309776 0.13564304 0.13848929
